Tu/actor.pth (torch, 471367 bytes, 6 tensors)

actor.0.weight f4 [256, 100]
000000 39 26 9e be 9e c9 18 3e 02 7f a0 3d d4 4b df 3b
       -0.30888537 0.14920661 0.07836725 0.0068144593
000010 9f 5d a3 bd 4b f6 da bd 0c 40 96 bc a1 20 e3 bd
       -0.07976841 -0.10691508 -0.018341087 -0.11090208
000020 a0 50 5c be 5d d3 95 bd 92 92 25 be f9 ad 04 be
       -0.21515131 -0.07315705 -0.16169193 -0.1295699
000030 d6 81 85 be 73 24 7c be 50 04 1a be ec 4e 1a 3e
       -0.2607562 -0.2462328 -0.15040708 0.15069169
000040 8a 3e 1c bd 55 96 4c 3d fe 24 e4 3d 3e 21 0a bd
       -0.03814558 0.049948055 0.11139868 -0.03372311
000050 20 d8 28 3d 24 0a 8b 3d 33 dc f8 bd 26 19 04 3d
       0.041221738 0.067890435 -0.12151375 0.032250546
000060 4a ba 25 be 6b 09 8a be e8 d3 c9 3d f6 24 db bd
       -0.16184345 -0.2696031 0.09854871 -0.10700409
000070 0a 55 41 3d 74 c2 4d bd 9d 6e 1c 3d 52 5c 33 3d
       0.04720024 -0.050234273 0.038191427 0.043789215
000080 35 1a a2 bd f0 a0 f7 3d 14 0e 5c 3e 62 16 20 3d
       -0.07915155 0.12091243 0.21489745 0.039083846
000090 e0 0b b9 3d cb 7d e4 bd 2d ee 9b bd c5 a8 df 3d
       0.09035468 -0.111568056 -0.07613788 0.10920862
0000a0 76 fd b5 be 5a 32 e5 3c 4e ef 3f 3e 19 42 fc 3d
       -0.35544938 0.027978111 0.18743631 0.123172946
0000b0 ab 6a 0e be f2 91 9c 3c b2 0f 29 3d a9 ce 92 bd
       -0.13907878 0.01911256 0.041274734 -0.071683235
0000c0 b1 a4 cc 3c dd 63 95 bc 58 cb 59 be 91 25 63 bd
       0.024980875 -0.018236095 -0.21268976 -0.055455748
0000d0 99 39 6a 3e 5b 96 b7 bc 3f 68 76 be ec 99 13 3d
       0.22873534 -0.022410562 -0.24063204 0.036035463
0000e0 0c 69 c3 be ac 1c 00 3e 09 c2 3f be 92 38 d4 bc
       -0.38166082 0.12510937 -0.18726362 -0.025905881
0000f0 ab 94 c7 bd 39 9d de 3d 38 ec 1b 3c 25 ab 95 3c
       -0.09745153 0.108698316 0.009516768 0.018270085
000100 51 13 8b 3c e8 72 08 bd cb 86 42 3e f3 0a 3b 3e
       0.016976984 -0.03331271 0.18996732 0.18265896
000110 cb 6c 31 bd 36 80 1f be 09 82 82 3d 00 5e f8 3d
       -0.043316644 -0.15576252 0.063724585 0.12127304
000120 ef 23 be bd 1d 33 85 3e 91 f2 ac bd 77 b7 4b 3d
       -0.092841975 0.2601556 -0.08444703 0.049735513
000130 ad 42 fd bd c6 7f a8 bc bc 8a 81 3e b8 8d c0 bd
       -0.12366233 -0.02056874 0.25301158 -0.09402031
000140 f7 df 3b bd 1b e0 12 be 2d e4 0a be ed 40 b8 bd
       -0.045867886 -0.14343302 -0.13563605 -0.089967586
000150 74 00 02 be ec 89 91 bd 0b 4d be bd 9a 32 d7 3d
       -0.12695485 -0.07106385 -0.092920385 0.10507698
000160 b2 fe 1a bd 5e 5a 07 be 13 61 99 bd fc ff eb 3d
       -0.037840553 -0.13218066 -0.074892186 0.115234345
000170 d1 6d 5f 3d 34 ef b7 3e e8 5d e8 bd 30 ae 14 3e
       0.05454809 0.35924685 -0.11346036 0.14519572
000180 e8 f1 ef 3d b3 64 60 bd cc 71 48 bd 32 e5 55 3e
       0.11716062 -0.054783534 -0.04893665 0.20888212
000190 f4 49 f5 bd 76 84 f2 3b 6b ee 80 3d 75 60 02 3e
       -0.11976996 0.0074010445 0.062954746 0.12732108
0001a0 64 7e da bd 0a 07 92 3d 87 00 e6 bd 3e 4c 21 3d
       -0.10668638 0.07130249 -0.11230569 0.03937935
0001b0 25 9f 56 bd 54 39 84 bd b2 9a b3 3d 9b a2 63 bd
       -0.052397866 -0.06456247 0.0876974 -0.055574995
0001c0 5b e8 95 3e 94 a3 3d bd 45 a5 8a 3d be 4c 05 bd
       0.29278836 -0.04629858 0.06769804 -0.03254389
0001d0 30 a8 98 bd 0d 78 02 3e d3 34 a3 bd a5 c8 15 be
       -0.07453954 0.12741108 -0.0796906 -0.14627321
0001e0 e5 26 c2 bb 67 42 c5 3d d8 88 c9 3d 10 ca 1b be
       -0.0059250467 0.09631806 0.09840554 -0.152138
0001f0 ab 8e 7d 3e 79 34 03 be c2 f7 a5 bd ce 7b 1d bd
       0.24761455 -0.12812985 -0.08103897 -0.038448147
000200 2f ff 3b 3c 28 f2 54 be 2a a4 98 bd 01 dd 47 3c
       0.011474415 -0.207955 -0.07453187 0.0121986875
000210 9a 39 22 3e 1a 0b 17 3e 40 61 10 3e 18 17 12 be
       0.15842286 0.14750329 0.14099598 -0.14266622
000220 d0 07 1f 3d 36 de 35 bd 8c 44 04 be 2d 6d a3 be
       0.03882581 -0.04440137 -0.12916774 -0.31919232
000230 ca 04 82 3c f9 5b a4 3d cf f3 b1 3d b2 df 06 be
       0.015871424 0.08025355 0.08689081 -0.1317127
000240 ae d8 cc 3c 28 39 73 3d ca 2d b9 3d 56 4e 2b bd
       0.025005665 0.05938068 0.09041937 -0.041822754
000250 f2 05 de bd 5d 5a 5b 3e 68 84 44 be 5a 19 46 bd
       -0.10840978 0.2142119 -0.19191134 -0.04836402
000260 13 ba d5 bd 94 6b 36 3d 3c eb 01 3e 6a 0b 21 be
       -0.104358815 0.04453619 0.12687391 -0.1572701
000270 aa 13 3c bc 6e d4 d5 3c 00 54 8b bd 58 c1 83 3c
       -0.011479298 0.02610227 -0.06803131 0.016083404
000280 1c 80 9f bc 74 c6 a3 bd 74 5c 7d 3d f9 f9 43 be
       -0.019470267 -0.07996836 0.06185575 -0.19138326
000290 ed 64 1a 3c 40 ea 67 3e 53 10 e3 3d 20 5b b2 3e
       0.009423477 0.22647953 0.11087098 0.34835148
0002a0 df 53 ae 3c 50 5c 0e 3d a5 c5 0f be 38 32 61 3c
       0.021280227 0.034756005 -0.14040239 0.013744883
0002b0 de 76 11 be e3 27 98 be 35 63 8c 3c b8 5f c9 bd
       -0.142055 -0.2971793 0.01713715 -0.0983271
0002c0 d0 d5 15 be f9 67 61 3d dc 3d e9 3d 89 0a 6a bd
       -0.14632344 0.055030797 0.11388752 -0.057138953
0002d0 04 9e 3b be 47 f0 aa bd 97 9f fd bd f0 43 c6 bd
       -0.18321997 -0.083466105 -0.12383955 -0.09680927
0002e0 8f 23 56 be 80 f2 37 3e 17 58 c4 3d 82 c0 58 3e
       -0.20912002 0.179636 0.09587114 0.21167186
0002f0 a7 ae 58 be 20 d3 c0 bc 23 3b 22 be e0 16 02 bb
       -0.21160375 -0.023538172 -0.15842871 -0.001985006
000300 41 13 c2 bc cc bd ee 3d 2e 56 0a 3d 69 1b 69 3e
       -0.023690822 0.11657295 0.033773594 0.22764362
000310 0a 98 0b 3e b9 b2 dd 3d d2 f8 04 3e 1d 8b 84 bd
       0.13632217 0.10825104 0.12985542 -0.06471846
000320 3f 3a ee bc 55 b1 18 bc b4 06 99 bd c5 8a cf 3d
       -0.029080508 -0.009319623 -0.07471982 0.1013389
000330 fb 3d b1 3c e7 e8 53 3d 85 e6 a6 3c e5 cb 6c bc
       0.021636 0.051735785 0.020373592 -0.014452909
000340 cf 90 78 bc 93 c7 90 3c 1d 36 f2 3c bd 31 b3 3c
       -0.015171244 0.01767329 0.029566819 0.021874303
000350 f8 49 3d 3e c8 23 60 bb 20 ca 2d be aa ca 66 3e
       0.18485248 -0.0034201015 -0.16971636 0.22538248
000360 8a b5 77 3e 6c 6c 2c bd 57 6c ce bc 17 65 89 bb
       0.24190345 -0.042095587 -0.025198145 -0.004192959
000370 41 98 05 3e 05 25 17 3e e1 cb eb 3d dd 5d db bd
       0.13046362 0.14760216 0.11513496 -0.107112624
000380 ec 75 0f 3d 79 24 0a 3d 62 30 a3 bb b7 c8 51 bd
       0.03502457 0.03372619 -0.004980133 -0.051216807
000390 76 24 3f be db 13 ae b9 d0 4d e8 3d fe 41 ae bc
       -0.18666252 -0.0003320266 0.113429666 -0.021271702
0003a0 6d aa 9e bd d5 18 90 3c 81 e7 6a 3d 4b 31 4f 3d
       -0.0774735 0.017589966 0.057349686 0.05058412
0003b0 8c a0 aa 3e 49 1f bb bd 91 27 d8 3d d0 84 82 3e
       0.33325613 -0.091368265 0.10554422 0.25491953
0003c0 7f 14 7d 3d 50 85 88 3d 30 8d 4c bc 91 d4 6c 3e
       0.061787125 0.06666052 -0.012484834 0.23127963
0003d0 1a f5 95 3d 81 2a 66 3d 1d f0 a5 3d 3e 09 bc 3d
       0.0732214 0.05619288 0.081024386 0.0918145
0003e0 8c ea 56 bd 3d 23 2b be e8 e7 e4 bb 6f 3b c1 3a
       -0.052469775 -0.16712661 -0.006985653 0.0014742444
0003f0 09 8e d8 bd 46 05 f8 bd f6 0d 8b bd 9e fe a5 bd
       -0.10573966 -0.12110381 -0.06789772 -0.08105205

actor.0.bias f4 [256]
000000 a9 05 59 bd 41 34 39 be 07 8b a8 3d 7b 42 10 3f
       -0.052983914 -0.1808634 0.08229642 0.5635144
000010 7b 6b 91 bd 56 8b a8 bd 88 c3 e4 3b e1 fb fb bd
       -0.071005784 -0.08229701 0.006981317 -0.123039015
000020 45 9c a5 3e 72 85 be bd a2 20 b6 bd 46 97 11 bd
       0.32345787 -0.093027964 -0.08892943 -0.035544656
000030 83 b0 4b bd d4 af 0a be fa 6a b0 bd f7 e4 80 bd
       -0.04972888 -0.13543636 -0.08614154 -0.062936716
000040 fc 25 ea 3d e9 27 f0 3e ad ab e8 bd 85 01 a1 bd
       0.11433026 0.4690545 -0.113608696 -0.07861618
000050 fc 9f 0d be bb fc 0a be 4a 62 c4 bb 2b 82 41 3d
       -0.1383056 -0.13572972 -0.0059931623 0.04724328
000060 bb 0c df bd c8 f6 d6 bd 02 30 6b 3e 9c b6 48 be
       -0.108911 -0.104962885 0.22967532 -0.1960091
000070 22 49 83 be 31 da 0b be 17 0c 12 3c 5f dd ff 3c
       -0.25641733 -0.13657452 0.008914015 0.031233488
000080 26 8c b9 bd 85 df 0d be 28 2c e8 3e 5b 74 5d 3e
       -0.09059934 -0.13854797 0.4534619 0.21626417
000090 3a 09 85 be 76 5d b3 3b 52 8d 66 bd 7e 6d 34 be
       -0.25983602 0.005473788 -0.056287117 -0.17619893
0000a0 5a 60 cc bd 45 3d 0f be ab 54 7a bd ca 0d 62 bd
       -0.09979315 -0.13988216 -0.061115902 -0.05518893
0000b0 82 f1 1d bd 7c 5d 55 be 92 cf 11 be 47 98 15 3d
       -0.038560398 -0.20836443 -0.14239338 0.036522176
0000c0 cb 8e 17 be 07 79 41 3e f2 75 0d bd 67 d3 42 be
       -0.14800565 0.18893825 -0.03453631 -0.19025956
0000d0 c7 01 50 be da d7 ae 3c 0e 4f 1c be 2c 64 f7 bd
       -0.20313178 0.02134316 -0.15264532 -0.12079653
0000e0 be 14 d7 bc a6 93 1f 3d dd d6 a6 bd 9d 4d fb bc
       -0.026255008 0.038959168 -0.08146451 -0.030676657
0000f0 eb d8 2f 3d 69 96 9f bd 2d 4f ab bd 2d de b6 bd
       0.04293148 -0.0779236 -0.08364711 -0.089290954
000100 3e 7c 92 bb 6f 5d c3 bd 85 ad 26 3e bc e4 8d 3e
       -0.004470377 -0.095393054 0.1627713 0.27713573
000110 22 77 8e 3e 36 59 98 3e eb 69 39 be 7e 7d 47 be
       0.27825266 0.29755563 -0.18106811 -0.19481465
000120 f2 a2 13 be a5 4b 1a bc 83 f3 fe 3d 64 72 88 3e
       -0.14417627 -0.009417449 0.1244879 0.26649773
000130 9d d9 91 3d e0 ba ee bc eb aa 5f be e9 cf 47 bd
       0.071215846 -0.029141843 -0.21842544 -0.048782263
000140 0e 8d ac 3d d0 d3 91 3b 22 a4 20 be bd 68 b1 3e
       0.084253415 0.004450299 -0.15687612 0.3465022
000150 e8 70 39 be 7e d4 5c bd 12 07 18 be da 8a 97 3c
       -0.18109477 -0.053913586 -0.14846447 0.018498827
000160 38 38 2a be c3 ed 3a be 86 29 c9 bb 89 51 7e be
       -0.16623008 -0.18254761 -0.006138983 -0.2483579
000170 ec d3 71 bd c1 d5 d5 bd be 89 ce bd 8b 10 5f bd
       -0.059039995 -0.10441161 -0.10084866 -0.054459136
000180 eb b1 04 be 26 1a 4b be 2f 76 46 be 0e e9 8d 3e
       -0.12958495 -0.19834194 -0.19381021 0.2771687
000190 75 30 24 be 28 8c c7 3e d7 77 98 bd 93 af ec bd
       -0.1603411 0.38974118 -0.07444733 -0.115569256
0001a0 56 7b 42 bd 29 88 32 be 81 f9 c5 3e 48 98 8e 3b
       -0.047480904 -0.17434753 0.3866692 0.0043516494
0001b0 05 c2 0f 3e 88 24 ac bd 98 4c e2 bc 62 5b 56 3d
       0.14038856 -0.08405405 -0.027624413 0.052333243
0001c0 9f 91 05 3c 0f 5f c7 bd b3 c3 b2 bc 42 11 38 be
       0.008152395 -0.09734928 -0.021821832 -0.17975333
0001d0 47 43 ca bd 5f d9 a3 3c c6 89 73 3e b4 31 50 3e
       -0.098761134 0.020001112 0.23783025 0.2033146
0001e0 3f 55 76 3c 80 04 88 be 96 50 77 3d cf a0 f1 bb
       0.015034973 -0.26565933 0.060379587 -0.007373906
0001f0 57 9f de 3c 5d 0a 85 bc 74 ab 4b 3e 07 de 32 be
       0.027175589 -0.016240293 0.19889623 -0.17467509
000200 39 b2 37 bd e9 88 8c bd fd 42 01 be 39 f0 19 be
       -0.0448477 -0.06862051 -0.1262321 -0.15033044
000210 83 c8 cd bd c9 96 49 be 40 24 69 bd e2 e3 c7 bd
       -0.1004801 -0.19686426 -0.056919336 -0.09760262
000220 76 a7 a6 bd 2f a5 54 be bd 5d cf bd e6 41 6a be
       -0.081374094 -0.20766138 -0.10125301 -0.22876701
000230 d2 5b 4c 3e e0 28 78 be 02 d2 02 be d4 b3 a2 3d
       0.19956902 -0.24234343 -0.12775424 0.07944456
000240 3b 28 24 3e 72 bb ba bd fc 18 86 3e 3e 5b 4b bc
       0.16030972 -0.091177836 0.26190937 -0.012411891
000250 d5 22 92 bd 96 8d 9e bd 72 52 79 be 4e 82 c0 bd
       -0.0713555 -0.07741849 -0.24347857 -0.09399854
000260 ed ac c8 bc 56 87 27 bd 7e c7 9f 3d 3a 86 16 be
       -0.02449652 -0.04090055 0.07801722 -0.14699641
000270 dc 06 29 be 96 0c 47 3e ac b2 bf 3e ca 93 22 3d
       -0.16506523 0.19438395 0.37441003 0.039691724
000280 46 c5 c0 bb 25 66 c1 bc 05 65 1f 3e 02 4a be ba
       -0.005882892 -0.023608277 0.1556588 -0.0014517906
000290 e4 bb aa 3e 16 21 50 be 09 e5 0a 3e 44 10 eb bc
       0.33346474 -0.20325121 0.13563932 -0.02869428
0002a0 05 ef 7e bd df 11 bb bd 18 41 3c 3e df b3 02 be
       -0.062239666 -0.09134268 0.18384206 -0.12763928
0002b0 8e 60 38 bc 80 63 36 bd 70 e9 d8 3e ab 93 aa bd
       -0.011253489 -0.044528484 0.423656 -0.08328947
0002c0 a3 c3 57 be 72 a6 cc bd 72 82 90 bd 96 9a 19 be
       -0.21070723 -0.099926844 -0.070561305 -0.15000376
0002d0 5e c1 d4 bc 49 69 31 bd 51 dd f6 bd ad 27 5a 3e
       -0.02597111 -0.0433133 -0.120539315 0.21304198
0002e0 3d e5 a9 bd 0d f4 2f 3e 9b dc 1a be 97 90 d7 bd
       -0.08295677 0.17182942 -0.15123217 -0.10525625
0002f0 d8 97 21 be 49 f8 fb bd 63 3e 02 3e 6d ea 69 be
       -0.1578058 -0.12303216 0.12719111 -0.22843333
000300 7c 93 6e bd ee d1 21 be 5a 30 e6 bd 10 e2 dd 3d
       -0.05824612 -0.15802738 -0.11239691 0.108341336
000310 7e fe b5 bd 6a 9c 84 3e 0c da ea 3c 72 65 bd 3d
       -0.08886431 0.25900584 0.028668426 0.09247865
000320 d7 f6 74 bd 9d 8f c6 bc 97 46 11 bd 37 e0 85 bd
       -0.059805717 -0.024238402 -0.03546771 -0.06536906
000330 42 bf 15 3d 44 d2 08 bd ec 55 0b 3d b1 b1 bf 3c
       0.03655935 -0.03340365 0.03401749 0.02340016
000340 68 fb 04 bd 26 c7 06 be 8a 30 15 be 4a ff 23 be
       -0.032466322 -0.13161907 -0.14569297 -0.16015354
000350 45 26 67 3d 15 e8 f6 bd 80 6e 32 be fa 7a 25 3e
       0.05643298 -0.12055985 -0.17424965 0.16160193
000360 91 74 b2 3d 53 25 f1 bd 06 f6 25 bb 81 c0 c4 3d
       0.087136395 -0.11774697 -0.0025323643 0.0960703
000370 36 90 8a bd df 52 00 be 75 8b b9 bd 14 8c 8f 3e
       -0.06765787 -0.12531613 -0.090598024 0.2803656
000380 7d 65 2b 3d ee 5e 45 be 24 b5 33 be 15 aa 8d be
       0.041844834 -0.19274494 -0.17549568 -0.27668825
000390 53 5d e7 3c e2 93 90 3d a6 e6 a1 3c 85 f7 f5 3d
       0.028242743 0.070594564 0.019763302 0.12010101
0003a0 24 4c 8a bd 78 80 43 3e 3a af ff bd f6 2b 2b bd
       -0.06752804 0.19091976 -0.12484594 -0.04178997
0003b0 ff 97 6a 3e 2e 20 58 3e fd 01 06 be aa 83 42 bc
       0.22909544 0.21106026 -0.13086696 -0.0118722115
0003c0 72 e3 00 be db 69 48 bc 43 0b 9c 3d 28 a1 5c 3c
       -0.12586764 -0.012232269 0.076193355 0.013466157
0003d0 30 32 6a bd c9 91 54 be 0c ae 80 3e b9 5e c7 3d
       -0.05717677 -0.20758738 0.25132787 0.09734864
0003e0 8b c5 1f 3e a0 c2 9a bd aa db c7 3d 8e 7d 04 3c
       0.156027 -0.07556653 0.097586945 0.008086575
0003f0 81 c8 a5 3d b2 e9 2c bd bd 8e 9b bd 7d 37 0c be
       0.08094884 -0.042215057 -0.075955845 -0.13693042

actor.2.weight f4 [256, 256]
000000 a8 97 f7 3c 49 2a b5 bd 2a c8 37 3e 66 21 cc 3c
       0.030223683 -0.08845956 0.1794745 0.02491827
000010 ef a3 0b bc a3 2f ad bb d8 3d 41 3e c1 c3 45 be
       -0.0085229715 -0.0052852198 0.18871248 -0.19312955
000020 cd 36 13 3d 66 7b 37 bd cd 30 f6 bd 96 2b f4 bd
       0.035940934 -0.044795416 -0.12021027 -0.11922376
000030 2c 0a 49 3d bb 67 d9 3c 55 13 50 be 5f 87 de bd
       0.049081966 0.02653872 -0.20319875 -0.10865664
000040 13 2d 3f be 80 46 4e 3c c4 3f f8 bd 2e ed 47 bd
       -0.18669538 0.012590051 -0.12121537 -0.048810177
000050 ac 24 93 3d 20 0e f9 bd f5 e8 4a bd 98 e8 80 3e
       0.07184729 -0.12160897 -0.04953857 0.25177455
000060 77 88 05 bd 13 44 15 be 7e 98 e0 3e df c2 a2 bd
       -0.032600846 -0.1457675 0.43866342 -0.07947325
000070 56 1e a9 be 37 d5 5d 3d 4f 3a 91 bd 94 ef 0f be
       -0.33030957 0.054158416 -0.070911996 -0.14056236
000080 9f ab 1b 3e 3b 0e c1 bc 57 8e 41 3e 09 12 55 3e
       0.15202187 -0.023566356 0.18901955 0.20807661
000090 e1 51 e8 bd 83 9d 56 be e5 5c 49 be 71 c1 3a 3e
       -0.11343742 -0.20958523 -0.19664343 0.18237855
0000a0 a6 c7 0d 3d d8 47 14 be 43 db 27 be 5b e1 97 bd
       0.034614228 -0.14480531 -0.16392235 -0.0741603
0000b0 35 08 5f 3d ac 21 18 3d e6 67 0b bd 93 e6 84 bd
       0.054451186 0.037141487 -0.034034632 -0.06489291
0000c0 19 76 8f bd 05 cb 48 3e be f3 a7 3d 77 d0 84 be
       -0.07004947 0.19608696 0.08200787 -0.25940296
0000d0 8d ca aa bd 83 c6 10 3d 71 19 14 bd 91 9b 09 3e
       -0.08339415 0.035345566 -0.036157075 0.1343825
0000e0 bd ff c3 ba cd 92 31 3e 41 0a b9 be e5 00 8d be
       -0.0014953535 0.17341156 -0.36140636 -0.27539745
0000f0 5d c0 11 be ea 6c 11 3d 3f 2e f6 3c 98 9a 5d bd
       -0.14233537 0.03550426 0.030051349 -0.05410251
000100 10 b3 b6 3c 64 18 29 be 95 8b 9a 3c d9 85 fc 3d
       0.02230218 -0.1651321 0.018865386 0.12330217
000110 59 d9 06 3e f4 89 12 bd 7b 09 cd bd b8 8e d0 bb
       0.13168849 -0.035776094 -0.10011574 -0.0063646697
000120 87 8a 4a be 6c b1 df bc 67 86 a7 3d 8e 10 8b 3e
       -0.19779406 -0.027306281 0.08179932 0.27161068
000130 38 fa a3 3d f5 98 b9 be 51 4b b2 bd 91 45 4b be
       0.0800671 -0.3624951 -0.08705772 -0.19850756
000140 29 dc 01 3e 43 f8 8c be d4 20 87 3d 75 34 07 3e
       0.1268164 -0.2753316 0.06598058 0.13203605
000150 da 30 9c be a1 2a 15 3d ba aa 9b bd 68 4a 2b 3c
       -0.3050602 0.036417607 -0.07600923 0.010454752
000160 aa c2 79 3d 98 ec 88 bd ca c3 48 3a 5f 91 96 be
       0.06097666 -0.06685752 0.00076585694 -0.29407784
000170 b2 dc 26 3e 1b 6d 12 be de d4 2b 3d 5c fd 1b be
       0.16295126 -0.14299433 0.041951053 -0.15233368
000180 74 01 3f 3d 13 de f5 3b a1 41 48 bd 80 80 eb bc
       0.046632245 0.00750328 -0.048890714 -0.028747797
000190 c8 39 08 be 5d a2 43 3e db cd e5 3d 83 b7 4c be
       -0.13303292 0.19104905 0.112209044 -0.19991879
0001a0 35 6d 4b be 36 bd a2 bc 49 6a f4 3d 41 bd 20 3c
       -0.19865878 -0.019865613 0.11934335 0.009810747
0001b0 fb a4 82 be 1b 9b 45 bd 35 60 a6 bd bb 7d eb bd
       -0.25516495 -0.048243623 -0.08123819 -0.114985906
0001c0 e0 06 84 bd 24 1c 37 be 46 7e 74 be f3 f2 c0 3d
       -0.06446624 -0.17881829 -0.23876294 0.09421339
0001d0 c8 17 9b 3c b9 bf 11 be bc d3 54 bc 28 7c b9 3d
       0.018932238 -0.14233293 -0.0129899345 0.09056884
0001e0 f2 e8 51 3d 8e 15 0e bd 1c 1a 46 be 8f e9 11 3e
       0.051247545 -0.034688525 -0.19345897 0.14249252
0001f0 90 fc ba bd 39 b5 11 bc e4 15 63 3d a0 86 9c be
       -0.09130204 -0.0088933045 0.0554408 -0.3057146
000200 a1 08 42 be c3 2d 3a be e7 56 1f be 55 7d 4a 3e
       -0.18948604 -0.18181519 -0.15560494 0.19774373
000210 61 7e 05 bd 6d d8 6c be b9 ab 2d be ee f8 f7 bd
       -0.032591227 -0.23129435 -0.16960038 -0.121080264
000220 08 67 3f 3e 70 4f 4f 3e 88 3f be bc 4d 56 c0 bc
       0.18691647 0.20245147 -0.023223653 -0.023478651
000230 2a a1 86 bd 84 70 a1 bd 26 04 4a 3d a3 39 9f 3c
       -0.06573708 -0.07882789 0.049320363 0.019436663
000240 76 13 09 be 91 d3 0c bd 0c 94 93 3e ff a3 92 3b
       -0.1338633 -0.034381453 0.28823888 0.0044751163
000250 5e 4d 94 3e dd b3 2a bc 58 28 dd 3d ab a5 50 3c
       0.28965276 -0.010418859 0.107987106 0.012734811
000260 1c 6c 94 be 79 3f 53 3d ef 0f 0a be 6a 2c 57 bd
       -0.2898873 0.051574204 -0.1348264 -0.05253259
000270 04 f5 76 bd a1 9b bc bc 90 79 3f 3e 00 ed 96 3a
       -0.06029226 -0.023023428 0.18698716 0.0011514723
000280 f7 6f 87 be 9c 21 29 3d b0 b1 d3 bc ba bd e3 bb
       -0.2645261 0.041291818 -0.025841564 -0.0069501074
000290 52 6f 21 3e f1 8a 8c be d9 80 63 3e 64 55 d0 ba
       0.15765122 -0.27449754 0.2221712 -0.0015894589
0002a0 15 4a aa bc 09 4b ab 3c 88 fb 28 3e c1 17 0f 3e
       -0.020787278 0.020909803 0.16502202 0.13973905
0002b0 73 63 11 be 9a 9f 54 3d 70 b6 ba 3c 11 40 07 bc
       -0.14198093 0.05191002 0.022792071 -0.008255021
0002c0 cf 63 92 bc 88 da 03 be a3 e7 73 bc 7a fe c3 bd
       -0.017869858 -0.12876332 -0.0148867695 -0.09570022
0002d0 7d ac 92 bd 43 c5 1d 3b 09 31 23 be 55 42 7b 3e
       -0.07161806 0.0024073876 -0.15936674 0.24537022
0002e0 f4 f7 56 be df c9 4a 3e 82 ac 05 be d5 f9 00 be
       -0.20993024 0.1980357 -0.13054088 -0.12595303
0002f0 a3 d8 3a be 24 d5 39 3c 45 b9 f6 3d ac 81 10 be
       -0.18246703 0.011342321 0.12047056 -0.14111966
000300 d3 b8 2b 3e cd 0b 3d bb db ec 1a be 3b 99 14 3e
       0.16769724 -0.0028846145 -0.15129416 0.14511578
000310 b2 fa 7c be 1c 52 d1 3d 9e cb 08 be 69 26 1f 3d
       -0.24705008 0.10220739 -0.13358924 0.03885499
000320 6c a3 61 3e 68 17 5d 3c 11 9d 87 bb 96 0a c5 3b
       0.22034997 0.01349435 -0.004138597 0.006013225
000330 07 7a 27 be 06 c8 c3 bd f7 92 f2 3d 14 ef 27 3d
       -0.16355143 -0.09559636 0.118444376 0.040999487
000340 60 12 ac be 5d e2 2c 3e be 70 b2 bd 99 1e 00 3d
       -0.3360777 0.16883226 -0.0871291 0.03127918
000350 7c 8b 8f 3e 30 a3 36 3c 6e 03 1b bd 8d 1a d7 3c
       0.28036106 0.011147305 -0.037845068 0.026257778
000360 93 e4 8d 3c f6 8f 85 3d a0 9d c0 3d 71 a4 70 be
       0.017320907 0.06521599 0.094050646 -0.2350023
000370 1d 11 87 be 29 1b bf 3d c6 4e 19 3e 96 59 9c 3e
       -0.26380244 0.09331352 0.14971456 0.305371
000380 27 a6 d7 bd 31 40 49 bc 3e cb 15 be 20 6d 68 be
       -0.10529738 -0.012283371 -0.14628312 -0.22697878
000390 48 ca 02 3b b0 c1 c6 bd 88 86 a7 be 63 31 a3 be
       0.0019956995 -0.09704912 -0.32719827 -0.31873617
0003a0 4c 47 c2 bd 03 1d 88 bd 62 16 85 bc a2 16 94 bd
       -0.09486255 -0.066461585 -0.016246025 -0.07230879
0003b0 75 83 7f bd 9c 8c 65 3c 80 a4 10 be 43 0d 14 be
       -0.062381227 0.014010575 -0.14125252 -0.14458184
0003c0 51 fd 1c be a1 a5 af 3d 79 33 86 3d bf 4a 63 bd
       -0.15331008 0.08576513 0.065527864 -0.055491205
0003d0 63 52 e8 3d 4e 21 20 3e e7 83 e0 3d c3 fe 06 3e
       0.11343839 0.15637705 0.109626584 0.13183121
0003e0 76 35 a4 bd af 16 c0 bd 89 ef 33 3e a8 25 e1 bc
       -0.08018009 -0.093793266 0.17571844 -0.027483776
0003f0 3d 37 cd 3d 81 8e ac 3d f6 04 68 be a2 f3 5a be
       0.100203015 0.08425618 -0.22658142 -0.21382001

actor.2.bias f4 [256]
000000 28 52 58 3e e6 bb 88 3e 21 0f 97 bd ed 2e 50 bc
       0.2112509 0.26705855 -0.073759325 -0.0127065005
000010 0f 6c 20 bd 6b 02 75 3d 80 34 17 bd ae 21 04 3e
       -0.039165553 0.05981676 -0.036915302 0.12903473
000020 7a 32 1a bd 89 f7 a0 bd c4 5b 96 bd 4d e7 1a 3d
       -0.037645794 -0.078597136 -0.07341722 0.037818242
000030 b0 9e a5 bd 98 0d c3 3d 65 9d 11 bc 2d d1 c3 bc
       -0.08086908 0.09524077 -0.008887623 -0.023903454
000040 ab 62 bd 3e df 77 cd 3e ba eb 52 3e f4 3c 2a bd
       0.3698934 0.40130517 0.20597735 -0.041562036
000050 4e a5 0c 3e 32 d0 95 3e 6c 67 79 3c 48 c4 a9 3c
       0.13734934 0.29260403 0.015222412 0.020723477
000060 b5 d1 67 bd 74 14 76 3e c4 c2 52 3e bc 26 42 3e
       -0.056596477 0.2403124 0.2058211 0.18960088
000070 76 cd 96 3c 78 59 a1 bc 84 97 d1 bd 46 6c ae 3e
       0.018408518 -0.019695982 -0.102339774 0.3406698
000080 f2 f3 82 bd 21 ed 77 3e 6b 0b 19 bd 2d ba fb 3b
       -0.06394185 0.24211551 -0.037364405 0.007682106
000090 2c b7 c9 3e a1 23 98 bd 7d e2 34 bd 73 51 a7 bd
       0.39397562 -0.07428671 -0.04416131 -0.08169832
0000a0 1a ec a7 bc 2c 9f 53 bc 14 f3 c2 bc bc 34 8b bc
       -0.020498324 -0.0129163675 -0.02379755 -0.01699292
0000b0 26 e4 cf 3c 72 ef b1 3d ea cc 7d 3e 7e 17 12 bd
       0.025377344 0.08688249 0.247852 -0.035666935
0000c0 59 40 fc 3d c4 6b 83 bd f5 97 b5 3c 97 47 4c bd
       0.12316961 -0.06417039 0.022167185 -0.04987296
0000d0 ac d2 e0 bc a1 6a 3b bd 0b 31 8b bd b3 14 18 bc
       -0.027444206 -0.045755986 -0.067964636 -0.009282279
0000e0 83 f8 32 3d cd ae 1a bd 90 bf df 3e 91 11 ef bc
       0.04369403 -0.03776436 0.43700838 -0.029183181
0000f0 78 20 9d bd 2b 0c ba bc c4 36 a7 3e d2 b5 48 3e
       -0.076722085 -0.02271088 0.3265897 0.19600609
000100 1e 2b 0c 3e d3 97 fa bc 9c 7d c8 bd 1f 6b ff 3d
       0.13688323 -0.030589974 -0.09789583 0.124716036
000110 c9 99 0e 3e 31 3c 07 3b 3f 7e 6e 3e 88 c9 50 3c
       0.13925852 0.0020635242 0.23290347 0.012743361
000120 0e 17 83 3c c8 bf ac bd c0 08 bd bd 0e 76 66 3e
       0.016002204 -0.08435017 -0.092301846 0.22505972
000130 f8 28 ee bc 85 40 89 3e 2d ab 22 bd 4b 9c c9 bd
       -0.02907227 0.26807037 -0.039714027 -0.09844264
000140 b4 d2 91 3d cb 2d b7 bc bd 7d a5 3e 90 01 57 bd
       0.071202666 -0.022360703 0.32322493 -0.052491724
000150 60 d1 c5 3d a1 37 bc 3c d1 68 0f 3a b5 8e 5d bd
       0.09659076 0.022975745 0.0005470636 -0.054091174
000160 28 46 9c 3d 2e 83 28 bd e4 ea 70 bd c6 3f 1f 3e
       0.07630569 -0.041140728 -0.05881776 0.15551671
000170 64 57 a3 bc bf 3d 97 bc 00 34 93 bc fb 7b 25 3d
       -0.019939132 -0.01846206 -0.017969131 0.04040144
000180 72 6e 82 3d cf b0 c4 3d f2 76 71 bc 9f 14 bb 3d
       0.06368722 0.09604036 -0.014737831 0.091347925
000190 65 98 9e 3c 40 bf 3b 3b 86 ae a2 3e 11 e9 be 3d
       0.019359777 0.002864793 0.31773776 0.09321798
0001a0 13 83 43 3e e3 60 3f bd 68 2e bc 3d 66 6d a6 3e
       0.1909297 -0.046723258 0.09188539 0.3250534
0001b0 7d 0b 36 3e 65 cc 54 bb 57 3c 75 3e f3 c7 24 3d
       0.1777782 -0.0032470461 0.23948799 0.04022975
0001c0 6c 9e d7 3d 2c 07 b1 bd 25 9f 14 bd 12 4d dd bd
       0.105282634 -0.08643946 -0.036284585 -0.108057156
0001d0 69 74 f3 3d b9 df b1 3d c8 19 1e 3b e7 e2 1a 3e
       0.11887438 0.0868525 0.0024124254 0.15125619
0001e0 bb 7d eb bd 48 08 29 3e de 4b f1 3d 93 13 22 bc
       -0.114985906 0.16507065 0.11782049 -0.009892362
0001f0 c4 3a d0 bd cf dd 6c 3d 9b d0 84 3d 83 d9 34 3d
       -0.10167459 0.05782872 0.06485101 0.044152748
000200 b9 21 74 bd 48 71 bb 3e e8 c4 34 3e 4c dc cf 3d
       -0.059602473 0.36609864 0.17653239 0.1014944
000210 ed b9 82 bd bf 50 55 3e 08 f0 dd bc da 1e be 3d
       -0.06383119 0.20831583 -0.027091995 0.09283228
000220 51 af 8b 3b b4 77 8c 3c 28 74 18 3c 36 90 92 3e
       0.0042628427 0.017146923 0.009305038 0.2862565
000230 3a 64 09 bd 25 6b 89 bd f8 ac 25 3e e2 b5 24 bd
       -0.03354285 -0.06709889 0.16179264 -0.04021252
000240 dd 5d 03 3d 13 e2 ce 3b 20 55 28 3d 90 2d 9b 3c
       0.032071937 0.0063135712 0.041096807 0.018942624
000250 79 a0 31 bd fb bf 4c 3e 51 75 82 3e b4 3c 06 3e
       -0.04336593 0.1999511 0.2548013 0.13109094
000260 65 0a 53 bd 1f 8b 05 3e f4 44 66 bc bc e6 53 bc
       -0.051523585 0.13041352 -0.014054526 -0.012933429
000270 1a 36 55 bb e2 d3 61 bd d1 59 30 3e d6 bb be 3b
       -0.0032533468 -0.055133708 0.17221762 0.0058207316
000280 41 a6 90 bd 17 55 f9 3d b7 46 e4 bd 28 ff e8 3d
       -0.070629604 0.12174433 -0.111463 0.11376792
000290 43 ef 61 3e 2e fc 7c 3b 56 fa 28 3c 5e c0 1d 3e
       0.22063927 0.003860246 0.010313591 0.15405414
0002a0 90 c0 aa 3e 25 f3 b3 3c 0a bc 96 3e f5 d7 eb 3d
       0.3335004 0.021966526 0.29440337 0.115158
0002b0 75 6d 20 bd 55 8f f3 3b 2e 7c 8e 3e 33 b8 e1 3d
       -0.039166886 0.007432858 0.27829117 0.11021461
0002c0 ee db 83 bc 70 60 0f bd c1 70 b6 3b c6 96 9f 3e
       -0.016096082 -0.03500408 0.0055676405 0.31169719
0002d0 09 ef ed bc a3 e9 14 bc 93 b4 9d bd e5 b9 53 3d
       -0.029044645 -0.009088906 -0.077004574 0.051690955
0002e0 88 b8 d0 bc 4b 49 41 bd 6f 3d 5f bd ad 6e 40 bd
       -0.025478616 -0.04718904 -0.054501947 -0.04698055
0002f0 f4 7b 3c 3e ed c3 9d bd 63 46 3c 3d 31 0d 34 3c
       0.1840666 -0.077033855 0.045965564 0.010989473
000300 ee db dd 3c f1 ba 1c bd d1 03 56 bd b6 76 a9 bd
       0.02708241 -0.03826422 -0.052249733 -0.082745954
000310 9d 00 8f 3e fc 7f c9 3e 98 60 ba bd bc 12 ef 3d
       0.27930155 0.39355457 -0.09100455 0.11673495
000320 4a f6 46 bd 72 b4 53 3e 1b 2a a8 3e da 39 29 3e
       -0.048574723 0.20674303 0.32844624 0.16525975
000330 db 29 e2 3c 72 11 a8 bd c5 fd 01 3e 33 8a 85 3c
       0.027607849 -0.082064524 0.12694462 0.01630125
000340 16 00 ac bb 98 92 34 3e aa ee 8b 3e 24 f4 01 be
       -0.0052490337 0.17634046 0.27330524 -0.12690789
000350 32 23 9b 3e be 24 86 3e 98 01 4b 3e de ca 07 3e
       0.3030029 0.26199907 0.19824827 0.13260981
000360 1d d3 16 bb ab d4 a7 bc e4 3f d6 3c b6 90 c0 bd
       -0.0023014017 -0.02048715 0.026153512 -0.094026014
000370 69 1a 4d bc bc 3b db bc ce 2c 7a 3d fd 63 4a 3e
       -0.012518504 -0.026761882 0.061077885 0.19764705
000380 9d 94 fb 3c 3f 4b 72 3b 0b e6 4e 3e b0 e9 4d 3d
       0.030710513 0.003697112 0.20204942 0.05027169
000390 3f b9 42 bc e9 5f b9 3e 93 10 68 bc 56 09 f2 3e
       -0.011884986 0.36205986 -0.014164108 0.47272748
0003a0 98 0d 0e 3e 53 54 a9 3e 5e 2c 07 bc a6 7c 5d bd
       0.13872373 0.33072147 -0.008250324 -0.054073952
0003b0 f1 e0 15 3e 47 c9 2c 3a 63 8f 87 3e 74 83 dc 3e
       0.1463659 0.0006591272 0.26476583 0.4306904
0003c0 80 43 84 bd 79 3c 25 bd 21 2e ea 3d b9 58 7d bd
       -0.06458187 -0.040340874 0.1143458 -0.06185219
0003d0 5e 54 9d bd b3 15 1e 3e 3f e6 b0 bd ed 43 76 bc
       -0.076821074 0.15437965 -0.08637666 -0.015030843
0003e0 6f 1f 78 3d f8 08 dd bd 2b a1 9b bd 77 c4 8f bb
       0.060576852 -0.10792726 -0.075991 -0.004387434
0003f0 51 19 d8 bc 46 97 9c bd 57 5c 4b 3e 1b a4 4f 3e
       -0.02637926 -0.076460406 0.19859444 0.20277445

actor.4.weight f4 [100, 256]
000000 38 19 23 3f 1a a4 3a 3e fd 1e 31 3e 38 43 90 3e
       0.63710356 0.18226662 0.17296977 0.28176284
000010 f5 6b 7c 3e bd a0 f6 3e 95 b5 02 bb 9c da 6b 3f
       0.24650557 0.4816951 -0.0019944657 0.92130446
000020 14 7c 46 3f 24 02 1b 3e be d4 20 3f 3b a6 f2 3e
       0.7753308 0.15137535 0.6282462 0.4739245
000030 3b 32 c2 3d 21 49 2a 3f 6a ce fb 3e c2 cd a7 3d
       0.09482237 0.66517836 0.4918092 0.08193542
000040 ba 5f 5f 3e b0 f0 07 be 36 09 35 3f 2c 75 af 3d
       0.2181386 -0.13275409 0.7071718 0.08567271
000050 0d d3 c6 3e ef 10 9f 3e 71 98 92 3e 57 d2 76 3d
       0.38832894 0.31067607 0.2863193 0.06025919
000060 80 23 3d 3d bf f1 15 3f e6 8f 54 3f 22 e0 23 3f
       0.046176434 0.58572 0.8303207 0.64013875
000070 61 b2 8e 3f 74 f0 ca 3d 64 fb a8 3e db cc ed 3e
       1.1148187 0.09909144 0.33004296 0.46445355
000080 68 57 a6 3c 56 18 28 3f f6 4d 64 3f f7 5f c5 3e
       0.02030535 0.65662134 0.8918146 0.38549778
000090 50 d7 e8 3e 38 3f 1d 3f 0d b5 9b 3e bb 9f 52 3e
       0.4547677 0.6142459 0.30411568 0.20568745
0000a0 5a 2e a7 3e 18 5a 06 bc 03 60 9f 3d 23 67 c3 3e
       0.3265255 -0.008200191 0.07781985 0.38164625
0000b0 d2 37 92 3e 77 e2 33 3f 75 85 e3 3e 23 5d 05 3d
       0.28558213 0.7026743 0.44437757 0.032559525
0000c0 bd 0b ec 3e 69 d1 c9 3e 26 ba c8 3c 9b bf 96 3e
       0.46102706 0.3941758 0.024502825 0.29443058
0000d0 0f a6 0b 3f 0d 50 47 3d 82 11 c8 3e de 23 89 3e
       0.5455026 0.048660327 0.39075857 0.26785177
0000e0 eb 12 d9 3d 71 b6 f4 3e a7 f7 25 3e ca 4d 11 bc
       0.105993114 0.47795442 0.16207753 -0.008868644
0000f0 f9 06 6c 3e f0 e0 51 3f 6a d8 6b 3f 18 22 8a 3e
       0.23049535 0.8198385 0.92127097 0.26979136
000100 93 a8 81 3e b1 ba 43 3f 8e 09 16 3f c5 e6 ab 3e
       0.25323924 0.76456743 0.5860833 0.335745
000110 56 36 01 3f 12 5a a1 3e ae 33 2e 3f 95 3f fc 3c
       0.50473535 0.3151403 0.68047607 0.030792037
000120 6f 63 88 3f 73 bb 20 3c a2 d4 55 3e fa a8 e4 3e
       1.0655345 0.009810316 0.20881894 0.4466017
000130 1c 0d 06 3e 50 3d 01 3e 28 b5 b0 3e 23 01 b5 3e
       0.13090938 0.12621045 0.3451321 0.3535243
000140 6b d5 36 3f d6 7f c3 3c fa a1 97 3e e2 0c ae 3e
       0.714194 0.023864668 0.29615766 0.33994204
000150 c7 ce 26 3f b9 7c 46 3f a8 f4 77 bd bb ec 4e 3e
       0.6515927 0.7753406 -0.060536057 0.20207493
000160 22 07 21 3f 1c 7b 32 3d 20 5f c8 bd 8a be fb 3e
       0.6290151 0.043574437 -0.09783769 0.49168807
000170 d0 eb cb bc 55 59 8c 3e b2 75 21 3f 39 85 ea 3e
       -0.024892718 0.27411905 0.63070214 0.45804766
000180 b8 1c 2b 3f ce 3e 20 3f e8 96 8f 3e 5d 5d a2 3e
       0.66840696 0.6259583 0.2804482 0.31711856
000190 8d b7 0c 3f 00 ff 8b 3d 36 72 08 3f 19 c8 01 3f
       0.54967576 0.06835747 0.5329927 0.5069595
0001a0 88 63 fe 3e 13 a9 a0 3e 16 81 98 3e fe 2a 37 3f
       0.4968531 0.31378993 0.29785985 0.71549976
0001b0 df a1 2c 3f 2f 77 09 3f 27 90 c6 3e 3e 65 1f 3f
       0.67434496 0.53697485 0.38781855 0.6226386
0001c0 b6 28 f0 3e f0 9d bc 3e c5 5b 4c 3c b5 7b 29 3f
       0.4690606 0.36839247 0.012473051 0.66204387
0001d0 5e 0a a2 3e 26 60 14 3f bc 66 33 3e 7f 8a 46 3f
       0.31648535 0.5795921 0.17519659 0.7755508
0001e0 a8 f0 e3 3e f4 70 29 3f 8a e7 85 3f 32 79 2a bd
       0.44519544 0.6618798 1.0461285 -0.041619487
0001f0 03 3b cb 3e 21 73 34 3f e4 95 f4 3e 2b d8 06 3f
       0.3969346 0.7048817 0.47770607 0.52673596
000200 dd 8b 52 3f 66 fb 03 3f 72 d2 01 3f 56 fb ae 3e
       0.82244664 0.5155548 0.5071174 0.3417613
000210 64 d6 c6 3e bc 41 46 3f cf 46 5b 3f 32 3c 2a 3f
       0.38835442 0.7744405 0.8565492 0.664981
000220 78 52 43 3e aa 76 69 3d 83 fb 16 3f 23 e7 f3 3e
       0.19074428 0.056997932 0.58977526 0.4763728
000230 31 52 08 3f 27 c0 37 bd 68 2a 31 3f 33 b3 76 3e
       0.53250414 -0.044860985 0.6920533 0.24091797
000240 4a 72 a8 3e c2 34 3f 3e fd c1 43 bd 4a 98 50 3d
       0.32899696 0.1867247 -0.047792424 0.050926484
000250 5e 21 49 3e db 0e 10 3e 65 36 3f 3f 2e 05 08 3f
       0.19641635 0.14068167 0.74692374 0.53132904
000260 39 aa 21 3e 81 3d 29 3f 91 8d de 3e 2d 78 e8 3d
       0.15787591 0.6610947 0.43467382 0.11351047
000270 ab 8a 6a bd e8 f4 7a 3e cf 4e f5 3e 34 5b 02 3f
       -0.05726115 0.24507487 0.4791169 0.50920415
000280 2b 0e 66 3f 58 31 20 3f e4 ce e1 3e e1 51 18 3f
       0.8986537 0.6257529 0.44103158 0.5949994
000290 37 0f 1f 3f df 73 73 3f 7a 7e 56 3e 8a ae 32 3f
       0.6213259 0.9509868 0.20946684 0.69797575
0002a0 e9 05 e6 3e 0e cb 40 3f 99 d6 09 3f 71 af 47 3f
       0.44926384 0.75309837 0.53843075 0.7800208
0002b0 49 a8 89 bc af e1 18 3f 00 ea b6 3e 21 32 0a 3f
       -0.016803877 0.59719366 0.35725403 0.5398274
0002c0 6e 59 27 3e 20 2b 23 3c 9a 60 3c bd ea ab c4 3e
       0.16342708 0.009959012 -0.045990564 0.3841241
0002d0 24 77 fe 3d ee bf 88 3d 71 d9 0e 3c b2 70 be bb
       0.12425068 0.06677233 0.008718834 -0.005811774
0002e0 ae 08 5d 3e 38 35 9c 3d 22 8c 02 3f 14 d0 9a 3c
       0.21585342 0.07627338 0.50995076 0.018898048
0002f0 cf 69 c4 3e bf a0 30 3f 6c 80 96 3e d3 75 89 3d
       0.38361976 0.6899528 0.29394853 0.06711926
000300 82 db 23 3f 57 0f 65 3f de 7a ed 3e 2b ee 3f 3f
       0.6400682 0.8947653 0.46382803 0.7497279
000310 c3 ff 19 3f 24 11 35 3f 13 47 37 3f 78 c9 24 3f
       0.60155886 0.7072928 0.71592826 0.64369917
000320 fe 94 8a 3c 33 d8 d3 3d 2a e4 0a 3f 38 4d 75 3f
       0.016916748 0.10343971 0.542544 0.9582095
000330 ce 93 23 bd 93 a1 8d 3d ce 0f cc 3e c9 01 12 3c
       -0.03993588 0.069155835 0.39855808 0.008911558
000340 d9 f0 49 3e a9 3c 07 be 0b fe 36 3f e4 a5 ff 3e
       0.19720782 -0.13206734 0.7148139 0.49931252
000350 9c e9 b1 3d f9 a9 e0 3e 1c c0 04 3f fa ac 77 3f
       0.086871356 0.4387968 0.51855636 0.96748316
000360 ec 4d c0 3e d4 2a bf 3e ef 8d 22 3f ce d0 a5 3e
       0.3755945 0.37337363 0.63497823 0.32385868
000370 90 b5 43 3f 07 9d c0 3e e5 2b 3f 3f ca c4 0c 3f
       0.7644892 0.37619802 0.7467635 0.54987776
000380 c2 2f 53 3f 23 12 33 3f 13 e2 65 3f 4e ae c5 3e
       0.8249475 0.6994955 0.89798087 0.38609546
000390 ac 9f 29 3f 27 00 a6 3e ae c0 b0 3e be ca ac 3e
       0.66259265 0.3242199 0.34522003 0.3374843
0003a0 82 bc 73 3f 40 a4 c4 3d 4f 22 d8 3e 93 fd 0a 3e
       0.95209515 0.09601641 0.42213675 0.13573293
0003b0 cf d8 5a 3f 61 9c 1f 3f ec 84 4d 3f a9 64 74 3e
       0.85487074 0.6234799 0.8028095 0.23866524
0003c0 98 c1 0a 3f fd b2 db 3c 36 3a 25 3f 54 45 a9 3d
       0.5420165 0.026818747 0.6454195 0.082651764
0003d0 6f 4e 2a 3f ec dc f0 3e 47 ae 75 3d 08 1d 14 3f
       0.6652593 0.4704355 0.059980657 0.578568
0003e0 92 2e 1d 3f 84 b7 f0 3e 58 25 87 bc c8 11 74 3d
       0.61399186 0.4701501 -0.0164973 0.05958727
0003f0 54 c3 61 3f 0a 95 31 bd 35 57 16 3f df 56 45 3d
       0.8818867 -0.043355025 0.5872682 0.04817855

actor.4.bias f4 [100]
000000 92 8d bf 3e ee 83 1e 3f bd 21 1a 3f 65 c4 2d 3f
       0.37412697 0.6192006 0.6020773 0.678778
000010 f3 6d af 3e 30 b0 0b 3f 36 b4 dc 3e f2 4b 98 3e
       0.34263572 0.54565716 0.4310624 0.29745442
000020 99 b2 cf 3e 1a 16 9d 3e f0 26 90 3e e8 24 3f 3d
       0.40565947 0.30680925 0.28154707 0.046666056
000030 54 e8 96 3e 39 8b 16 3f fc 25 e6 3e 8e 2d cc 3e
       0.29474127 0.58806187 0.44950855 0.39878505
000040 9d 5f e5 3e 02 3a 04 3f 70 a3 18 3f 02 11 bb 3e
       0.4479951 0.5165101 0.59624386 0.36536413
000050 a5 c6 07 3f f2 4e 07 3f 91 35 d8 3e 74 e9 1b 3f
       0.5303748 0.52854836 0.42228368 0.60903096
000060 01 4d f5 3e 1d 83 f3 3e e0 63 1f 3f 98 ea b2 3e
       0.47910312 0.4756097 0.6226177 0.34944606
000070 dc 7a 9c 3e b3 41 b0 3e 64 62 94 3e b3 3f e5 3e
       0.30562484 0.34425125 0.28981316 0.4477516
000080 9b fd cd 3e f2 47 ad 3e 1e 2f d7 3e a0 3a 1c 3f
       0.40232548 0.33843952 0.42028135 0.61026955
000090 16 76 f2 3e 29 d9 1d 3f ed 96 9d 3e 14 78 8b 3e
       0.47355717 0.61659485 0.3077921 0.2724005
0000a0 98 61 e5 3e a5 82 f2 3e f4 2e d2 3e 61 95 1b 3f
       0.4480102 0.473653 0.41051447 0.6077481
0000b0 fa 86 cc 3e fc 2e fb 3e 16 34 c0 3e 86 8a eb 3e
       0.3994673 0.49059284 0.37539738 0.46004122
0000c0 0e e5 0e 3f 8c 61 81 3e e4 ee b7 3e 93 ae 12 3f
       0.5581826 0.25269735 0.35924447 0.5729763
0000d0 2f f8 24 3f 85 1a 24 3f 7f b9 2f 3f 30 d5 3b 3f
       0.644412 0.64102966 0.6864242 0.73372173
0000e0 b3 1b 21 3f 50 ff 07 3f 32 97 08 3f 56 76 ff 3e
       0.6293289 0.5312395 0.53355706 0.4989497
0000f0 bf 98 b1 3e ef 50 e6 3e 65 05 e1 3e da 93 84 3e
       0.3468685 0.44983622 0.43949428 0.25894052
000100 f4 f6 21 3f 61 09 07 3f 2b 2e 3f 3f f6 0a 9b 3e
       0.63267446 0.52748686 0.7467982 0.302818
000110 2e 69 e4 3e 2f c2 1e 3f 79 3c ec 3e 70 df 14 3f
       0.44611496 0.6201505 0.46139887 0.5815344
000120 07 b8 0c 3f 81 f7 44 3f 11 c2 c4 3e f1 7c 42 3f
       0.54968303 0.7694016 0.3842931 0.75971895
000130 24 fb 15 3f a9 37 82 3e b6 8a a4 3e a3 77 df 3e
       0.58586335 0.2543309 0.32137078 0.43645963
000140 61 03 c9 3e 84 02 d3 3e eb 05 06 3f 70 f5 02 3f
       0.3926039 0.41212857 0.5235278 0.5115576
000150 b3 80 c5 3e 46 6e 8a 3e 20 c4 e7 3e f7 0e e1 3e
       0.38574752 0.27037257 0.4526682 0.4395673
000160 70 d4 ee 3e d4 99 01 3f 5d 11 06 3f c8 1a d5 3e
       0.46646452 0.5062535 0.52370244 0.41621995
000170 31 f2 cd 3e 6a cd 1b 3f 30 78 d5 3e 14 1f c1 3e
       0.4022384 0.6086031 0.41693258 0.37719023
000180 71 18 ff 3e 43 4f e8 3e fe 61 5c 3e 5d a2 06 3f
       0.49823335 0.45372972 0.21521756 0.52591497
