Dat/actor/actor.pth (torch, 471303 bytes, 6 tensors)

actor.0.weight f4 [256, 100]
-0.11950965 -0.119328685 -0.109273255 0.06263767 -0.07805505 -0.062547386 0.07301656 0.1084778
-0.032492977 -0.06907831 0.11111525 0.004053473 -0.0572275 0.041259147 0.04134292 -0.07736929
0.07685052 -0.099535756 -0.034900647 0.082866736 0.07222609 -0.007249259 -0.045963753 0.0273824
0.07646909 0.037068255 0.047134846 0.033985972 -0.1453837 0.0010295712 -0.049465794 0.003434453
0.0071956813 0.09361314 0.03857005 0.022563456 0.07641709 -0.066158056 -0.1695166 0.04683336
0.021480499 -0.005397846 0.016991813 -0.005582388 0.12482546 -0.06620112 0.007401278 0.047072724
0.021932844 -0.037729833 -0.011372479 0.103280716 -0.008534816 6.58646e-05 0.10712486 0.07031792
0.053704366 -0.039964702 -0.06730308 -0.044437427 0.016614277 0.036260538 -0.14893502 0.13547799
-0.10741749 -0.018120956 -0.028486267 0.07798814 0.03626651 -0.00022387523 -0.04450233 0.03526095
-0.028659498 0.0130373845 0.009619197 -0.045916136 -0.009759164 0.0066397465 0.07201001 0.074809514
-0.0032032523 0.113326654 0.029971855 -0.0017242263 -0.038089167 -0.013044661 0.131026 -0.12966432
0.046716228 0.0092627425 -0.080027014 0.13788664 -0.03329877 -0.015840594 0.024031483 0.051562056
-0.07562683 -0.02860853 -0.025996037 -0.11250045 0.017675312 0.007225299 -0.03887563 -0.0573944
-0.0068807374 0.047702067 0.01846951 0.12534015 -0.09120205 0.05411438 -0.032004412 0.13509971
-0.0873446 0.044829953 0.04520225 0.06834023 -0.08346043 0.04469392 -0.056502562 -0.021831607
0.042103823 -0.11817421 0.005303594 0.018859152 0.048826467 0.10833394 0.0045042257 0.021273281
-0.00029414488 0.005958153 -0.1290929 -0.00085014134 0.120454915 -0.05760609 -0.036843028 -0.03804508
0.016239734 -0.11236249 0.113839425 -0.05979186 -0.14541471 0.023523644 0.08259563 -0.06174022
0.086092755 -0.08940458 0.043203387 -0.08944403 0.036990687 -0.012164632 0.06759302 -0.0011090139
-0.007767248 0.009343977 0.023237085 0.101268195 -0.040143456 0.11585046 -0.011630009 0.10530658
0.02169216 0.20171723 0.04732236 -0.03727466 -0.05122257 -0.043081068 0.062374808 0.034215093
-0.054702077 -0.052812703 0.11990249 0.013567177 0.026352076 -0.060126204 0.07149259 -0.044125192
0.049754813 -0.01924925 -0.12746808 -0.025575785 -0.021067828 -0.026321325 -0.04547116 -0.016270591
0.047721185 -0.018519824 -0.112568475 0.017904537 0.065583244 0.075357884 0.1338762 0.030504517
0.17450513 -0.117054544 -0.037170213 0.012762692 -0.029891966 -0.15122087 -0.05961197 -0.051208574
-0.017494937 0.08554439 0.039740425 -0.0009800458 0.020348422 -0.032231923 -0.10346392 -0.010096414
0.004374879 0.13190204 0.08619382 -0.052246116 -0.06676449 0.028576907 -0.09248892 -0.0038503548
0.17041108 0.03029471 0.052871075 0.092835024 -0.0050188377 -0.06764959 -0.16098787 0.1145714
-0.025116397 -0.012314667 0.13511507 -0.10598291 -0.0060409796 0.089985296 -0.022088863 -0.027655547
0.01692906 -0.02241504 0.025454603 0.009275797 0.008816681 -0.066337235 -0.047169648 0.0849785
-0.04619642 -0.068238236 0.017834859 -0.0130579015 -0.038165078 0.033875678 -0.11906882 -0.029530004
-0.0964558 -0.042848136 -0.03748923 -0.029276323 -0.01459569 0.063195795 -0.013563753 0.14176287
00000000: 7ac1 f4bd 9962 f4bd a8ca dfbd 2e48 803d
00000010: 53db 9fbd d818 80bd b589 953d 9c29 de3d
00000020: 5b17 05bd ee78 8dbd 6490 e33d ffd2 843b
00000030: 6267 6abd 5aff 283d 3257 293d ca73 9ebd
00000040: ce63 9d3d 67d9 cbbd fbf3 0ebd 09b6 a93d
00000050: 46eb 933d 318b edbb 7d44 3cbd 0e51 e03c
00000060: d49b 9c3d e2d4 173d 7810 413d e034 0b3d
00000070: 77df 14be adf2 863a a59c 4abd 8f14 613b
00000080: c0c9 eb3b 3fb8 bf3d a1fb 1d3d ffd6 b83c
00000090: 9080 9c3d e07d 87bd c295 2dbe 56d4 3f3d
000000a0: dff7 af3c 6ae0 b0bb 6a32 8b3c 77ec b6bb
000000b0: 7ea4 ff3d 7494 87bd 6b86 f23b 54cf 403d
000000c0: 82ac b33c 998a 1abd a253 3abc d784 d33d
000000d0: 9dd5 0bbc ca20 8a38 4764 db3d d702 903d
000000e0: 1cf9 5b3d 07b2 23bd 32d6 89bd 0504 36bd
000000f0: aa1a 883c ee85 143d 6c82 18be beba 0a3e
00000100: b3fd dbbd 6672 94bc 085c e9bc 3fb8 9f3d
00000110: 318c 143d 0dc0 6ab9 1348 36bd c96d 103d
00000120: 53c7 eabc c19a 553c d699 1d3c 8f12 3cbd
00000130: e7e4 1fbc 3b92 d93b fc79 933d bb35 993d
00000140: a8ed 51bb ce17 e83d 8987 f53c 6fff e1ba
00000150: 6303 1cbd 46b9 55bc ae2b 063e b9c6 04be
00000160: 8459 3f3d c2c2 173c 34e5 a3bd 2832 0d3e
00000170: 4b64 08bd 22c4 81bc acdd c43c bc32 533d
00000180: 3de2 9abd 705c eabc a4f5 d4bc a366 e6bd
00000190: d1cb 903c 33c2 ec3b 0d3c 1fbd 6416 6bbd
000001a0: cf77 e1bb 3e63 433d 5f4d 973c 2b59 003e
000001b0: 24c8 babd 0aa7 5d3d 0f17 03bd 9457 0a3e
000001c0: bae1 b2bd 9d9f 373d ff25 393d f6f5 8b3d
000001d0: 4ded aabd f910 373d 3b6f 67bd 33d8 b2bc
000001e0: 0f75 2c3d 5205 f2bd c5c9 ad3b 827e 9a3c
000001f0: 43fe 473d 2fde dd3d 2f98 933b 4e45 ae3c
00000200: 7537 9ab9 9c3c c33b ee30 04be 05dc 5eba
00000210: 11b1 f63d 5df4 6bbd b7e8 16bd 28d5 1bbd
00000220: 3109 853c 4e1e e6bd a524 e93d 4fe8 74bd
00000230: 98e7 14be a8b4 c03c e627 a93d 50e3 7cbd
00000240: 6651 b03d c019 b7bd 09f6 303d 6e2e b7bd
00000250: 8c83 173d 2a4e 47bc 366e 8a3d 555c 91ba
00000260: 6684 febb 7b17 193c b35b be3c b365 cf3d
00000270: 776d 24bd 0243 ed3d cb8b 3ebc faaa d73d
00000280: c2b3 b13c f68e 4e3e 17d5 413d 50ad 18bd
00000290: c2ce 51bd c675 30bd ba7c 7f3d 2025 0c3d
000002a0: 490f 60bd 2252 58bd 708f f53d dd48 5e3c
000002b0: 4fe0 d73c e546 76bd b56a 923d 9ebc 34bd
000002c0: b4cb 4b3d 9ab0 9dbc fe86 02be 4f84 d1bc
000002d0: 7096 acbc d29f d7bc f83f 3abd e749 85bc
000002e0: 4a77 433d e3b6 97bc 4d8a e6bd 89ac 923c
000002f0: 8250 863d 3c55 9a3d d816 093e 9ce4 f93c
00000300: 79b1 323e 4bba efbd cb3f 18bd 9c1a 513c
00000310: ffdf f4bc a5d9 1abe ae2b 74bd 15c0 51bd
00000320: 8b51 8fbc e631 af3d dbc6 223d e174 80ba
00000330: bcb1 a63c 9f05 04bd e4e4 d3bd 6e6b 25bc
00000340: 255b 8f3b 5411 073e 6386 b03d 0600 56bd
00000350: d2bb 88bd 1e1a ea3c d56a bdbd 3c56 7cbb
00000360: 3e80 2e3e 9d2c f83c 578f 583d 4a20 be3d
00000370: 1075 a4bb de8b 8abd 01da 24be 69a4 ea3d
00000380: e7c0 cdbc 75c3 49bc 9b5b 0a3e 910d d9bd
00000390: 69f3 c5bb 364a b83d b4f3 b4bc e38d e2bc
000003a0: d0ae 8a3c bf9f b7bc 2c86 d03c 83f9 173c
000003b0: d773 103c d1db 87bd f634 41bd 3509 ae3d
000003c0: 7538 3dbd 7dc0 8bbd 691a 923c cff0 55bc
000003d0: fc52 1cbd 39c1 0a3d 5ada f3bd e8e8 f1bc
000003e0: 9e8a c5bd 8781 2fbd 4f8e 19bd e6d4 efbc
000003f0: c322 6fbc cc6c 813d 813a 5ebc 492a 113e

actor.0.bias f4 [256]
-0.007478301 -0.15798792 -0.023582937 -0.051267624 -0.024772383 -0.027206084 -0.054788053 -0.06309753
-0.082192905 -0.10160758 -0.04740253 -0.034497358 -0.039519165 -0.056874335 -0.20230682 -0.1308372
-0.02849956 -0.051446185 0.022747295 0.050889052 -0.08352825 -0.055060357 -0.18999155 -0.14483488
0.025695357 -0.12102699 -0.02801892 -0.061934385 -0.10747817 -0.092948064 -0.13685568 -0.13535608
0.013957105 -0.031324882 -0.07212468 0.006924776 -0.04752131 -0.046322003 -0.0532112 -0.016906673
-0.0029988023 -0.018951204 -0.16562693 -0.060348418 0.028917303 -0.09448917 -0.116564825 -0.039701425
-0.117280446 -0.10315425 0.07935343 -0.051517308 -0.02037733 -0.1431538 -0.050686143 -0.15928608
-0.02603083 -0.15231252 -0.21723184 0.013542959 0.011414514 -0.1415226 0.003193865 -0.058541723
-0.10013472 -0.033528194 -0.15785165 0.03177218 -0.11460736 0.061504196 -0.10765904 -0.080847874
-0.04546705 -0.038292266 -0.061366115 -0.020882301 -0.13459165 -0.14499274 -0.039755464 -0.07731271
-0.06879672 -0.031125363 -0.18270166 -0.014298683 -0.14837499 -0.10414374 -0.0663317 -0.15047456
-0.14951141 -0.108182445 -0.11147795 0.030468082 -0.074606895 0.008498384 -0.05057158 -0.018713085
-0.049500402 0.056079835 -0.032615103 0.06313236 -0.11310802 0.00067694933 -0.035329677 -0.07464935
-0.14407077 -0.071565285 -0.10738374 -0.12708864 0.0032517218 -0.0635423 -0.029369522 -0.084928356
0.009811452 -0.0542627 -0.18161975 -0.05150561 -0.10409828 -0.0058847223 -0.084446594 -0.005754401
-0.054518454 -0.14746138 -0.13871661 -0.08202275 -0.1956164 -0.074233726 0.00064109947 -0.04505342
0.017647712 -0.0898487 -0.13311134 -0.036118697 -0.1088708 -0.100656554 -0.03570872 0.0048603266
-0.06944658 -0.01906322 -0.14609408 -0.041700132 -0.13554615 -0.0057702926 0.013492174 -0.102124445
-0.115460835 -0.030705022 -0.12204189 -0.0913944 -0.008514355 -0.07339556 -0.06530353 -0.022996707
-0.16487996 -0.12086877 -0.03184077 -0.0754202 -0.05970428 -0.071811706 -0.054552317 -0.100299925
-0.0606827 -0.17893268 -0.090286955 -0.09258117 -0.07374652 0.043029856 -0.09593858 -0.0056027197
-0.024617935 0.0018773053 -0.16964582 -0.072762474 0.037765898 0.010526503 0.013632674 -0.0023670604
-0.0021276928 -0.061798286 -0.18101448 -0.15258442 -0.019452326 -0.036560856 -0.053962782 -0.13284177
-0.008431461 -0.00016322143 -0.07379634 0.022188906 -0.21382613 -0.08092335 -0.058067966 -0.11426072
-0.06089726 -0.090851285 -0.025926948 -0.08165835 -0.104454115 -0.031744227 -0.07990049 -0.08322677
-0.14128987 -0.06167449 -0.15492417 -0.08990911 -0.07548715 -0.016159862 -0.14627859 -0.0763544
0.017589815 0.01570927 -0.046014056 -0.032917783 -0.0333371 -0.03186131 -0.14405514 -0.16844402
-0.033978906 -0.11060903 -0.055357743 -0.1755445 -0.081588455 -0.032086212 0.007159918 -0.11075927
0.015668482 -0.10492804 0.06908447 -0.021279955 -0.10926617 -0.047869816 -0.040355917 0.008517922
0.012496569 -0.10600477 -0.124195024 -0.09753364 -0.18371372 -0.014401156 -0.104069546 -0.10948675
-0.04636248 -0.027141819 -0.10478427 -0.008141902 -0.08621519 -0.19412276 -0.06264925 -0.18600704
-0.13636246 -0.07211214 -0.08604416 -0.15464363 0.008637925 0.03432754 -0.0103929965 -0.01949305
00000000: 890c f5bb 96c7 21be 0131 c1bc 00fe 51bd
00000010: 74ef cabc 4bdf debc 7069 60bd 4739 81bd
00000020: c154 a8bd a317 d0bd 2829 42bd 1a4d 0dbd
00000030: d9de 21bd 10f5 68bd 8529 4fbe 30fa 05be
00000040: e977 e9bc 3cb9 52bd 8958 ba3c 0a71 503d
00000050: dc10 abbd f886 61bd 258d 42be 984f 14be
00000060: 127f d23c 00dd f7bd ef87 e5bc e9ae 7dbd
00000070: 841d dcbd 8e5b bebd e523 0cbe c99a 0abe
00000080: 57ac 643c 854e 00bd 1bb6 93bd 3be9 e23b
00000090: b5a5 42bd 24bc 3dbd fdf3 59bd dd7f 8abc
000000a0: 8e87 44bb 8e3f 9bbc 1b9a 29be e72f 77bd
000000b0: fbe3 ec3c 8a83 c1bd 8ab9 eebd f69d 22bd
000000c0: bb30 f0bd 8942 d3bd 0d84 a23d d003 53bd
000000d0: 5cee a6bc e996 12be 469c 4fbd e41b 23be
000000e0: 9b3e d5bc d0f7 1bbe 0672 5ebe 49e3 5d3c
000000f0: f103 3b3c 4deb 10be 2a50 513b 72c9 6fbd
00000100: 6f13 cdbd dc54 09bd dda3 21be 8c23 023d
00000110: 43b7 eabd d3eb 7b3d 587c dcbd 9293 a5bd
00000120: a83b 3abd 5ad8 1cbd 095b 7bbd 5c11 abbc
00000130: 65d2 09be fa78 14be a0d6 22bd 2056 9ebd
00000140: 4be5 8cbd 9efa febc 2516 3bbe 0645 6abc
00000150: 9def 17be 5049 d5bd ead8 87bd 0116 1abe
00000160: 8519 19be c28e ddbd 8d4e e4bd 3398 f93c
00000170: 80cb 98bd ce3c 0b3c 2524 4fbd 2f4c 99bc
00000180: efc0 4abd f8b3 653d 6a97 05bd 8a4b 813d
00000190: 2da5 e7bd 4d75 313a dab5 10bd c2e1 98bd
000001a0: 4a87 13be d290 92bd 02ec dbbd 8623 02be
000001b0: d71a 553b 7722 82bd 5a98 f0bc ebee adbd
000001c0: 36c0 203c 9142 5ebd 87fa 39be 8cf7 52bd
000001d0: 7b31 d5bd a1d4 c0bb 56f2 acbd 6a8f bcbb
000001e0: be4e 5fbd 1e00 17be ba0b 0ebe 8bfb a7bd
000001f0: aa4f 48be da07 98bd 750f 283a ef89 38bd
00000200: ef91 903c 9802 b8bd 574e 08be 33f1 13bd
00000210: a7f7 debd 0625 cebd 4f43 12bd 6043 9f3b
00000220: 023a 8ebd 782a 9cbc b099 15be c2cd 2abd
00000230: 9ccc 0abe b914 bdbb 480e 5d3c 9f26 d1bd
00000240: bb76 ecbd 1989 fbbc 19f1 f9bd fd2c bbbd
00000250: cb7f 0bbc 6950 96bd dbbd 85bd 9763 bcbc
00000260: 4bd6 28be 0c8a f7bd 786b 02bd e875 9abd
00000270: 7a8c 74bd 0412 93bd 4072 5fbd 0c6a cdbd
00000280: 6c8e 78bd 213a 37be 5ee8 b8bd 329b bdbd
00000290: 6a08 97bd 1340 303d 727b c4bd 0597 b7bb
000002a0: 8dab c9bc ea0f f63a a2b7 2dbe 7e04 95bd
000002b0: 6ab0 1a3d 5b77 2c3c 945b 5f3c af20 1bbb
000002c0: c370 0bbb 3320 7dbd dc5b 39be 173f 1cbe
000002d0: 7c5a 9fbc d6c0 15bd 1408 5dbd ac07 08be
000002e0: 1c24 0abc 6b26 2bb9 8922 97bd 82c5 b53c
000002f0: 3df5 5abe 24bb a5bd add8 6dbd 8601 eabd
00000300: 686f 79bd 3d10 babd c064 d4bc 7e3c a7bd
00000310: 0aec d5bd 3c06 02bd dea2 a3bd cc72 aabd
00000320: 4bae 10be 649e 7cbd 71a4 1ebe 4422 b8bd
00000330: 0299 9abd b061 84bc 0eca 15be b25f 9cbd
00000340: 8418 903c bab0 803c 3c79 3cbd ccd4 06bd
00000350: 7c8c 08bd 0181 02bd 3183 13be 977c 2cbe
00000360: 772d 0bbd fd86 e2bd cdbe 62bd f0c1 33be
00000370: d917 a7bd d56c 03bd bf9d ea3b c2d5 e2bd
00000380: 305b 803c 83e4 d6bd 297c 8d3d 4d53 aebc
00000390: f1c6 dfbd 2413 44bd 3f4c 25bd c18e 0b3c
000003a0: 69be 4c3c 0719 d9bd f659 febd b8bf c7bd
000003b0: 731f 3cbe d4f2 6bbc 6a22 d5bd 973a e0bd
000003c0: 95e6 3dbd 8558 debc 2399 d6bd 9d65 05bc
000003d0: 9791 b0bd 1ec8 46be 404e 80bd a178 3ebe
000003e0: 9aa2 0bbe 88af 93bd ec37 b0bd e65a 1ebe
000003f0: 1586 0d3c 099b 0c3d 6347 2abc e4af 9fbc

actor.2.weight f4 [256, 256]
-0.05472962 0.027133036 -0.010727507 0.028528562 -0.013550294 -0.059089888 -0.016992128 -0.015306611
0.03791123 -0.07734463 0.027467687 -0.02267909 0.024950242 -0.003031094 -0.016994564 0.022180084
0.027702626 0.033071466 -0.076057814 0.026622418 -0.0648842 0.038947 -0.015383719 0.000250918
0.027101463 -0.07797652 -0.026823778 -0.020936826 -0.06397641 0.00656247 -0.047544375 0.0014976446
0.0027147327 -0.038815692 0.076664105 -0.058076177 -0.0060771983 0.0002291841 0.017987492 -0.08650131
-0.017037202 -0.059268706 -0.022756903 -0.0474619 -0.03153579 0.0017267197 -0.047668636 -0.08271129
0.015948448 -0.041313928 -0.08340607 -0.09285856 0.020489018 -0.0060877474 0.019408263 -0.029801516
-0.014591441 -0.0077865194 -0.010399236 0.005935349 -0.0518891 -0.026738927 -0.024035001 -0.04264979
-0.045945227 -0.03915919 -0.061769966 -0.038146302 0.06220307 0.007996696 -0.034860652 -0.07985287
-0.07571286 -0.05998271 -0.12029154 -0.027011054 -0.065718845 0.016298134 0.0068450705 -0.021056002
-0.0026432357 0.05212246 0.020743983 -0.06773414 -0.0049382886 0.0705137 0.0791782 0.004229349
0.084858336 -0.031207692 0.058856755 0.052682493 -0.09270929 0.018057887 -0.03059034 -0.087221034
0.022973362 0.005342958 -0.029444031 0.038263354 -0.027463261 0.006477202 0.015276114 -0.053022202
0.043844167 0.045849785 -0.034111902 -0.0039848015 0.019966073 -0.005341241 -0.004809777 0.0033637255
-0.030673523 0.0289113 -0.0895025 0.023623927 0.00061332184 0.03740558 -0.035637267 0.06764759
-0.01671636 0.009481768 0.049770545 0.0011877032 -0.012043645 0.01842741 0.0059749107 -0.0494678
-0.06807678 0.015651686 -0.02091058 0.057359878 0.030315787 -0.009870657 -0.010436564 -0.033291772
-0.027448824 -0.009094088 -0.028957926 -0.06563622 -0.040593874 0.065002955 -0.09401224 -0.0015019891
0.026349837 0.02331159 0.02622378 -0.10438841 -0.055089623 0.061928138 8.870873e-06 -0.0035674453
-0.06459223 0.043425795 -0.0979616 0.02590008 -0.021742523 -0.054321457 0.026828077 0.06378644
0.056020856 0.0154872285 -0.037778966 0.0087264255 0.0072065084 0.009579302 -0.06981056 -0.011532042
-0.03739749 0.015561893 -0.077303015 -0.08377593 0.0085519105 -0.0024241921 -0.11764224 0.015426668
-0.050434124 -0.12824813 0.02085469 0.020393873 0.058803234 -0.00995126 -0.048159085 -0.09198787
0.04088897 0.05864157 -0.028373515 0.081603855 -0.025348932 -0.035128284 -0.032844886 0.0017335006
-0.06558296 -0.05778789 -0.021213837 -0.034508977 -0.011742056 0.009103991 -0.09450507 0.0014825056
-0.047003057 -0.0490091 -0.08416603 0.012137937 -0.038174704 0.05826568 -0.062044814 -0.040630978
0.023814315 0.020198332 0.06148581 0.04253808 -0.001092419 -0.008997382 0.021621017 -0.05660701
-0.067272656 0.05003119 -0.0271926 0.0438408 -0.06630538 0.086317964 -0.016100481 -0.10304086
-0.04741369 0.07640529 0.020691944 -0.07773437 -0.023165418 0.031281684 0.012107029 -0.0587519
0.013415688 0.021400657 -0.07430343 -0.06944703 0.024760474 0.02711303 -0.07432797 -0.010373197
-0.027652089 0.00878689 -0.051688887 -0.084279075 0.00823814 -0.0436453 0.009566391 -0.052262392
-0.025609514 0.0033062869 0.005606295 -0.00489985 -0.07248898 -0.03099009 -0.049305186 -0.0498678
00000000: 2b2c 60bd 1a46 de3c 6dc2 2fbc bbb4 e93c
00000010: 0d02 5ebc 3d08 72bd 1333 8bbc 94c8 7abc
00000020: ce48 1b3d dd66 9ebd ea03 e13c 80c9 b9bc
00000030: 7364 cc3c 52a5 46bb 2f38 8bbc 02b3 b53c
00000040: 9ef0 e23c f275 073d 33c4 9bbd 4217 da3c
00000050: 02e2 84bd e486 1f3d fe0b 7cbc a58d 8339
00000060: e303 de3c 27b2 9fbd 8abd dbbc b583 abbc
00000070: 1006 83bd fd09 d73b e4bd 42bd 9d4c c43a
00000080: a8e9 313b 34fd 1ebd 1202 9d3d 49e1 6dbd
00000090: 3c23 c7bb 2351 7039 815a 933c 9927 b1bd
000000a0: 9a91 8bbc bec3 72bd af6c babc 6967 42bd
000000b0: ac2b 01bd 1953 e23a 3040 43bd 8964 a9bd
000000c0: 52a6 823c cb38 29bd cdd0 aabd a12c bebd
000000d0: 96d8 a73c ba7b c7bb 14fe 9e3c 4f22 f4bc
000000e0: f010 6fbc 0f26 ffbb 8f61 2abc 517d c23b
000000f0: aa89 54bd 980b dbbc 0de5 c4bc 8cb1 2ebd
00000100: 1031 3cbd 6365 20bd 8102 7dbd 4c3f 1cbd
00000110: a5c8 7e3d 9304 033c 0bca 0ebd e789 a3bd
00000120: 580f 9bbd 6eb0 75bd 695b f6bd 4946 ddbc
00000130: 9a97 86bd aa83 853c 9d4c e03b a37d acbc
00000140: 233a 2dbb 5c7e 553d 49ef a93c 32b8 8abd
00000150: 5ed1 a1bb 7d69 903d 2e28 a23d 5a96 8a3b
00000160: 35ca ad3d 46a7 ffbc c813 713d 99c9 573d
00000170: 5ede bdbd 22ee 933c 9898 fabc f1a0 b2bd
00000180: a232 bc3c fb13 af3b 9c34 f1bc 09ba 1c3d
00000190: a2fa e0bc b53e d43b ab48 7a3c cf2d 59bd
000001a0: f195 333d fccc 3b3d ecb8 0bbd f092 82bb
000001b0: e48f a33c 9405 afbb 559b 9dbb f371 5c3b
000001c0: 0a47 fbbc 64d7 ec3c 164d b7bd f786 c13c
000001d0: 55c7 203a 9836 193d 62f8 11bd d28a 8a3d
000001e0: bff0 88bc 6b59 1b3c 33dc 4b3d b5ac 9b3a
000001f0: b552 45bc 14f5 963c 2fc9 c33b bf9e 4abd
00000200: d76b 8bbd f737 803c aa4c abbc 31f2 6a3d
00000210: d058 f83c 89b8 21bc 1ffe 2abc f45c 08bd
00000220: 5bdc e0bc 5fff 14bc 2c39 edbc 486c 86bd
00000230: c345 26bd 4520 853d 7d89 c0bd 64de c4ba
00000240: 9ddb d73c f3f7 be3c 41d3 d63c 97c9 d5bd
00000250: a8a5 61bd 5ca8 7d3d 1cd4 1437 cdcb 69bb
00000260: ee48 84bd 3fdf 313d 17a0 c8bd 682c d43c
00000270: 601d b2bc 2d80 5ebd 8ec6 db3c 77a2 823d
00000280: 2076 653d 25be 7d3c 1ebe 1abd 48f9 0e3c
00000290: 9324 ec3b 81f2 1c3c d7f8 8ebd e4f0 3cbc
000002a0: 1c2e 19bd 4ff7 7e3c 0b51 9ebd b792 abbd
000002b0: 501d 0c3c 32df 1ebb 6aee f0bd 23c0 7c3c
000002c0: 0394 4ebd 7a53 03be 74d7 aa3c 0d11 a73c
000002d0: a9db 703d 9c0a 23bc 7642 45bd 2364 bcbd
000002e0: 317b 273d 2532 703d 936f e8bc ec1f a73d
000002f0: 90a8 cfbc ade2 0fbd 5c88 06bd a136 e33a
00000300: 5c50 86bd ffb2 6cbd a4c8 adbc 4959 0dbd
00000310: c161 40bc e828 153c e08b c1bd a250 c23a
00000320: 4786 40bd c4bd 48bd 3d5f acbd 33de 463c
00000330: 145d 1cbd fea7 6e3d b422 7ebd ab6c 26bd
00000340: 3d16 c33c f976 a53c 8bd8 7b3d 693c 2e3d
00000350: 802f 8fba c169 13bc 8f1e b13c c1dc 67bd
00000360: 3fc6 89bd 81ed 4c3d 04c3 debc 6992 333d
00000370: 1dcb 87bd 79c7 b03d 28e5 83bc 1607 d3bd
00000380: db34 42bd 607a 9c3d 2782 a93c 3333 9fbd
00000390: 67c5 bdbc 3921 003d 8f5c 463c d5a5 70bd
000003a0: 79cd 5b3c 6e50 af3c 662c 98bd 3f3a 8ebd
000003b0: 7ad6 ca3c 251c de3c 4339 98bd 57f4 29bc
000003c0: a286 e2bc e3f6 0f3c bab7 53bd 829a acbd
000003d0: 43f9 063c 6ac5 32bd 5abc 1c3c 1711 56bd
000003e0: 0bcb d1bc 4aae 583b 03b5 b73b ec8e a0bb
000003f0: 1a75 94bd eede fdbc 3cf4 49bd 2e42 4cbd

actor.2.bias f4 [256]
-0.0040678387 0.04203963 -0.065917484 0.007105914 0.06652711 -0.026403736 0.01207201 -0.039255425
-0.009150363 -0.005768259 0.0122799715 0.027531443 0.049294733 0.07207616 -0.016719958 -0.028262226
-0.03096663 0.07352282 0.0063390858 -0.053304747 0.043515645 -0.035573766 0.088191226 -0.05704944
0.07357112 -0.05963769 0.022917593 0.01543703 -0.060164295 0.00052158395 0.0025185877 0.026681317
-0.016879803 -0.055421975 0.076865904 0.07862298 0.0041917413 -0.0016570882 1.8107803e-05 0.061663553
0.00896893 -0.030820245 -0.058487333 0.0031951251 0.061214995 -0.07611404 0.021903554 0.049310233
0.061197586 0.0140750175 -0.006304027 0.010763649 0.07316399 -0.05408732 -0.012589104 -0.09172687
-0.006540757 0.014148861 0.058919813 -0.013528922 -0.06703148 0.08581276 0.0010300563 -0.0071797287
-0.041840233 -0.044004895 0.024630945 0.08999325 0.03148008 -0.040079694 0.049118515 0.0035192207
-0.02035045 -0.05831162 0.05300149 -0.026486384 0.032422237 0.1050825 0.042253967 -0.00066301855
-0.028073965 -0.0051711006 -0.027146462 0.056664694 -0.0021438147 -0.0066824313 0.014524745 -0.050608966
0.052520685 0.025802065 -0.04089108 -0.017935192 -0.010675762 -0.095301 -0.0015881505 0.010951452
0.047582895 0.094627395 -0.004843318 -0.02183331 0.07629649 0.020960515 -0.037103694 -0.083993904
0.053454705 0.01424806 0.1611727 -0.013589354 0.051822536 0.0011439158 -0.011918612 -0.016098037
-0.024467764 -0.0028671292 0.010646561 0.002474218 -0.029472446 -0.054650813 0.060183812 -0.055645213
0.014775601 -0.029146941 0.10391174 0.021445548 -0.04569703 0.06176409 -0.019762646 -0.03068065
0.08874426 -0.017117854 0.028335836 0.06325504 0.07159122 0.052630186 -0.06226271 -0.011822818
-0.049013693 0.10361174 -0.00034415454 -0.053373132 -0.02371702 0.020752417 -0.077473395 -0.016584294
-0.033124074 -0.033948384 -0.009951669 0.0709411 0.13739729 0.01743487 -0.070763975 0.08779412
0.02870537 -0.042254917 0.10065973 0.051489353 -0.013896458 0.031736594 0.0055865226 -0.015937066
0.023091357 0.044357188 0.12571332 -0.03339139 -0.053064868 -0.0045262487 0.02243526 -0.001934792
0.011687037 -0.033661097 0.113139376 0.08805107 -0.011982588 -0.047814894 0.018738883 -0.019429637
0.092508405 -0.053785052 0.076327026 0.019091848 -0.07298546 -0.036301363 0.0010345365 -0.01848135
-0.06544753 0.027475389 -0.020397054 0.010043587 0.040007923 -0.025579553 0.0040446753 0.0080724
-0.0017998981 0.036494948 0.061716862 0.067905635 0.049265858 -0.055158906 -0.022395898 0.007253928
-0.0008069258 -0.03739153 0.022807427 -0.059472963 0.021559488 0.03909039 -0.009035356 -0.08480471
-0.09813357 -0.030722186 -0.036584783 -0.048307333 0.03991587 0.084124446 0.018546503 -0.0083044525
-0.056742206 0.038239934 -0.0634168 0.114430465 -0.03806796 0.10664939 0.13466182 0.010024908
-0.017283473 0.026832351 -0.026627082 0.030603139 0.009362609 0.036969822 0.052016754 0.041170906
-0.024717962 -0.03901968 0.0045802426 0.05291551 -0.06354875 -0.025194066 0.06640958 0.05843636
-0.024812156 0.022641227 0.03536644 -0.015046072 -0.04173105 -0.04740134 -0.07951408 -0.009429434
0.008326004 0.07021139 0.09675068 -0.084659144 0.006443922 -0.04647112 -0.025750669 -0.029135766
00000000: 814b 85bb bf31 2c3d bfff 86bd bad8 e83b
00000010: 5e3f 883d a64c d8bc aec9 453c 4cca 20bd
00000020: 67eb 15bc aa03 bdbb ef31 493c 9f89 e13c
00000030: 46e9 493d aa9c 933d 4bf8 88bc 2f86 e7bc
00000040: bbad fdbc 2293 963d 1bb8 cf3b 1456 5abd
00000050: 763d 323d ccb5 11bd 9a9d b43d acac 69bd
00000060: 75ac 963d a746 74bd adbd bb3c 99eb 7c3c
00000070: d66e 76bd e8ba 083a e40e 253b c792 da3c
00000080: 8347 8abc 2702 63bd df6b 9d3d 1605 a13d
00000090: e05a 893b a732 d9ba 36e6 9737 ec92 7c3d
000000a0: 6bf2 123c bd7a fcbc 6a90 6fbd 4e65 513b
000000b0: 93bc 7a3d aee1 9bbd 156f b33c 87f9 493d
000000c0: 52aa 7a3d e79a 663c 0392 cebb 045a 303c
000000d0: 01d7 953d aa8a 5dbd 8742 4ebc 4cdb bbbd
000000e0: d953 d6bb a0d0 673c e755 713d 69a8 5dbc
000000f0: cd47 89bd 9abe af3d f402 873a ee43 ebbb
00000100: aa60 2bbd 7a3e 34bd d6c6 c93c 624e b83d
00000110: 42f1 003d 9b2a 24bd 7f30 493d baa2 663b
00000120: fdb5 a6bc 2ad8 6ebd 1718 593d f9f9 d8bc
00000130: 2ecd 043d 7e35 d73d 7f12 2d3d 6cce 2dba
00000140: 5ffb e5bc 5672 a9bb 4262 debc 3d19 683d
00000150: 3e7f 0cbb 4cf8 dabb 32f9 6d3c 594b 4fbd
00000160: ee1f 573d da5e d33c 687d 27bd d3ec 92bc
00000170: 64e9 2ebc 2c2d c3bd 7d29 d0ba b86d 333c
00000180: 48e6 423d 02cc c13d b2b4 9ebb c5db b2bc
00000190: 5641 9c3d 63b5 ab3c 0bfa 17bd ff04 acbd
000001a0: 52f3 5a3d b270 693c 750a 253e e2a5 5ebc
000001b0: de43 543d 72ef 953a 4846 43bc 08e0 83bc
000001c0: 9f70 c8bc 72e6 3bbb ea6e 2e3c 7d26 223b
000001d0: 3370 f1bc 88d9 5fbd 4d83 763d 3cec 63bd
000001e0: 5d15 723c 91c5 eebc aecf d43d 93ae af3c
000001f0: cf2c 3bbd 58fc 7c3d 46e5 a1bc fd55 fbbc
00000200: 8dbf b53d be3a 8cbc 8e20 e83c dc8b 813d
00000210: 6b9e 923d c092 573d 2f07 7fbd 7eb4 41bc
00000220: 95c2 48bd 6432 d43d a46f b4b9 c99d 5abd
00000230: 324a c2bc f900 aa3c 5faa 9ebd c9db 87bc
00000240: 1cad 07bd 760d 0bbd 530c 23bc 9149 913d
00000250: e0b1 0c3e 93d3 8e3c b4ec 90bd 67cd b33d
00000260: 8627 eb3c 7e13 2dbd b026 ce3d 80e6 523d
00000270: f8ad 63bc 3bfe 013d 260f b73b 738e 82bc
00000280: 162a bd3c e2af 353d feba 003e 69c5 08bd
00000290: 8c5a 59bd ed50 94bb 26ca b73c d998 fdba
000002a0: fc7a 3f3c 38e0 09bd 9eb5 e73d 1f54 b43d
000002b0: 9e52 44bc 8dd9 43bd 4982 993c e72a 9fbc
000002c0: 0c75 bd3d b74d 5cbd 5851 9c3d 8266 9c3c
000002d0: 6779 95bd bdb0 14bd 4999 873a 3366 97bc
000002e0: 5b09 86bd 1114 e13c b917 a7bc db8d 243c
000002f0: 59df 233d 368c d1bc 3289 843b 1a42 043c
00000300: 8fea ebba ba7b 153d d2ca 7c3d 1c12 8b3d
00000310: ffca 493d 4eee 61bd 9a77 b7bc 5cb2 ed3b
00000320: e087 53ba dc27 19bd a4d6 ba3c ec99 73bd
00000330: 869d b03c 3f1d 203d 0809 14bc 17ae adbd
00000340: 41fa c8bd 18ad fbbc edd9 15bd e9dd 45bd
00000350: d37e 233d 7049 ac3d d6ee 973c 660f 08bc
00000360: 846a 68bd 7aa1 1c3d abe0 81bd 855a ea3d
00000370: 26ed 1bbd ff6a da3d cae4 093e 833f 243c
00000380: 1296 8dbc 85cf db3c 0a21 dabc 6fb3 fa3c
00000390: a165 193c ab6d 173d 850f 553d d3a2 283d
000003a0: 537d cabc 1ad3 1fbd dc15 963b efbd 583d
000003b0: d925 82bd c963 cebc bf01 883d f75a 6f3d
000003c0: dd42 cbbc 187a b93c 66dc 103d cd83 76bc
000003d0: 2dee 2abd e827 42bd 47d8 a2bd ea7d 1abc
000003e0: cb69 083c fdca 8f3d 3825 c63d c661 adbd
000003f0: 8927 d33b 8058 3ebd 11f3 d2bc 21ae eebc

actor.4.weight f4 [100, 256]
0.138438 0.09793795 0.13572039 0.067788884 0.06331556 0.16366906 0.087908104 0.06642696
0.040145233 0.05921548 0.027851114 0.13827087 0.017470516 0.045310576 0.15722072 0.07179376
-0.0035271442 0.050620466 -0.025735984 -0.019656142 0.15806188 0.0430475 0.13149595 0.038177893
0.038167734 0.22745115 0.038030554 0.03881259 0.17016728 0.106085725 0.107711114 0.11907963
-0.026608057 0.10618869 0.0029623145 -0.08519214 0.018484646 0.050409645 -0.06026106 -0.0053709643
0.16363911 0.061026435 -0.049011473 0.09475282 -0.098737456 0.10899801 0.11866507 0.048980527
0.12143846 0.056463167 0.1305688 -0.006100847 0.03136102 0.07545766 0.112390324 0.019899605
-0.017375888 0.26035628 0.20966122 -0.04932627 -0.003319026 0.06316949 0.036740858 -0.122890934
0.012864822 0.14136931 0.14988722 -0.061293304 0.094654225 0.115084246 0.15220845 0.045867927
0.031576235 0.039115034 0.077140965 0.06027561 0.032268688 0.058376502 -0.0499875 0.024164813
0.05187461 0.09734999 0.07263743 0.084998116 -0.02557758 0.20616034 0.032722194 0.11995219
0.04817627 -0.002354475 0.18780376 0.061698634 0.12325596 0.0764143 0.007574494 0.068099946
0.114185534 -0.021254664 -0.0366098 0.19565453 0.1141557 0.028424807 0.0115260165 -0.0036136548
0.024042623 0.12808442 0.27907717 0.122407824 0.18418238 0.15986203 0.08307649 0.21453114
0.054736245 -0.0004962666 -0.038993075 0.2003721 -0.03879012 0.12535277 0.19653103 -0.018404895
0.06363157 -0.016383445 0.16455284 0.18573503 0.070141025 0.059263144 0.03843922 0.036346383
0.12899867 0.037744515 -0.0285879 -0.15577653 -0.022448901 0.0043433905 0.023040114 0.25196248
-0.01407188 -0.08613514 0.00787474 -0.09771904 0.13469905 0.1546666 0.11978376 0.11953241
0.17378841 0.05111894 0.13523415 0.06867225 0.0419536 0.18143669 -0.017091418 0.17191827
0.15290958 0.11166879 -0.032773275 0.29862556 0.041837927 0.021434525 0.0893465 -0.039452493
-0.021190854 0.21064615 0.08690603 0.027457902 0.11284516 -0.0042393007 0.13233367 -0.019254992
0.17022443 0.13832487 0.174639 0.10192882 0.036196627 0.0959546 0.062556416 0.099951155
0.013592516 0.2731833 0.04868266 0.15895633 0.08979322 0.078499794 -0.015756184 0.14296764
0.107285276 0.09000499 -0.012456117 -0.014529956 -0.018085906 0.06640858 0.14227535 0.24817777
0.03622619 0.07106302 0.03863169 0.1608036 0.19997832 0.09579593 0.089135826 0.061423447
0.21429737 0.13223436 0.060567755 0.16290799 -0.003847782 0.10606127 0.029136784 0.0047719134
0.1323494 0.06647587 0.02986496 -0.03416956 0.16790321 0.19994809 0.26955834 0.098279476
-0.02146981 0.29606912 0.06107176 -0.11105328 0.06834718 0.19161609 0.10074452 0.0066740904
0.021235496 0.049738135 0.02586404 -0.06299262 0.037666496 -0.07729769 0.14157693 -0.07336412
0.017563976 0.108803295 0.08591264 0.048388533 0.0859787 0.0012341622 -0.06640852 0.18831445
0.0883193 0.045401186 0.05977799 0.04095125 0.013338417 0.09103723 0.09216448 0.29018474
0.06613568 0.14202294 0.07014972 0.027557392 0.1184817 -0.0016570847 0.25061578 0.016683258
00000000: b1c2 0d3e b193 c83d 49fa 0a3e e6d4 8a3d
00000010: 97ab 813d dd98 273e 2a09 b43d dc0a 883d
00000020: 546f 243d ee8b 723d 0528 e43c e196 0d3e
00000030: 541e 8f3c 9597 393d 78fe 203e 9b08 933d
00000040: a927 67bb 6857 4f3d 45d4 d2bc eb05 a1bc
00000050: f9da 213e 9352 303d e0a6 063e 6c60 1c3d
00000060: c555 1c3d f4e8 683e edc5 1b3d f3f9 1e3d
00000070: 5540 2e3e 7943 d93d a597 dc3d 05e0 f33d
00000080: 24f9 d9bc 7579 d93d 6423 423b 3779 aebd
00000090: 1d6d 973c 587a 4e3d 4dd4 76bd eafe afbb
000000a0: 0391 273e dbf6 793d 41c0 48bd c40d c23d
000000b0: dd36 cabd 593a df3d ac06 f33d ce9f 483d
000000c0: bab4 f83d ec45 673d d4b3 053e 9de9 c7bb
000000d0: 6a74 003d 8c89 9a3d e62c e63d 7f04 a33c
000000e0: e157 8ebc 6b4d 853e 6eb1 563e 580a 4abd
000000f0: 0484 59bb 015f 813d 957d 163d 3eae fbbd
00000100: f9c6 523c 1ec3 103e 097c 193e b00e 7bbd
00000110: 13da c13d 4ab1 eb3d 88dc 1b3e 02e0 3b3d
00000120: 1556 013d 1637 203d 15fc 9d3d 8fe3 763d
00000130: 2c2c 043d 331c 6f3d b1bf 4cbd 49f5 c53c
00000140: 797a 543d 6e5f c73d efc2 943d 7e13 ae3d
00000150: 1388 d1bc b21b 533e b507 063d 7ea9 f53d
00000160: 7b54 453d 894d 1abb a14f 403e b5b7 7c3d
00000170: 9f6d fc3d 1a7f 9c3d 7633 f83b fc77 8b3d
00000180: 1bda e93d 431e aebc 28f4 15bd a959 483e
00000190: 77ca e93d 24db e83c 9ed7 3c3c 11d3 6cbb
000001a0: 09f5 c43c 9028 033e 34e3 8e3e f4b0 fa3d
000001b0: 4e9a 3c3e dfb2 233e 0224 aa3d 0dae 5b3e
000001c0: 1d33 603d e317 02ba 34b7 1fbd 582e 4d3e
000001d0: 64e2 1ebd 7a5c 003e 6e3f 493e ddc5 96bc
000001e0: 4551 823d 9336 86bc 8a80 283e 5331 3e3e
000001f0: 19a6 8f3d e9bd 723d 7272 1d3d f2df 143d
00000200: 3a18 043e fe99 1a3d 2c31 eabc e283 1fbe
00000210: c2e6 b7bc 0053 8e3b 9fbe bc3c 3a01 813e
00000220: be8d 66bc 9f67 b0bd 0e05 013c ec20 c8bd
00000230: 8cee 093e ec60 1e3e 3051 f53d 68cd f43d
00000240: 97f5 313e 1862 513d d27a 0a3e 09a4 8c3d
00000250: 8ad7 2b3d 8aca 393e 4d03 8cbc 580b 303e
00000260: 5494 1c3e 9bb2 e43d 453d 06bd 73e5 983e
00000270: 3f5e 2b3d 7597 af3c 4cfb b63d f098 21bd
00000280: 7198 adbc a0b3 573e cafb b13d 65ef e03c
00000290: 5d1b e73d d5e9 8abb 7a82 073e a5bc 9dbc
000002a0: 504f 2e3e 09a5 0d3e 91d4 323e 0fc0 d03d
000002b0: ea42 143d d883 c43d 941d 803d 31b3 cc3d
000002c0: 25b3 5e3c aede 8b3e 7867 473d 73c5 223e
000002d0: 82e5 b73d 80c4 a03d 1d13 81bc 1c66 123e
000002e0: 62b8 db3d 8954 b83d be14 4cbc 0d0f 6ebc
000002f0: e528 94bc 3901 883d a1b0 113e 5022 7e3e
00000300: ea61 143d 7d89 913d 433c 1e3d b3a9 243e
00000310: 1ec7 4c3e a830 c43d d88c b63d 2797 7b3d
00000320: c570 5b3e 7268 073e e515 783d 5ad1 263e
00000330: 122b 7cbb a736 d93d 44b0 ee3c b65d 9c3b
00000340: 9a86 073e 8024 883d 5ca7 f43c 61f5 0bbd
00000350: d2ee 2b3e 31bf 4c3e 8d03 8a3e c046 c93d
00000360: 74e1 afbc 5f96 973e 6226 7a3d e76f e3bd
00000370: 9bf9 8b3d 0237 443e 2553 ce3d 54b2 da3b
00000380: 10f6 ad3c 37ba 4b3d d3e0 d33c 4602 81bd
00000390: 2f48 1a3d 404e 9ebd 8bf9 103e ee3f 96bd
000003a0: 54e2 8f3c 43d4 de3d f7f2 af3d 0e33 463d
000003b0: 9a15 b03d 9dc3 a13a 3101 88bd 81d5 403e
000003c0: c0e0 b43d 98f6 393d c4d9 743d 7fbc 273d
000003d0: 6089 5a3c ba71 ba3d bbc0 bc3d 1893 943e
000003e0: 2572 873d 766e 113e a8aa 8f3d 0ac0 e13c
000003f0: 89a6 f23d 8932 d9ba b650 803e 54ab 883c

actor.4.bias f4 [100]
0.019275287 0.09011597 0.014818658 -0.0061702016 -0.005069257 -0.035803117 -0.009563574 -0.010248159
-0.043335702 -0.018010397 0.04126006 0.04073648 -0.08196848 0.087154776 -0.07346623 0.088906884
0.07341615 0.024768343 -0.008458645 0.018606095 0.028658565 0.03750843 -0.02115175 0.038477674
0.06535633 0.008756015 0.058359995 0.06381037 -0.021444267 0.108773544 0.008146151 -0.056969702
-0.020787135 -0.057324503 0.085182495 0.07630575 -0.015936093 0.06524619 -0.07601564 0.047208406
0.031331502 -0.01750876 0.07946477 0.024372144 0.10275769 0.1131417 -0.06421345 -0.029769374
0.051374882 -0.00048066137 0.105085336 0.005512913 -0.004463391 0.04064626 -0.07627481 0.16416743
-0.0053440896 0.10313178 0.04108855 0.04527349 0.026167832 0.034906007 0.050331466 -0.046515245
0.043909438 0.05811757 -0.04773603 0.011587114 0.0054237964 -0.073611 -0.063428074 -0.07905044
0.09395014 0.042686194 0.06227835 0.046969324 0.025789917 0.13166629 -0.049618788 -0.08553352
-0.042417422 -0.063539766 0.06850908 -0.090867504 0.1342749 0.029574828 0.071814455 0.006800354
-0.09291732 0.011954166 -0.0844277 0.110844605 0.012977716 -0.05597697 0.07011163 0.07087336
-0.03480854 0.037103396 0.02184171 -0.052031297
00000000: 35e7 9d3c b98e b83d f5c9 723c 672f cabb
00000010: 031c a6bb 4aa6 12bd 89b0 1cbc e5e7 27bc
00000020: c780 31bd 8a8a 93bc 4f00 293d 4cdb 263d
00000030: 17df a7bd 347e b23d 7675 96bd d014 b63d
00000040: 355b 963d fbe6 ca3c 2196 0abc cf6b 983c
00000050: 5ec5 ea3c 71a2 193d 6f46 adbc c49a 1d3d
00000060: 8ad9 853d 6475 0f3c e40a 6f3d 03af 823d
00000070: e3ab afbc aac4 de3d 6f77 053c 1059 69bd
00000080: c849 aabc 19cd 6abd 2974 ae3d 3046 9c3d
00000090: 698c 82bc cb9f 853d 16ae 9bbd 9a5d 413d
000000a0: 7655 003d 886e 8fbc 6dbe a23d 17a8 c73c
000000b0: a072 d23d d6b6 e73d 5782 83bd e7de f3bc
000000c0: 786e 523d 4701 fcb9 fb36 d73d aba5 b43b
000000d0: a341 92bb b17c 263d f835 9cbd 821b 283e
000000e0: 791d afbb c136 d33d 784c 283d b270 393d
000000f0: ec5d d63c 9af9 0e3d 5e28 4e3d c586 3ebd
00000100: 62da 333d b00c 6e3d db86 43bd e1d7 3d3c
00000110: 1aba b13b 5dc1 96bd 94e6 81bd 32e5 a1bd
00000120: ee68 c03d b8d7 2e3d 9517 7f3d e862 403d
00000130: 6045 d33c 87d3 063e 123d 4bbd 332c afbd
00000140: e4bd 2dbd 2321 82bd 7d4e 8c3d be18 babd
00000150: 5c7f 093e e946 f23c 7513 933d 81d5 de3b
00000160: 704b bebd 68db 433c 6ee8 acbd 7f02 e33d
00000170: 7ca0 543c 1b48 65bd b096 8f3d 0d26 913d
00000180: 6693 0ebd bbf9 173d 63ed b23c c51e 55bd
