agent2/ppo/critic/critic.pth (torch, 369615 bytes, 5 tensors)

critic.0.weight f4 [256, 100]
-0.4590897 -0.42263064 -0.05835603 -0.19569133 0.311626 -0.33791485 -0.2925296 0.35817957
-0.23993117 -0.16770855 -0.5130456 -0.22428645 0.12419458 0.335755 0.009893106 0.148757
0.018949583 -0.15752473 -0.17546424 0.017136995 -0.16137952 0.23556834 0.41889697 0.082090154
0.07996236 -0.36483836 0.71610487 0.24053289 0.06958672 0.3282093 -0.46887508 0.1556226
0.20417348 0.020765686 -0.17712016 0.28874445 -0.3144948 0.047876213 -0.14937377 -0.04179532
-0.19056906 0.20822904 -0.08682744 -0.16280065 0.40901187 0.07323413 -0.21306418 -0.25105447
-0.12752429 -0.2154861 -0.45000604 0.19850393 -0.04288124 0.21676645 0.32950228 -0.084167935
-0.30792618 0.26695454 -0.30954367 0.014011876 0.06860532 -0.055234157 0.031226367 0.32338473
-0.21348535 0.22241235 -0.16062918 -0.24501675 -0.33830234 -0.38217738 -0.018721541 -0.35544154
-0.31388405 -0.032402337 -0.054451264 0.05966687 0.23887514 -0.33784798 -0.29629043 0.02787012
-0.3950249 0.2333934 -0.18762195 -0.36121562 -0.18270262 -0.08343402 -0.050168812 0.2171701
-0.2895984 -0.10355469 -0.16133305 0.14273496 0.0054862057 0.19025968 0.031739876 0.13122845
-0.050021797 -0.06850508 -0.30962425 -0.21373335 0.03795272 -0.07425368 -0.35729626 0.14401719
0.36999017 -0.31214076 0.1450506 0.47077355 0.12810627 -0.15100233 -0.088321544 0.17855199
-0.040007602 0.049574878 0.15247837 -0.40340328 0.16241442 0.14272119 0.19097212 -0.17949781
0.2006352 -0.4628803 0.11954796 -0.48122862 -0.034765244 -0.20740631 -0.5456615 0.23940718
0.016382692 -0.6087334 -0.51109993 0.0554739 -0.26623252 -0.5730112 -0.35509062 -0.25709963
0.13828504 0.7590852 -0.23709533 0.20497248 -0.15228197 -0.029909335 -0.10874832 0.21087623
-0.374159 -0.55186725 -0.00025262387 0.09125599 0.27946857 -0.11430077 0.20471008 -0.13992262
-0.1902791 0.31060755 0.35164458 0.2926159 0.3537174 -0.21086416 0.3975022 -0.12644936
0.32310295 -0.07510517 -0.07320123 -0.12328928 0.6272954 -0.2940967 0.1972633 -0.23320042
0.25948694 -0.28770477 0.120362885 0.3745856 0.08428405 0.149438 -0.008732786 -0.050969437
0.48774508 0.22773227 -0.1623682 0.23553774 -0.080134906 0.07235043 0.23175631 -0.063358985
-0.31338397 0.15703197 -0.20546263 0.34426326 -0.24680212 -0.14002573 0.103330396 0.18201219
-0.22097878 0.022154866 0.40250352 0.03218966 -0.22804631 0.5114485 0.31628686 -0.007760517
0.2509008 0.14951268 -0.3641874 -0.09493792 0.2621266 0.027707774 -0.26382282 -0.11458448
0.1682401 0.28880474 -0.09497158 0.6466681 -0.014063897 -0.2030642 -0.24335366 -0.077933416
0.2272486 0.25060955 0.03704403 0.31841677 0.01491862 -0.061836615 -0.057540372 -0.37312943
-0.11415919 0.19383638 -0.22008173 -0.19271755 -0.16752435 0.11906422 0.055009793 -0.277311
0.023268072 -0.21074297 -0.22760928 0.17585099 0.04977259 0.1967587 0.01547484 -0.20438813
0.0070975083 0.06788492 -0.07561558 0.30664477 0.24707948 -0.4533298 0.12472788 0.4436082
-0.28510728 -0.116880156 -0.23512387 -0.23434764 -0.3293346 -0.025768917 -0.2540536 0.1277633
00000000: ce0d ebbe 0b63 d8be bc06 6fbd 4f63 48be
00000010: 718d 9f3e 2d03 adbe 71c6 95be 5063 b73e
00000020: 84b0 75be cabb 2bbe f556 03bf 59ab 65be
00000030: ba59 fe3d 14e8 ab3e b216 223c c153 183e
00000040: 283c 9b3c 2a4e 21be e6ac 33be e262 8c3c
00000050: ac40 25be d438 713e aa79 d63e e21e a83d
00000060: 4ec3 a33d 18cc babe a652 373f 414e 763e
00000070: 7b83 8e3d 0d0b a83e 6510 f0be 885b 1f3e
00000080: da12 513e cd1c aa3c fd5e 35be 50d6 933e
00000090: 7605 a1be d919 443d 70f5 18be 9231 2bbd
000000a0: 8924 43be fe39 553e 96d2 b1bd 37b5 26be
000000b0: 016a d13e c7fb 953d 7f2d 5abe 368a 80be
000000c0: ba95 02be 63a8 5cbe 3167 e6be 9d44 4b3e
000000d0: 3da4 2fbd 06f8 5d3e 86b4 a83e 3d60 acbd
000000e0: 80a8 9dbe 44ae 883e 827c 9ebe 1192 653c
000000f0: f280 8c3d 363d 62bd 70ce ff3c af92 a53e
00000100: e79b 5abe 10c0 633e fa7b 24be ace5 7abe
00000110: f735 adbe c1ac c3be eb5d 99bc 6ffc b5be
00000120: 69b5 a0be 50b8 04bd 4a08 5fbd 3f65 743d
00000130: af9b 743e 69fa acbe 61b3 97be e14f e43c
00000140: b440 cabe aefe 6e3e f81f 40be 41f1 b8be
00000150: 6516 3bbe 75df aabd d07d 4dbd d761 5e3e
00000160: 3e46 94be 7b14 d4bd 7e34 25be 1d29 123e
00000170: a1c5 b33b 6fd3 423e ac01 023d c060 063e
00000180: a8e3 4cbd 644c 8cbd 1287 9ebe eadc 5abe
00000190: 5074 1b3d 5012 98bd 89ef b6be 3e79 133e
000001a0: 5a6f bd3e ead0 9fbe 2588 143e 3b09 f13e
000001b0: 4a2e 033e 5ba0 1abe ede1 b4bd 55d6 363e
000001c0: 03df 23bd 070f 4b3d 4a23 1c3e e08a cebe
000001d0: f74f 263e 8125 123e 328e 433e 46ce 37be
000001e0: 5073 4d3e a6fe ecbe 90d5 f43d 9963 f6be
000001f0: 0066 0ebd 5262 54be 79b0 0bbf 2827 753e
00000200: ff34 863c f4d5 1bbf 72d7 02bf 9a38 633d
00000210: a14f 88be ddb0 12bf 70ce b5be 90a2 83be
00000220: 989a 0d3e 6853 423f 1ec9 72be 4ee4 513e
00000230: ceef 1bbe 6c04 f5bc 70b7 debd f0ef 573e
00000240: c591 bfbe 2c47 0dbf 9a72 84b9 6ce4 ba3d
00000250: 8116 8f3e 8616 eabd 859f 513e e047 0fbe
00000260: 86d8 42be f407 9f3e c20a b43e c0d1 953e
00000270: 721a b53e c6ec 57be 6985 cb3e f17b 01be
00000280: c06d a53e bdd0 99bd 87ea 95bd 177f fcbd
00000290: 6e96 203f d893 96be 64ff 493e 17cc 6ebe
000002a0: 79db 843e 0a4e 93be d180 f63d afc9 bf3e
000002b0: 1e9d ac3d 4606 193e f613 0fbc 54c5 50bd
000002c0: b9b9 f93e a632 693e d943 26be ce30 713e
000002d0: c51d a4bd 762c 943d 8751 6d3e 5bc2 81bd
000002e0: dd73 a0be fdcc 203e cc64 52be 4643 b03e
000002f0: b2b9 7cbe e862 0fbe e39e d33d 6761 3a3e
00000300: 4348 62be 1f7e b53c f114 ce3e 4ed9 033d
00000310: f984 69be 4aee 023f 5af0 a13e ef4b febb
00000320: 1276 803e da19 193e c576 babe d06e c2bd
00000330: 7535 863e 6afb e23c c913 87be 45ab eabd
00000340: 2247 2c3e 37de 933e 7680 c2bd 0a8c 253f
00000350: 426c 66bc 10f0 4fbe b431 79be 8e9b 9fbd
00000360: dbb3 683e e54f 803e 7bbb 173d 8607 a33e
00000370: 3a6d 743c 6448 7dbd 74af 6bbd d20a bfbe
00000380: 4bcc e9bd 0b7d 463e 1b5d 61be c057 45be
00000390: 818b 2bbe f1d7 f33d f351 613d b5fb 8dbe
000003a0: af9c be3c 01cd 57be 6812 69be 4812 343e
000003b0: 58de 4b3d 1d7b 493e 2f8a 7d3c 1f4b 51be
000003c0: 3792 e83b 4007 8b3d 57dc 9abd 8b00 9d3e
000003d0: 6702 7d3e d81a e8be 5571 ff3d 9d20 e33e
000003e0: 95f9 91be dd5e efbd 50c4 70be d4f8 6fbe
000003f0: 8b9e a8be 5619 d3bc 5013 82be 62d4 023e

critic.0.bias f4 [256]
1.3167664 0.23449565 0.8396591 1.1785622 0.49063435 0.9637734 0.8069729 1.2928525
0.79168355 0.05627069 -0.33051074 1.0414267 0.7483019 1.0160252 0.9375013 0.62390715
0.8937084 -0.42694476 0.4149797 0.71314615 0.75598145 0.8650352 0.992416 0.42503837
1.2210697 0.149359 -0.313608 0.95791125 0.7803864 0.6086463 1.3678687 -0.7172749
0.5295035 1.4771469 0.48832518 1.2203891 0.40980494 0.45621347 0.9364855 1.177583
-0.1282806 0.39280877 0.610434 1.1164849 1.1826679 0.09169897 0.3321941 1.0793386
0.77202654 0.89791155 0.6800636 0.36885592 -0.7130493 0.970323 0.7919015 0.29348332
0.5500889 1.0258379 0.9597109 1.0638173 1.2102536 1.2715282 -0.19282116 0.6389196
0.72711605 0.9969604 0.6804025 1.2832156 0.79959065 0.8002726 0.65802836 1.2562903
0.63393366 1.3948609 0.30522478 0.18060292 -0.27581465 0.8359025 0.8826132 1.084883
0.9552927 0.8418095 0.70292336 1.325727 1.2277042 0.19127578 0.6796936 0.500668
1.2253449 0.39187476 0.2680111 1.3926959 -0.024024155 0.94226855 0.50284886 0.8137967
0.689358 1.4200299 0.39513806 0.8143856 0.932378 0.73408705 1.4825017 0.51888394
0.49110222 0.13679105 1.0619851 0.41127855 0.5774092 0.81541216 -0.8095978 0.9051498
0.8444831 0.73497266 0.49456537 0.5512318 1.008397 0.9379962 0.7311582 0.96002895
1.1992629 1.3004495 1.2405432 0.87893003 0.73436344 0.36935374 -0.007709167 1.1400043
1.2413049 0.780267 1.1385456 0.36471546 0.7735929 1.2948948 1.1964818 0.5478261
1.1973186 0.99519205 1.1262237 0.51689744 0.13008602 1.025649 1.2845166 0.8809564
0.5956854 0.7147365 0.97359705 1.3040682 0.63258886 1.2446903 -0.10327843 1.2377521
0.08716175 1.104838 0.95765 0.9585756 -0.26194566 0.36529002 -0.5018501 0.38900062
1.0013856 -0.263451 0.30724812 1.0255898 0.855343 1.0945253 0.70312715 -0.55993825
0.7717926 0.89356446 0.6885497 0.5857549 0.9290317 0.9431906 0.67017764 0.85509837
0.09980123 1.0822028 1.0290208 0.6145874 0.6151787 0.86050063 1.2883722 0.85489404
0.97039825 0.7716095 0.8001824 1.354124 -0.56058425 0.6983775 0.69918257 1.2814893
0.96411717 -0.42156714 0.4744523 0.3317563 0.8368893 1.0198808 1.0877854 0.63514674
0.32121772 0.2964549 0.8272055 0.09179428 0.7749871 0.17497492 1.140576 0.7623149
1.1193318 1.0614386 0.7096079 1.278726 -0.35615715 0.84296453 0.7993786 0.67311996
0.7549217 0.14994337 1.1706499 1.3231536 0.3846143 0.8356608 1.2018436 0.7180869
0.9880554 0.59305155 1.1370183 0.35444203 1.2381611 0.9170382 0.52925724 1.3239778
0.89327747 0.99126905 0.66529673 0.942852 0.7270034 0.69521993 -0.45802906 1.2266932
0.7537994 0.5085798 1.1378207 0.43924767 0.7937034 -0.04636287 0.74599314 0.88335484
1.1776987 0.77403307 0.92988837 0.8117687 0.3194359 0.46458772 0.09232029 0.8359558
00000000: cd8b a83f a11f 703e e6f3 563f 20db 963f
00000010: 6d34 fb3e dbb9 763f c795 4e3f 317c a53f
00000020: c6ab 4a3f 187c 663d b438 a9be 784d 853f
00000030: b790 3f3f 1d0d 823f 1600 703f 61b8 1f3f
00000040: 13ca 643f 8198 dabe 3878 d43e bf90 363f
00000050: 0088 413f f272 5d3f fa0e 7e3f a19e d93e
00000060: 034c 9c3f 91f1 183e 3a91 a0be ac39 753f
00000070: 67c7 473f 3ed0 1b3f 5216 af3f 549f 37bf
00000080: 8b8d 073f 2613 bd3f c205 fa3e b635 9c3f
00000090: f4d1 d13e d094 e93e 84bd 6f3f 0abb 963f
000000a0: fd5b 03be 3b1e c93e 6745 1c3f fae8 8e3f
000000b0: a961 973f abcc bb3d 5815 aa3e c427 8a3f
000000c0: 88a3 453f 88dd 653f a618 2e3f afda bc3e
000000d0: 668a 36bf 1767 783f 0fba 4a3f 7243 963e
000000e0: a0d2 0c3f a84e 833f 9daf 753f 2a2b 883f
000000f0: 97e9 9a3f 70c1 a23f e972 45be 3c90 233f
00000100: 4724 3a3f cc38 7f3f dc2e 2e3f 6940 a43f
00000110: f9b1 4c3f aade 4c3f 8c74 283f 1fce a03f
00000120: 7a49 223f cd8a b23f 6c46 9c3e f9ef 383e
00000130: 9437 8dbe b5fd 553f f0f2 613f 72dd 8a3f
00000140: 108e 743f d480 573f c9f2 333f 6cb1 a93f
00000150: 6925 9d3f ccdd 433e 6600 2e3f c72b 003f
00000160: 1ad8 9c3f cfa3 c83e c038 893e dc43 b23f
00000170: 4ece c4bc 8338 713f b4ba 003f fb54 503f
00000180: c479 303f 8ac3 b53f 894f ca3e 937b 503f
00000190: 53b0 6e3f 21ed 3b3f 9ec2 bd3f 94d5 043f
000001a0: c071 fb3e f412 0c3e 21ef 873f 1a93 d23e
000001b0: 17d1 133f dabe 503f cd41 4fbf e6b7 673f
000001c0: 0b30 583f 2b27 3c3f ac37 fd3e 871d 0d3f
000001d0: 2713 813f 8520 703f 2f2d 3b3f 75c4 753f
000001e0: 7281 993f 2175 a63f 1fca 9e3f 8f01 613f
000001f0: 3eff 3b3f ef1b bd3e 2e9d fcbb a9eb 913f
00000200: 14e3 9e3f 94bf 473f ddbb 913f fcbb ba3e
00000210: 2f0a 463f 1dbf a53f 5126 993f 553e 0c3f
00000220: bc41 993f e8c4 7e3f 1928 903f 6453 043f
00000230: 4535 053e 7748 833f 0a6b a43f 5c86 613f
00000240: d77e 183f f9f8 363f a83d 793f b5eb a63f
00000250: 58f1 213f 0352 9f3f a483 d3bd a96e 9e3f
00000260: dc81 b23d 556b 8d3f 8d28 753f 3665 753f
00000270: be1d 86be 4b07 bb3e 4079 00bf 172b c73e
00000280: 672d 803f 0de3 86be a04f 9d3e 8746 833f
00000290: c2f7 5a3f 6819 8c3f 2400 343f 1d58 0fbf
000002a0: 3394 453f a4c0 643f cb44 303f 08f4 153f
000002b0: 06d5 6d3f f074 713f c390 2b3f bae7 5a3f
000002c0: 9664 cc3d 9f85 8a3f f4b6 833f 9a55 1d3f
000002d0: 5a7c 1d3f c549 5c3f 61e9 a43f 56da 5a3f
000002e0: 056c 783f 3388 453f c1d8 4c3f ef53 ad3f
000002f0: 7382 0fbf dec8 323f a1fd 323f d707 a43f
00000300: 62d0 763f a6d7 d7be 69eb f23e f6db a93e
00000310: 613e 563f 748b 823f 8d3c 8b3f fa98 223f
00000320: a676 a43e f0c8 973e bdc3 533f a4fe bb3d
00000330: 8e65 463f a02c 333e 65fe 913f 1227 433f
00000340: 4446 8f3f 38dd 873f dda8 353f 4bad a33f
00000350: 3b5a b6be 86cc 573f 13a4 4c3f 9751 2c3f
00000360: 8c42 413f c18a 193e dbd7 953f 195d a93f
00000370: 2aec c43e deed 553f 03d6 993f 8bd4 373f
00000380: 33f1 7c3f 3ad2 173f d189 913f 6d79 b53e
00000390: 107c 9e3f 04c3 6a3f 677d 073f 1b78 a93f
000003a0: d5ad 643f cfc3 7d3f e350 2a3f c05e 713f
000003b0: e51c 3a3f eff9 313f c982 eabe 4804 9d3f
000003c0: fff8 403f 4932 023f 1ca4 913f 12e5 e03e
000003d0: 2530 4b3f fee6 3dbd 68f9 3e3f 8b23 623f
000003e0: d5be 963f 0827 463f 2a0d 6e3f 13d0 4f3f
000003f0: 1a8d a33e 71de ed3e 6c12 bd3d 3301 563f

critic.2.weight f4 [256, 256]
-0.105889395 -0.09832537 -0.16640347 0.32822955 -0.48905572 0.11180016 -0.3737493 0.16842927
0.21357849 -0.14729315 0.10932846 0.012548386 -0.43649542 0.08262634 -0.41239008 -0.032729942
-0.40485498 -0.14434595 -0.38621593 -0.06862229 0.16267912 -0.16895808 -0.01247986 -0.2832615
-0.0007882835 -0.20523196 -0.03719167 -0.021845195 -0.5194515 -0.046193343 -0.038995884 0.15681803
-0.22484443 0.092119396 -0.53176326 -0.10517874 -0.35360032 -0.5344143 -0.47595364 -0.03882488
-0.072950356 -0.3154532 0.062393744 0.051621724 0.101574786 -0.41830736 0.0010700112 0.24148503
-0.34123284 -0.03807592 -0.6304589 -0.27215102 0.20251828 -0.21000154 0.16317277 -0.28708866
-0.4963969 -0.10715234 0.1687803 0.017675616 -0.01765023 0.017464565 0.18198091 -0.1702225
-0.037516378 -0.18260321 -0.17934823 0.13790974 -0.6674356 -0.29127204 -0.20755918 0.046277083
-0.18085697 0.027740464 -0.6071325 -0.40534744 -0.12830275 -0.26060483 -0.40474573 -0.021454167
-0.20041247 -0.06366962 0.15763028 -0.19397672 -0.27584693 0.31501746 -0.07299647 -0.43298885
-0.25420132 -0.49751797 -0.614406 -0.04341684 -0.33213037 0.090778925 -0.15088652 0.09473892
0.11289592 0.08417558 0.044103604 -0.30950147 -0.37473527 -0.090274386 -0.08908954 0.13479793
-0.3238817 0.15044582 -0.11767483 -0.23346154 0.006678679 0.5844341 -0.25499406 0.31217864
-0.25256824 -0.12571825 -0.5403847 -0.29897612 0.09211287 -0.05745256 -0.49338767 0.11507173
0.014609658 -0.0840721 -0.049378365 -0.0546706 -0.31891328 -0.30569258 -0.35420063 -0.23080154
-0.11480677 -0.07045305 -0.3360231 -0.5111141 -0.32838735 -0.2399934 -0.4124344 -0.27632686
0.25471368 -0.13105498 0.4166778 -0.5551691 -0.08432751 -0.15231617 -0.05185378 -0.23798175
-0.24288966 -0.4448798 0.054079693 -0.10450106 -0.43108302 -0.28856605 -0.11372616 0.2526942
-0.27297953 0.12104179 -0.02612024 -0.0917967 -0.025164148 -0.2829092 -0.16326758 -0.23052396
-0.06196632 -0.04909775 -0.2445793 0.06907188 -0.1492979 -0.11818793 -0.32091343 -0.56020284
-0.11270713 -0.40978727 0.19392054 0.016348466 -0.004281383 -0.17615037 -0.5234266 -0.059823614
-0.13494788 -0.39491925 -0.20393954 -0.16329567 -0.36499277 0.18431291 0.29384443 0.011668981
0.15995811 0.11478689 -0.29482496 -0.11866471 -0.23532066 -0.38315776 -0.26111478 -0.28817135
-0.49101987 -0.12832323 -0.38969138 -0.5132202 -0.2392674 0.22080787 -0.041379455 -0.23293631
-0.3144867 -0.049733344 -0.19220045 0.020119503 -0.14285684 -0.20320632 0.30404446 -0.610746
-0.36843887 0.085755065 0.22149663 -0.5450529 0.07871433 -0.30687013 -0.41723672 0.0076696347
-0.049011175 -0.40517503 0.050155193 0.10557405 -0.047546417 0.09573114 0.009027561 -0.24837205
-0.22236939 -0.33552235 0.05742141 -0.32260033 -0.121853046 -0.20482112 -0.15325212 0.09098266
-0.13390106 -0.10304483 -0.3933348 -0.20319776 -0.19276464 -0.16035254 -0.01603764 -0.18490925
-0.08376221 -0.0284083 0.057785943 -0.30929452 -0.010570339 0.037360676 -0.1490052 0.2309022
-0.22284204 -0.38234997 0.06167598 -0.1325241 -0.03170081 -0.78266 -0.36639637 0.02542874
00000000: 8adc d8bd d05e c9bd ac65 2abe b40d a83e
00000010: 8365 fabe 7bf7 e43d 115c bfbe b978 2c3e
00000020: 52b4 5a3e 04d4 16be 9ae7 df3d bf97 4d3c
00000030: 547c dfbe 0038 a93d cb24 d3be d50f 06bd
00000040: 2749 cfbe 6dcf 13be 18be c5be d889 8cbd
00000050: 5b95 263e 5903 2dbe 5478 4cbc a707 91be
00000060: cfa4 4eba 5428 52be 4b56 18bd b2f4 b2bc
00000070: c6fa 04bf 3b35 3dbd 26ba 1fbd e894 203e
00000080: 9e3d 66be 18a9 bc3d a321 08bf f467 d7bd
00000090: 1a0b b5be 60cf 08bf 32b0 f3be d606 1fbd
000000a0: ff66 95bd 1583 a1be 9590 7f3d 4d71 533d
000000b0: 7106 d03d 622c d6be 9e3f 8c3a da47 773e
000000c0: 12b6 aebe 7ff5 1bbd c165 21bf 6157 8bbe
000000d0: f460 4f3e a50a 57be c316 273e 49fd 92be
000000e0: bc27 febe b072 dbbd bed4 2c3e 74cc 903c
000000f0: 3797 90bc d911 8f3c 3459 3a3e cf4e 2ebe
00000100: c6aa 19bd 56fc 3abe 10a7 37be 3638 0d3e
00000110: 0fdd 2abf 9c21 95be 658a 54be 0a8d 3d3d
00000120: 9232 39be f83f e33c 096d 1bbf b389 cfbe
00000130: cc61 03be ff6d 85be d53a cfbe a6c0 afbc
00000140: ed38 4dbe 3865 82bd d569 213e d5a1 46be
00000150: cf3b 8dbe f849 a13e 2c7f 95bd b7b0 ddbe
00000160: ad26 82be adba febe b649 1dbf dbd5 31bd
00000170: fe0c aabe 4dea b93d ff81 1abe 7b06 c23d
00000180: fa35 e73d 3f64 ac3d fba5 343d fa76 9ebe
00000190: 4ddd bfbe c7e1 b8bd 9474 b6bd 7808 0a3e
000001a0: d2d3 a5be 780e 1a3e 80ff f0bd 8b10 6fbe
000001b0: d2d8 da3b 799d 153f 958e 82be e1d5 9f3e
000001c0: a050 81be 49bc 00be a756 0abf 6613 99be
000001d0: aca5 bc3d 6053 6bbd 4f9d fcbe baaa eb3d
000001e0: 595d 6f3c fe2d acbd f840 4abd 47ee 5fbd
000001f0: 9a48 a3be bd83 9cbe c959 b5be 3d57 6cbe
00000200: d01f ebbd b049 90bd 380b acbe 60d8 02bf
00000210: 6322 a8be d4c0 75be 9a2a d3be b77a 8dbe
00000220: d569 823e 4733 06be cb56 d53e 901f 0ebf
00000230: e7b3 acbd c5f8 1bbe a164 54bd 7db1 73be
00000240: 11b8 78be 49c7 e3be ab82 5d3d a704 d6bd
00000250: eab6 dcbe eebe 93be 43e9 e8bd 2261 813e
00000260: f9c3 8bbe c2e4 f73d 1dfa d5bc e9ff bbbd
00000270: 0b25 cebc 7ad9 90be 9e2f 27be 790e 6cbe
00000280: 65d0 7dbd b91a 49bd ff72 7abe 8f75 8d3d
00000290: 8ce1 18be 830c f2bd c44e a4be 7469 0fbf
000002a0: ffd2 e6bd a3cf d1be 1b93 463e 38ed 853c
000002b0: d84a 8cbb c360 34be 49ff 05bf 9b09 75bd
000002c0: c72f 0abe db32 cabe 87d5 50be fb36 27be
000002d0: 55e0 babe 86bc 3c3e c772 963e 412f 3f3c
000002e0: 0fcc 233e 6415 eb3d 4cf3 96be 7c06 f3bd
000002f0: e6f7 70be 412d c4be d6b0 85be 328b 93be
00000300: f566 fbbe 2a67 03be a185 c7be 6662 03bf
00000310: 8302 75be 751b 623e 817d 29bd db86 6ebe
00000320: 6704 a1be 31b5 4bbd 32d0 44be a8d1 a43c
00000330: 1049 12be 5115 50be b7ab 9b3e da59 1cbf
00000340: 05a4 bcbe 5aa0 af3d 03d0 623e 9688 0bbf
00000350: fb34 a13d 151e 9dbe 0da0 d5be 8f51 fb3b
00000360: f1bf 48bd 1a73 cfbe 886f 4d3d 3537 d83d
00000370: 08c0 42bd b00e c43d 56e8 133c 3e55 7ebe
00000380: cdb4 63be 96c9 abbe b632 6b3d df2b a5be
00000390: 178e f9bd a1bc 51be 20ee 1cbe 1e55 ba3d
000003a0: 5c1d 09be 2b09 d3bd 2e63 c9be 1313 50be
000003b0: 1864 45be 7533 24be 5e61 83bc da58 3dbe
000003c0: 868b abbd 86b8 e8bc f4b0 6c3d da5b 9ebe
000003d0: 372f 2dbc 8207 193d d294 18be a071 6c3e
000003e0: b430 64be 60c3 c3be f49f 7c3d 66b4 07be
000003f0: b5d8 01bd 685c 48bf 4e98 bbbe ef4f d03c

critic.2.bias f4 [256]
0.0641443 1.2011076 0.14828259 -0.11003406 0.6561194 0.63324434 0.04789729 0.20673335
-0.0009851941 0.26090583 -0.02772572 1.1875141 0.12673728 1.2090675 0.3275568 1.1991376
-0.038749386 0.075069755 -0.03307857 0.7011039 0.3154494 0.17780417 -0.06421266 0.39178464
1.1524764 0.7204662 0.12964424 0.24948655 1.2425615 0.53007746 -0.021362927 0.15980296
0.7000164 1.000451 0.18775325 0.012434819 0.032642987 1.191244 0.15403269 0.16830136
0.11030692 0.51839477 1.256233 -0.09150068 0.022120724 1.1926445 0.24085249 1.2732866
-0.02868219 0.063853174 0.24524893 -0.0007146941 1.2595773 1.19426 0.1463535 0.6705856
0.2591437 0.03297126 1.2704633 0.19257654 -0.027401386 0.90512204 1.2770311 0.09646881
1.0573939 0.9160211 0.089324564 0.60962564 1.2032292 0.5818731 0.018810589 1.2716134
0.23516484 0.7481299 0.37812275 0.032798562 0.9601176 0.5778731 1.1934829 1.1192396
1.2531512 -0.19321981 0.8895727 0.70218706 1.2570238 -0.21006437 0.13934158 1.2437531
1.1362699 1.1842821 0.44029292 1.1893481 -0.040596556 -0.003158444 0.9173172 0.031157373
0.40121275 1.1809124 1.2701266 -0.018095119 0.39827314 0.8610289 0.23301487 1.2320961
1.1826497 0.161473 -0.013373357 0.9654671 1.2568593 0.41950902 -0.0003229712 0.0955726
-0.016531402 1.2393458 0.013879792 -0.09256004 0.2994165 -0.051747575 1.1915524 0.03871286
-0.047511887 0.76202923 0.63232464 -0.01349327 0.038890388 0.19635004 0.6028989 1.1866549
-0.06918065 1.2725013 1.0621524 0.061535656 0.61857224 -0.09385011 1.2482548 0.2916133
0.27231696 -0.12235034 0.15130512 -0.099803805 1.2239878 0.9760789 0.1778434 1.1020194
0.4532732 1.2471726 0.54439676 0.3618111 -0.01410728 0.14048584 1.2194088 1.2071873
0.4448587 0.5430075 0.26055056 1.1131425 0.0721542 -0.031865623 0.49297497 0.2658774
1.1688105 -0.056413986 1.2196723 1.0689359 1.2152414 0.016311908 0.35362563 0.07092415
0.32213035 1.2242479 0.123233005 -0.04495608 0.19963868 0.077990994 0.75329036 1.0814328
0.0365852 -0.009844431 1.1770585 1.2350554 1.2756807 0.021971034 0.5817313 -0.073240474
0.54453593 0.23804058 0.20882922 0.14837681 0.3950814 1.2288673 1.0791466 -0.0013127896
0.16479513 0.8960191 -0.03345207 0.6402509 0.007839427 0.35072854 -0.1832111 -0.054680612
0.006007914 0.56886995 1.1771302 -0.10350482 0.6708014 0.24680193 0.27210373 0.96321994
1.263051 0.8775831 -0.035369996 1.1854677 0.5179241 -0.019264463 1.2215165 1.1098698
0.49360457 -0.03986193 0.0142462 0.013060866 1.2306675 1.1941698 1.256621 0.3274514
-0.00035019798 1.2593791 0.08355019 0.93582577 0.94393337 1.1493247 1.043216 1.2432464
1.1040266 1.2182351 -0.056617618 0.045642413 1.2436414 0.37164506 1.2096618 0.117819324
0.39939332 0.13604167 1.2035565 0.25504425 0.17173731 1.2032528 1.0730215 0.011332936
0.025306065 -0.027659189 1.2810564 -0.05093287 1.1606239 0.62132066 1.1799225 0.0110900765
00000000: 165e 833d e5bd 993f 64d7 173e 8a59 e1bd
00000010: 71f7 273f 4d1c 223f f32f 443d e8b1 533e
00000020: a121 81ba 7395 853e 0d21 e3bc 7600 983f
00000030: 6bc7 013e b9c2 9a3f 86b5 a73e 577d 993f
00000040: adb7 1ebd 2cbe 993d 657d 07bd 8c7b 333f
00000050: 9582 a13e 4c12 363e ed81 83bd ff97 c83e
00000060: 5984 933f 7970 383f 76c1 043e 6779 7f3e
00000070: 410c 9f3f 28b3 073f 4e01 afbc 63a3 233e
00000080: 4634 333f c70e 803f 6342 403e 69bb 4b3c
00000090: a7b4 053d af7a 983f bfba 1d3e 3157 2c3e
000000a0: 98e8 e13d 85b5 043f 3ecc a03f b564 bbbd
000000b0: 8536 b53c 93a8 983f 09a2 763e 0efb a23f
000000c0: eaf6 eabc 74c5 823d 8922 7b3e 4f5a 3bba
000000d0: d439 a13f 83dd 983f b1dd 153e 7fab 2b3f
000000e0: 7cae 843e df0c 073d 8b9e a23f c932 453e
000000f0: df78 e0bc 14b6 673f c175 a33f 7191 c53d
00000100: af58 873f 5c80 6a3f ccef b63d 6d10 1c3f
00000110: 6a03 9a3f a3f5 143f aa18 9a3c 3ac4 a23f
00000120: 0dcf 703e 7185 3f3f 4e99 c13e c957 063d
00000130: 44ca 753f 7eef 133f 0cc4 983f 3e43 8f3f
00000140: 4267 a03f 6adb 45be 09bb 633f 88c2 333f
00000150: 28e6 a03f 1d1b 57be 8faf 0e3e 4d33 9f3f
00000160: 4b71 913f 8e96 973f 136e e13e 8f3c 983f
00000170: 9348 26bd e6fd 4ebb 4dd5 6a3f bf3d ff3c
00000180: c26b cd3e 2328 973f 8293 a23f 373c 94bc
00000190: 75ea cb3e 646c 5c3f 739b 6e3e 53b5 9d3f
000001a0: 1161 973f 2e59 253e ed1b 5bbc da28 773f
000001b0: c4e0 a03f e3c9 d63e 7654 a9b9 91bb c33d
000001c0: dd6c 87bc e2a2 9e3f 1168 633c 1e90 bdbd
000001d0: 1f4d 993e 44f5 53bd ca84 983f 6091 1e3d
000001e0: d39b 42bd 5914 433f 07e0 213f e012 5dbc
000001f0: 874b 1f3d fc0f 493e 9557 1a3f 4fe4 973f
00000200: 96ae 8dbd 53e1 a23f 9cf4 873f d00c 7c3d
00000210: c05a 1e3f 7d34 c0bd d0c6 9f3f 574e 953e
00000220: 216d 8b3e d192 fabd bbef 1a3e f065 ccbd
00000230: a2ab 9c3f 4fe0 793f 951c 363e f90e 8d3f
00000240: 6d13 e83e 5aa3 9f3f 965d 0b3f 4e3f b93e
00000250: 3922 67bc 85db 0f3e 9615 9c3f 1d85 9a3f
00000260: 85c4 e33e 8a02 0b3f e266 853e 747b 8e3f
00000270: 95c5 933d 8785 02bd 3767 fc3e 1521 883e
00000280: 959b 953f 5a12 67bd 391e 9c3f e4d2 883f
00000290: 088d 9b3f 8da0 853c 6b0e b53e ae40 913d
000002a0: 45ee a43e 28b4 9c3f 9661 fc3d de23 38bd
000002b0: 156e 4c3e beb9 9f3d a3d7 403f 646c 8a3f
000002c0: 5dda 153d 894a 21bc daa9 963f 4c16 9e3f
000002d0: 8149 a33f 99fc b33c 58ec 143f 1aff 95bd
000002e0: b566 0b3f e9c0 733e 54d7 553e 17f0 173e
000002f0: 1c48 ca3e 864b 9d3f 7a21 8a3f e911 acba
00000300: 0ec0 283e 8261 653f 0a05 09bd 7ce7 233f
00000310: f170 003c b192 b33e b19b 3bbe c7f8 5fbd
00000320: 09de c43b 76a1 113f 34ac 963f 56fa d3bd
00000330: a4b9 2b3f a5b9 7c3e 2e51 8b3e 9595 763f
00000340: a8ab a13f 49a9 603f 21e0 10bd 68bd 973f
00000350: ac96 043f 82d0 9dbc a75a 9c3f 3710 8e3f
00000360: bdb9 fc3e 4346 23bd e568 693c 3efd 553c
00000370: 8386 9d3f 8eda 983f f5d8 a03f b6a7 a73e
00000380: c79a b7b9 5633 a13f 5d1c ab3d 4792 6f3f
00000390: 9ea5 713f 121d 933f 1a88 853f b322 9f3f
000003a0: be50 8d3f 21ef 9b3f e0e7 67bd 8af3 3a3d
000003b0: a42f 9f3f 4348 be3e 33d6 9a3f 424b f13d
000003c0: 487d cc3e 824e 0b3e 240e 9a3f 2995 823e
000003d0: e8db 2f3e 3004 9a3f c558 893f c7ad 393c
000003e0: aa4e cf3c 8695 e2bc a8f9 a33f fc9e 50bd
000003f0: 538f 943f df0e 1f3f b307 973f 27b3 353c

critic.4.weight f4 [1, 256]
0.07759007 0.04510311 0.34341675 -0.005156532 0.15922996 0.19899683 0.16795796 0.22942297
0.029103806 0.63013583 0.15766415 0.027087163 0.081498 -0.020865638 0.40580857 0.0026863478
0.008149547 0.10566187 0.12318732 0.2253631 0.48698974 0.20283678 0.019974032 0.5259787
0.013759538 0.12108305 0.26961687 0.4508286 0.029029427 0.250945 0.10445121 0.19204283
-0.012420445 0.06364764 0.33679676 0.07860149 0.14009625 0.015233663 0.18389973 0.30657238
0.31468493 0.28922677 0.027856931 0.0064517166 0.063292824 0.044933524 0.9443616 0.029541412
0.04885676 0.07555862 0.98757553 0.069289975 0.026968973 0.029021032 0.20933098 0.3422772
0.3297502 0.05673781 -0.04568167 0.19453502 0.018742701 0.06458572 0.014863892 0.21797761
0.057261553 0.06490726 0.3450598 0.17840795 0.011188635 0.25412148 0.025689958 -0.06085267
0.48928803 0.10645966 0.2844041 0.37442794 0.054044012 0.23085546 0.05002972 0.054818783
0.018392606 0.2538588 0.06609784 1.2294127 0.028040128 0.29811388 0.32932994 0.024850765
0.057369027 0.016507363 -0.2204336 0.0188804 0.045620833 0.055798408 0.06460068 0.2719143
0.8527992 0.018936798 0.021809412 0.025625827 0.80716455 0.0658551 0.62358457 0.025168454
0.019642815 0.22296773 0.004735303 0.06558185 0.0013596991 0.26256105 0.5818492 0.17380354
-0.0071685202 0.040689953 0.6283415 -0.06725068 0.33821353 -0.00040088122 0.009464842 0.21293351
0.034355406 -0.060625486 -0.0007520896 0.13464478 0.17284402 0.4217053 -0.07408824 0.016519994
0.017821407 0.008721676 0.05746195 0.63089675 0.22843674 0.0637306 -0.006923116 0.1974515
0.39008904 0.22849822 0.096533224 0.036036827 0.039490957 0.06543861 0.18961182 0.05475759
0.302981 0.0010246881 0.23995878 0.38161793 -0.012022076 0.39092356 0.030528247 -0.00041680667
0.2748105 0.2745107 0.33682427 0.053962532 0.23039342 0.13530053 0.28271058 0.32875705
0.0235885 0.13307898 -0.02816993 0.054856367 0.045994565 0.019006182 0.59790033 0.12049999
0.3852589 0.028777082 0.4255898 0.007676746 0.5949754 0.23890822 0.008143038 0.05243196
0.24455443 0.006025561 0.03013849 0.03256709 0.03056253 0.0031431594 0.27300555 -0.008544823
0.23979925 0.3394393 0.31058717 0.3138285 0.6527579 0.0029616451 0.05715445 0.35867324
0.40969318 0.06262641 0.048903015 -0.05617314 0.0886184 0.33874583 0.006518054 0.07481792
0.021311797 -0.13037285 0.025994038 -0.0010203744 0.12931636 0.30205446 0.42871633 0.063160636
0.0104592135 0.071916625 0.018838845 0.022910802 0.19877954 0.024747876 -0.0048445486 0.051174246
0.5504604 0.027137036 0.14321409 0.09597049 -0.00160028 0.028451687 -0.0037797429 0.5575464
0.08863783 0.009658284 0.41424733 0.06581055 0.06211393 0.048047833 0.06223077 0.016897073
0.05347162 0.0073358123 0.10968227 0.1665938 -0.050229963 0.4904963 -0.008851092 0.60674256
0.34352046 0.22148901 0.02987619 0.5406717 0.27826414 0.019556455 -0.29598635 0.009141421
0.19154775 0.030175393 0.006855287 -0.00048477482 0.01621163 0.30426025 0.026888803 0.046546057
00000000: 8be7 9e3d 0abe 383d 52d4 af3e 20f8 a8bb
00000010: 2e0d 233e d3c5 4b3e 2cfd 2b3e dbed 6a3e
00000020: 1b6b ee3c 9550 213f b672 213e e6e5 dd3c
00000030: 6ce8 a63d 6aee aabc 24c6 cf3e 700d 303b
00000040: ad85 053c 4065 d83d a249 fc3d 96c5 663e
00000050: b856 f93e 72b4 4f3e 95a0 a33c 8aa6 063f
00000060: af6f 613c 64fa f73d 390b 8a3e 02d3 e63e
00000070: 1fcf ed3c dd7b 803e 84ea d53d e0a6 443e
00000080: 1f7f 4bbc b259 823d a070 ac3e d1f9 a03d
00000090: 6475 0f3e 9d96 793c 3650 3c3e 0ef7 9c3e
000000a0: 621e a13e 8815 943e 3834 e43c ec68 d33b
000000b0: ab9f 813d 370c 383d afc1 713f d500 f23c
000000c0: 071e 483d 7abe 9a3d c0d1 7c3f e7e7 8d3d
000000d0: 09ee dc3c 84bd ed3c dc5a 563e f53e af3e
000000e0: 05d5 a83e e865 683d b41c 3bbd 3034 473e
000000f0: 4b8a 993c 8545 843d af87 733c 8635 5f3e
00000100: 178b 6a3d 19ee 843d aeab b03e 93b0 363e
00000110: 8950 373c 361c 823e bf73 d23c a640 79bd
00000120: f683 fa3e 8607 da3d 6a9d 913e 05b5 bf3e
00000130: 415d 5d3d 6065 6c3e f7eb 4c3d a989 603d
00000140: 17ac 963c c8f9 813e 4e5e 873d 655d 9d3f
00000150: 69b4 e53c 62a2 983e ef9d a83e d593 cb3c
00000160: c9fb 6a3d 733a 873c 58b9 61be 12ab 9a3c
00000170: e9dc 3a3d df8c 643d 5c4d 843d 5a38 8b3e
00000180: 0c51 5a3f 5821 9b3c a7a9 b23c 41ed d13c
00000190: 56a2 4e3f 0adf 863d 3da3 1f3f 132e ce3c
000001a0: f8e9 a03c a751 643e 9a2a 9b3b c74f 863d
000001b0: ee37 b23a 676e 863e 12f4 143f 8ef9 313e
000001c0: e8e5 eabb 82aa 263d fdda 203f b9ba 89bd
000001d0: 532a ad3e 5e2d d2b9 6d12 1b3c 3e0b 5a3e
000001e0: 41b8 0c3d 6e52 78bd e127 45ba 52e0 093e
000001f0: 06fe 303e c2e9 d73e 93bb 97bd f054 873c
00000200: 33fe 913c 5ce5 0e3c 395d 6b3d 7382 213f
00000210: 52eb 693e 3085 823d 4edb e2bb ba30 4a3e
00000220: c0b9 c73e 70fb 693e 36b3 c53d 5a9b 133d
00000230: 45c1 213d ae04 863d 9a29 423e 7f49 603d
00000240: 5320 9b3e d44e 863a c1b7 753e 6d63 c33e
00000250: 3ef8 44bc 2227 c83e 6016 fa3c d886 dab9
00000260: f6b3 8c3e ab8c 8c3e 3b74 ac3e d107 5d3d
00000270: 41ec 6b3e 398c 0a3e 71bf 903e d852 a83e
00000280: ac3c c13c db45 083e a0c4 e6bc 12b1 603d
00000290: cc64 3c3d dab2 9b3c ff0f 193f b3c8 f63d
000002a0: a840 c53e eabd eb3c e8e6 d93e 378d fb3b
000002b0: 4f50 183f 5ba4 743e 606a 053c e5c2 563d
000002c0: 7a6c 7a3e 1272 c53b ffe4 f63c 1265 053d
000002d0: 455e fa3c 77fd 4d3b 62c7 8b3e 96ff 0bbc
000002e0: ef8d 753e fdca ad3e 4805 9f3e 21ae a03e
000002f0: 241b 273f 2918 423b c91a 6a3d 05a4 b73e
00000300: 4ec3 d13e 4642 803d 874e 483d ce15 66bd
00000310: 907d b53d 1870 ad3e 6695 d53b 233a 993d
00000320: 1496 ae3c 7680 05be 73f1 d43c 15be 85ba
00000330: 826b 043e e2a6 9a3e b580 db3e 5d5a 813d
00000340: 1f5d 2b3c 0649 933d ec53 9a3c 6faf bb3c
00000350: dd8c 4b3e 0fbc ca3c 05bf 9ebb 169c 513d
00000360: f9ea 0c3f 7d4e de3c b7a6 123e 2d8c c43d
00000370: 7dc0 d1ba 8313 e93c 90b5 77bb 5cbb 0e3f
00000380: c087 b53d c73d 1e3c 3a18 d43e aec7 863d
00000390: 2d6b 7e3d cecd 443d b1e5 7e3d bb6b 8a3c
000003a0: 0f05 5b3d 4161 f03b 19a1 e03d 9197 2a3e
000003b0: efbd 4dbd 5522 fb3e 2c04 11bc 7b53 1b3f
000003c0: eae1 af3e 04ce 623e e9be f43c 7669 0a3f
000003d0: a378 8e3e dc34 a03c 868b 97be e6c5 153c
000003e0: 1825 443e 6332 f73c 51a2 e03b 6029 feb9
000003f0: 41ce 843c 00c8 9b3e e845 dc3c 14a7 3e3d
