Tu/agent2/ppo/critic/critic.pth (torch, 369615 bytes, 5 tensors)

critic.0.weight f4 [256, 100]
00000000: 2488 01bf 2b02 c9be d30b 4dbd efdd 70be
00000010: 6b6e ac3e 2d03 adbe 71c6 95be 5063 b73e
00000020: 4045 75be cabb 2bbe f556 03bf 24fa 5abe
00000030: 9928 cc3d 8ec5 b43e 2f37 183d fa22 353e
00000040: bb44 a63c 3423 36be 8485 32be a119 cfbb
00000050: 6fd5 06be 2501 3f3e 4e5c c23e b5da b13d
00000060: 402e 713d d353 c2be 0c49 313f 31c0 593e
00000070: 1f79 903d e505 9e3e 2920 e9be d31f 033e
00000080: 73ba 703e c918 e7ba 44a7 57be 6b27 873e
00000090: 9a3c acbe d71e f43c 1e55 2dbe c710 04bd
000000a0: f755 31be 17f0 4b3e 1077 c3bd 9cda 33be
000000b0: faa4 ca3e d016 4c3d b732 64be 8a87 80be
000000c0: f237 f9bd c340 7ebe 3167 e6be 99b7 533e
000000d0: c1f6 a9bc bdcc 793e 5840 ac3e 5df9 2ebd
000000e0: bab6 9fbe 0063 773e d0b1 a7be 8197 2f3d
000000f0: f904 a93d 96a3 04bd ef35 463d 75e9 a93e
00000100: f795 6dbe 65a1 733e 5f32 25be 7b43 83be
00000110: 1879 a3be 2ad0 bfbe 2711 53bc ad69 a7be
00000120: 69b5 a0be 915a 64bd 4a08 5fbd 4832 043d
00000130: 5b7f 743e ad35 b1be 7d10 82be e14f e43c
00000140: 35a5 c0be 2105 683e fa73 34be 3700 aebe
00000150: 036e 1fbe efbc 95bd 2dae 3dbd 8117 463e
00000160: f24d 7abe 2886 14be 407b 1ebe 3646 343e
00000170: 2a11 783c eeef d53d ac01 023d 4b4d 013e
00000180: 587f 90bc 644c 8cbd 2b9f 9cbe a051 38be
00000190: e0d9 b73d 22d1 18bd 6b03 b9be 533d ee3d
000001a0: 18f9 d83e ead0 9fbe 2588 143e 3b09 f13e
000001b0: 7e5e 0e3e 5ba0 1abe ede1 b4bd 70a2 413e
000001c0: 4457 f0bc d23a 333d 9a0c 293e f739 d1be
000001d0: 4cd0 203e 5955 203e 6b6c 653e 5d99 20be
000001e0: 4bce 423e 983c dcbe 5a3e a33d f125 02bf
000001f0: 2673 b03b 1090 4ebe 094e 09bf c53d 803e
00000200: 6b25 8a3a f083 15bf 61cf 05bf fd11 953d
00000210: 4b54 97be 8ec6 12bf 98e6 a6be 196d 78be
00000220: 9fa4 2d3e d3ac 433f 3800 55be 32a4 523e
00000230: beac 0bbe adbf b6bb 31aa d9bd 23b1 803e
00000240: f0e9 c7be 5d22 06bf be2e 013d 1732 9c3d
00000250: c157 8c3e 41af 99bd 29ad 4c3e 6d20 12be
00000260: 32b1 63be fd25 8a3e cdba 9c3e 5777 843e
00000270: 186b b33e 5634 3abe 58e9 bf3e 241e 18be
00000280: 630c 9f3e f7a8 c3bd 2a92 2ebd c6cf f5bd
00000290: 4c42 243f 3b9a a9be d310 2f3e a09b 4cbe
000002a0: c87f 5c3e f0fe a5be c4b5 c43d 4ad4 bb3e
000002b0: 1e9d ac3d 9ea5 313e f613 0fbc 3281 b1bc
000002c0: e487 e43e ea45 403e 9e81 13be ce30 713e
000002d0: 6b68 a1bd 44d4 a73d 7a92 843e a029 d2bd
000002e0: 21d4 adbe aa21 123e 7039 7ebe 6423 a73e
000002f0: c5a1 5cbe dfea dcbd 3619 c93d 4b24 d23d
00000300: 54b7 82be f75c 0e3e f114 ce3e 1813 c33c
00000310: b559 8dbe 4aee 023f 9fd9 a13e 5b32 8a3b
00000320: ce67 8c3e 6d64 3e3e f9c7 b5be 9560 19be
00000330: ee7e 973e 6afb e23c c913 87be 45ab eabd
00000340: dfd9 2e3e 37de 933e 7680 c2bd 7228 303f
00000350: b9dc 02bd 3c32 4cbe 5cd6 7bbe 3e4a 94bd
00000360: 3a7f 6c3e 2470 513e 7b46 6f3d 8607 a33e
00000370: 1d6d 1e3d b737 ccbd dde6 c0bd 1bbc bcbe
00000380: 04a7 f9bd 9dc0 4f3e 20f2 67be 621b 6abe
00000390: 468f 46be 5ae9 f53d de23 8a3d 38e8 8abe
000003a0: 27a2 24bc aa93 73be 51ff 80be c0c0 2a3e
000003b0: 6004 093d 8c72 2b3e c543 7e3c 1117 47be
000003c0: 7f80 89bd cdac c13d 27da ddbd f6d2 a13e
000003d0: 9ff9 723e 9c52 f3be ba4f f63d f687 e13e
000003e0: 5a62 92be 0fb9 85bd 12a2 75be bf87 6cbe
000003f0: 34ba a0be e163 44bb 3803 83be 21cf 213e
-0.5059836 -0.39259467 -0.050060105 -0.23522161 0.33677992 -0.33791485 -0.2925296 0.35817957
-0.23952198 -0.16770855 -0.5130456 -0.21384484 0.09968681 0.35306972 0.037162002 0.17689124
0.020296445 -0.17786866 -0.17433745 -0.006320194 -0.13167356 0.1865278 0.37961048 0.08684293
0.058881998 -0.37954578 0.69252086 0.21264721 0.07054352 0.30863872 -0.4553235 0.12805109
0.23508625 -0.0017631288 -0.210599 0.2639726 -0.33639985 0.029799862 -0.16927001 -0.032242563
-0.17317949 0.19915806 -0.09544194 -0.17563862 0.39578992 0.049826443 -0.22284971 -0.25103408
-0.12168874 -0.24829392 -0.45000604 0.20675506 -0.020747544 0.24394508 0.3364284 -0.04271828
-0.31194097 0.24158859 -0.32752848 0.042869095 0.082529016 -0.03238257 0.04839128 0.33185926
-0.23201738 0.23792036 -0.16132496 -0.2563742 -0.31928325 -0.37463504 -0.012882507 -0.32697812
-0.31388405 -0.055750433 -0.054451264 0.032274514 0.23876707 -0.34611264 -0.25403205 0.02787012
-0.37626043 0.22658207 -0.17622367 -0.3398454 -0.1556931 -0.07311427 -0.046308685 0.19344904
-0.24443796 -0.14504302 -0.15476704 0.17604908 0.015140811 0.104461536 0.031739876 0.12627141
-0.017638847 -0.06850508 -0.30590186 -0.17999887 0.08977103 -0.03730882 -0.3613542 0.116327904
0.42377543 -0.31214076 0.1450506 0.47077355 0.13903233 -0.15100233 -0.088321544 0.18909621
-0.029338486 0.043757267 0.16508713 -0.40864536 0.15704459 0.15657558 0.2240464 -0.15683503
0.19024007 -0.4301498 0.07970877 -0.50839144 0.0053848205 -0.20172143 -0.536347 0.25047126
0.0010539716 -0.58404446 -0.5226956 0.072788216 -0.29556498 -0.5733422 -0.32597804 -0.24260367
0.16957329 0.76435584 -0.20800865 0.20570448 -0.13640115 -0.0055770488 -0.106281646 0.25135145
-0.39045668 -0.52396184 0.031538717 0.076267414 0.274107 -0.0750413 0.1998793 -0.14270182
-0.22235563 0.26982108 0.30611268 0.258723 0.35042644 -0.18184027 0.37482715 -0.14855248
0.31064138 -0.09553712 -0.04261986 -0.1200252 0.6416366 -0.3312548 0.17096262 -0.19981241
0.2153312 -0.32421064 0.096049815 0.366854 0.08428405 0.17348334 -0.008732786 -0.02166805
0.44634926 0.1877667 -0.14404914 0.23553774 -0.07881244 0.08194783 0.25893003 -0.102618456
-0.33950904 0.14270654 -0.24826598 0.32644188 -0.21546085 -0.107869856 0.09819262 0.102608286
-0.25530493 0.13902651 0.40250352 0.023812816 -0.27607504 0.5114485 0.31611344 0.0042174286
0.27422947 0.18592997 -0.3550413 -0.1497825 0.29589027 0.027707774 -0.26382282 -0.11458448
0.17075299 0.28880474 -0.09497158 0.68811715 -0.03194878 -0.19941038 -0.2459349 -0.07240723
0.23095408 0.20452935 0.058416825 0.31841677 0.038678277 -0.09971564 -0.09419034 -0.36862263
-0.12190059 0.2028832 -0.22650957 -0.22862008 -0.19390592 0.12007399 0.067451224 -0.27130294
-0.010048426 -0.23786798 -0.2519479 0.16675091 0.033451438 0.16742915 0.015519087 -0.19442393
-0.06713962 0.09456787 -0.10832625 0.31606263 0.23728035 -0.47523963 0.120269254 0.44049042
-0.2859066 -0.06529438 -0.23987606 -0.23098658 -0.31392062 -0.002996676 -0.25588393 0.1580167

critic.0.bias f4 [256]
00000000: 9068 ad3f 61af 3a3e 0b0f 5c3f b1d4 953f
00000010: e5f8 083f 8f90 773f 751e 4b3f 0e22 a73f
00000020: b2e6 463f f2df c53d 80c7 91be 6c13 853f
00000030: a83e 423f d994 843f 8c84 743f 5abc 243f
00000040: 0a1c 693f 6458 bcbe d7aa e13e dafb 343f
00000050: 11bd 443f 22cb 5b3f 0f9d 823f 7d0f d83e
00000060: 8060 9c3f e4f1 3c3e 1e45 a7be 515e 7c3f
00000070: 3645 4d3f 5e08 1d3f 0f61 b13f b616 2ebf
00000080: 5d5f 093f e597 be3f d400 003f 52e7 a23f
00000090: 652e bc3e 8ba7 fa3e 8cef 793f e47c 983f
000000a0: 894e 80bd e49d cd3e 8e79 223f 081d 903f
000000b0: b131 9a3f 4577 de3d fe44 b83e afd2 8b3f
000000c0: b809 4a3f 4632 653f 8a9a 3a3f f6ec cc3e
000000d0: c4a8 32bf a8d1 7b3f 36a7 483f df6f b93e
000000e0: 46e1 073f 6796 803f 7598 7a3f 8a03 873f
000000f0: 7ae7 9c3f c5db a33f 0e4d 0fbe aa7c 193f
00000100: 3796 403f fea2 7b3f 2db8 2b3f 7886 a53f
00000110: d214 513f 8c8c 4b3f cf3a 293f 20f4 a03f
00000120: c6f5 233f c66d b33f 9b3e b03e 4b1a 5b3e
00000130: 5c6a 4ebe bc0c 5b3f 0fb5 6b3f c3af 8f3f
00000140: fdd3 6d3f 36b2 5a3f 6192 323f 4711 ac3f
00000150: 644c 993f 9d44 7f3e 4486 3b3f 8055 063f
00000160: 6107 9e3f ab57 d53e 4f30 9c3e 47a2 b73f
00000170: 549a 17bb 5e6e 713f 969a 0d3f 7261 5b3f
00000180: 3023 353f 2b9f b63f 8e8c cf3e 21fe 4f3f
00000190: 58cf 703f ee0c 433f bcb9 bf3f b869 073f
000001a0: 796e 0b3f 61d5 663e d5f4 8a3f 6cfb c63e
000001b0: 6b69 1f3f 97a1 543f 9832 53bf 1466 693f
000001c0: 2412 553f 0624 473f 820a 073f 41cb 123f
000001d0: afc5 843f 417c 773f 040f 3d3f fd62 823f
000001e0: 55e0 993f 8aa8 a93f 29c1 9d3f 722f 5e3f
000001f0: a05a 373f 5448 cc3e 965f 573d eacc 903f
00000200: af81 a33f 83ab 4a3f 7f31 923f da75 b33e
00000210: 5402 4c3f e741 a43f 40c2 9f3f a919 153f
00000220: 48bf 993f 91d4 803f 6b36 8f3f 25df 0a3f
00000230: 64b8 1e3e 07ac 7b3f 54a6 a53f fcf9 623f
00000240: b62d 1d3f 1bcb 3b3f 2785 7f3f 2f59 a93f
00000250: 93c0 283f 677c a03f 50d0 8cbd 898d 9f3f
00000260: 35be eb3d 3125 913f c37f 733f 24c7 763f
00000270: e0fd 39be c90e ac3e 80d6 f1be de31 d63e
00000280: 111d 7e3f 214d 53be 74ae bd3e ff49 813f
00000290: 5b61 5e3f 8716 8d3f ebc2 323f 90aa 03bf
000002a0: a5b2 453f 276e 5f3f f699 263f 956b 1a3f
000002b0: 0e87 763f 8256 793f 233a 313f 05c6 633f
000002c0: d277 203e da50 8b3f bb66 843f 7ea1 173f
000002d0: 67dc 1d3f 85ad 613f 508e a53f b8b1 4d3f
000002e0: a2e7 723f 711c 443f 2a4d 583f 0322 b03f
000002f0: 1aa6 02bf 93f5 363f d4e3 3a3f ccf1 a43f
00000300: 6f87 753f 9604 cebe 4ca4 f13e 917b ab3e
00000310: 04c5 553f 4cd1 853f c7d7 8e3f b58e 293f
00000320: 0c84 a93e 53d4 be3e d559 533f 643a 033e
00000330: 7fa3 463f 205f 643e b327 913f f142 4a3f
00000340: be97 903f 9816 8b3f 74e0 333f cf34 a83f
00000350: 23a9 a0be 3477 5d3f d970 553f c21b 2e3f
00000360: c0a3 4c3f f1fb 4c3e f474 993f 9af3 a83f
00000370: 1bbc bb3e 9d39 573f bb24 9d3f 492e 3e3f
00000380: e175 763f bc12 1f3f 3d5a 953f 2053 d73e
00000390: 0527 a33f 3b38 693f c282 113f 2c77 ac3f
000003a0: b42c 6a3f f207 7e3f 953a 2d3f 98c9 793f
000003b0: 3fca 423f 3a5e 303f ff0b dabe d863 9c3f
000003c0: 193e 443f 8e93 fd3e 7f65 943f cb3f f13e
000003d0: 4ddd 4b3f c0b9 fc3b 74f2 433f 2a1a 5e3f
000003e0: a1ae 953f 86c3 483f f8ef 6c3f 7a6b 573f
000003f0: b8ec cc3e 7f5e e43e aecd 053e 5dc9 5a3f
1.3547535 0.18230964 0.85960454 1.1705533 0.5350478 0.96704954 0.7934335 1.3057268
0.77695763 0.09661855 -0.2847252 1.0396552 0.75876856 1.0357925 0.9551475 0.643499
0.9105841 -0.36786187 0.44075653 0.70696795 0.7685099 0.8585683 1.020418 0.42199317
1.221695 0.18451649 -0.3266992 0.98581415 0.8018373 0.6134089 1.3857745 -0.68003404
0.5366114 1.4890105 0.50001264 1.2726843 0.36754146 0.4895595 0.97631145 1.1913114
-0.062649794 0.40159523 0.6346673 1.125886 1.2046415 0.108625926 0.35990137 1.092367
0.7892108 0.89529836 0.7289206 0.40024537 -0.69788766 0.98366785 0.78380144 0.36218163
0.53078115 1.0045899 0.9788888 1.0547955 1.2258141 1.2801443 -0.13994238 0.5995585
0.7522921 0.9829558 0.67077905 1.2931662 0.81672394 0.7951133 0.6610536 1.2574501
0.64046896 1.4017875 0.34422764 0.21396749 -0.2015776 0.85566306 0.9207315 1.1225513
0.92901593 0.8542818 0.69754606 1.3442773 1.1976438 0.24928518 0.7325175 0.5247421
1.2346002 0.41668448 0.30505607 1.4346398 -0.0023132758 0.9430903 0.55314004 0.85695565
0.70756817 1.4267324 0.40536922 0.81247145 0.9406638 0.76191604 1.4978557 0.5289569
0.5446544 0.22542335 1.0855967 0.38863695 0.6227023 0.83059067 -0.82499075 0.91171384
0.83230805 0.7778934 0.5275041 0.5734139 1.0372828 0.9667397 0.7385104 1.0186459
1.2021586 1.3254559 1.2324573 0.86791146 0.7162266 0.39898932 0.052581392 1.1312535
1.2773951 0.79167956 1.1421355 0.3505085 0.7969105 1.2832612 1.2481155 0.5824228
1.20115 1.006487 1.1188482 0.5424674 0.15500027 0.9830937 1.2941384 0.88662696
0.61397874 0.7335679 0.9981255 1.3230342 0.65918845 1.2537965 -0.0687567 1.2465068
0.115108885 1.1339475 0.95116824 0.96397614 -0.18163252 0.3360503 -0.47233963 0.4183492
0.992631 -0.20634891 0.3704716 1.0100707 0.868673 1.10225 0.6982867 -0.5143213
0.77225715 0.87277454 0.65078676 0.6032041 0.9629983 0.97397625 0.69229335 0.8897403
0.15670708 1.0884049 1.0343851 0.5923079 0.6166443 0.88155395 1.2934055 0.803493
0.94884694 0.766059 0.84492743 1.376038 -0.510347 0.71468467 0.7300389 1.288629
0.9590978 -0.40237874 0.4719566 0.3349271 0.83503747 1.0454497 1.11596 0.6623338
0.33108556 0.37271366 0.8255895 0.12815243 0.77593225 0.22301912 1.134024 0.79008394
1.1296308 1.086627 0.70264363 1.3141116 -0.3137904 0.86510015 0.83375317 0.68011105
0.7993736 0.20017983 1.1988816 1.3199341 0.3666695 0.84072286 1.2276834 0.74289376
0.9627362 0.6213796 1.1668164 0.42055607 1.2746283 0.91101426 0.56840146 1.3473868
0.9147446 0.99230874 0.67667514 0.9757323 0.76089853 0.6889378 -0.42587277 1.221797
0.76657254 0.49526638 1.1593474 0.47118983 0.79634553 0.007712573 0.7654183 0.86758673
1.1693918 0.78423345 0.92553663 0.8414837 0.40024352 0.44603345 0.13066742 0.85463506

critic.2.weight f4 [256, 256]
00000000: 8adc d8bd d05e c9bd ac65 2abe b40d a83e
00000010: 8365 fabe 7bf7 e43d 115c bfbe b978 2c3e
00000020: 52b4 5a3e 04d4 16be 9ae7 df3d bf97 4d3c
00000030: 547c dfbe 0038 a93d cb24 d3be d50f 06bd
00000040: 2749 cfbe 6dcf 13be 18be c5be d889 8cbd
00000050: 5b95 263e 5903 2dbe 5478 4cbc a707 91be
00000060: cfa4 4eba 5428 52be 4b56 18bd b2f4 b2bc
00000070: c6fa 04bf 3b35 3dbd 26ba 1fbd e894 203e
00000080: 9e3d 66be 18a9 bc3d a321 08bf f467 d7bd
00000090: 1a0b b5be 60cf 08bf 32b0 f3be d606 1fbd
000000a0: ff66 95bd 1583 a1be 9590 7f3d 4d71 533d
000000b0: 7106 d03d 622c d6be 9e3f 8c3a da47 773e
000000c0: 12b6 aebe 7ff5 1bbd c165 21bf 6157 8bbe
000000d0: f460 4f3e a50a 57be c316 273e 49fd 92be
000000e0: bc27 febe b072 dbbd bed4 2c3e 74cc 903c
000000f0: 3797 90bc d911 8f3c 3459 3a3e cf4e 2ebe
00000100: c6aa 19bd 56fc 3abe 10a7 37be 3638 0d3e
00000110: 0fdd 2abf 9c21 95be 658a 54be 0a8d 3d3d
00000120: 9232 39be f83f e33c 096d 1bbf b389 cfbe
00000130: cc61 03be ff6d 85be d53a cfbe a6c0 afbc
00000140: ed38 4dbe 3865 82bd d569 213e d5a1 46be
00000150: cf3b 8dbe f849 a13e 2c7f 95bd b7b0 ddbe
00000160: ad26 82be adba febe b649 1dbf dbd5 31bd
00000170: fe0c aabe 4dea b93d ff81 1abe 7b06 c23d
00000180: fa35 e73d 3f64 ac3d fba5 343d fa76 9ebe
00000190: 4ddd bfbe c7e1 b8bd 9474 b6bd 7808 0a3e
000001a0: d2d3 a5be 780e 1a3e 80ff f0bd 8b10 6fbe
000001b0: d2d8 da3b 799d 153f 958e 82be e1d5 9f3e
000001c0: a050 81be 49bc 00be a756 0abf 6613 99be
000001d0: aca5 bc3d 6053 6bbd 4f9d fcbe baaa eb3d
000001e0: 595d 6f3c fe2d acbd f840 4abd 47ee 5fbd
000001f0: 9a48 a3be bd83 9cbe c959 b5be 3d57 6cbe
00000200: d01f ebbd b049 90bd 380b acbe 60d8 02bf
00000210: 6322 a8be d4c0 75be 9a2a d3be b77a 8dbe
00000220: d569 823e 4733 06be cb56 d53e 901f 0ebf
00000230: e7b3 acbd c5f8 1bbe a164 54bd 7db1 73be
00000240: 11b8 78be 49c7 e3be ab82 5d3d a704 d6bd
00000250: eab6 dcbe eebe 93be 43e9 e8bd 2261 813e
00000260: f9c3 8bbe c2e4 f73d 1dfa d5bc e9ff bbbd
00000270: 0b25 cebc 7ad9 90be 9e2f 27be 790e 6cbe
00000280: 65d0 7dbd b91a 49bd ff72 7abe 8f75 8d3d
00000290: 8ce1 18be 830c f2bd c44e a4be 7469 0fbf
000002a0: ffd2 e6bd a3cf d1be 1b93 463e 38ed 853c
000002b0: d84a 8cbb c360 34be 49ff 05bf 9b09 75bd
000002c0: c72f 0abe db32 cabe 87d5 50be fb36 27be
000002d0: 55e0 babe 86bc 3c3e c772 963e 412f 3f3c
000002e0: 0fcc 233e 6415 eb3d 4cf3 96be 7c06 f3bd
000002f0: e6f7 70be 412d c4be d6b0 85be 328b 93be
00000300: f566 fbbe 2a67 03be a185 c7be 6662 03bf
00000310: 8302 75be 751b 623e 817d 29bd db86 6ebe
00000320: 6704 a1be 31b5 4bbd 32d0 44be a8d1 a43c
00000330: 1049 12be 5115 50be b7ab 9b3e da59 1cbf
00000340: 05a4 bcbe 5aa0 af3d 03d0 623e 9688 0bbf
00000350: fb34 a13d 151e 9dbe 0da0 d5be 8f51 fb3b
00000360: f1bf 48bd 1a73 cfbe 886f 4d3d 3537 d83d
00000370: 08c0 42bd b00e c43d 56e8 133c 3e55 7ebe
00000380: cdb4 63be 96c9 abbe b632 6b3d df2b a5be
00000390: 178e f9bd a1bc 51be 20ee 1cbe 1e55 ba3d
000003a0: 5c1d 09be 2b09 d3bd 2e63 c9be 1313 50be
000003b0: 1864 45be 7533 24be 5e61 83bc da58 3dbe
000003c0: 868b abbd 86b8 e8bc f4b0 6c3d da5b 9ebe
000003d0: 372f 2dbc 8207 193d d294 18be a071 6c3e
000003e0: b430 64be 60c3 c3be f49f 7c3d 66b4 07be
000003f0: b5d8 01bd 685c 48bf 4e98 bbbe ef4f d03c
-0.105889395 -0.09832537 -0.16640347 0.32822955 -0.48905572 0.11180016 -0.3737493 0.16842927
0.21357849 -0.14729315 0.10932846 0.012548386 -0.43649542 0.08262634 -0.41239008 -0.032729942
-0.40485498 -0.14434595 -0.38621593 -0.06862229 0.16267912 -0.16895808 -0.01247986 -0.2832615
-0.0007882835 -0.20523196 -0.03719167 -0.021845195 -0.5194515 -0.046193343 -0.038995884 0.15681803
-0.22484443 0.092119396 -0.53176326 -0.10517874 -0.35360032 -0.5344143 -0.47595364 -0.03882488
-0.072950356 -0.3154532 0.062393744 0.051621724 0.101574786 -0.41830736 0.0010700112 0.24148503
-0.34123284 -0.03807592 -0.6304589 -0.27215102 0.20251828 -0.21000154 0.16317277 -0.28708866
-0.4963969 -0.10715234 0.1687803 0.017675616 -0.01765023 0.017464565 0.18198091 -0.1702225
-0.037516378 -0.18260321 -0.17934823 0.13790974 -0.6674356 -0.29127204 -0.20755918 0.046277083
-0.18085697 0.027740464 -0.6071325 -0.40534744 -0.12830275 -0.26060483 -0.40474573 -0.021454167
-0.20041247 -0.06366962 0.15763028 -0.19397672 -0.27584693 0.31501746 -0.07299647 -0.43298885
-0.25420132 -0.49751797 -0.614406 -0.04341684 -0.33213037 0.090778925 -0.15088652 0.09473892
0.11289592 0.08417558 0.044103604 -0.30950147 -0.37473527 -0.090274386 -0.08908954 0.13479793
-0.3238817 0.15044582 -0.11767483 -0.23346154 0.006678679 0.5844341 -0.25499406 0.31217864
-0.25256824 -0.12571825 -0.5403847 -0.29897612 0.09211287 -0.05745256 -0.49338767 0.11507173
0.014609658 -0.0840721 -0.049378365 -0.0546706 -0.31891328 -0.30569258 -0.35420063 -0.23080154
-0.11480677 -0.07045305 -0.3360231 -0.5111141 -0.32838735 -0.2399934 -0.4124344 -0.27632686
0.25471368 -0.13105498 0.4166778 -0.5551691 -0.08432751 -0.15231617 -0.05185378 -0.23798175
-0.24288966 -0.4448798 0.054079693 -0.10450106 -0.43108302 -0.28856605 -0.11372616 0.2526942
-0.27297953 0.12104179 -0.02612024 -0.0917967 -0.025164148 -0.2829092 -0.16326758 -0.23052396
-0.06196632 -0.04909775 -0.2445793 0.06907188 -0.1492979 -0.11818793 -0.32091343 -0.56020284
-0.11270713 -0.40978727 0.19392054 0.016348466 -0.004281383 -0.17615037 -0.5234266 -0.059823614
-0.13494788 -0.39491925 -0.20393954 -0.16329567 -0.36499277 0.18431291 0.29384443 0.011668981
0.15995811 0.11478689 -0.29482496 -0.11866471 -0.23532066 -0.38315776 -0.26111478 -0.28817135
-0.49101987 -0.12832323 -0.38969138 -0.5132202 -0.2392674 0.22080787 -0.041379455 -0.23293631
-0.3144867 -0.049733344 -0.19220045 0.020119503 -0.14285684 -0.20320632 0.30404446 -0.610746
-0.36843887 0.085755065 0.22149663 -0.5450529 0.07871433 -0.30687013 -0.41723672 0.0076696347
-0.049011175 -0.40517503 0.050155193 0.10557405 -0.047546417 0.09573114 0.009027561 -0.24837205
-0.22236939 -0.33552235 0.05742141 -0.32260033 -0.121853046 -0.20482112 -0.15325212 0.09098266
-0.13390106 -0.10304483 -0.3933348 -0.20319776 -0.19276464 -0.16035254 -0.01603764 -0.18490925
-0.08376221 -0.0284083 0.057785943 -0.30929452 -0.010570339 0.037360676 -0.1490052 0.2309022
-0.22284204 -0.38234997 0.06167598 -0.1325241 -0.03170081 -0.78266 -0.36639637 0.02542874

critic.2.bias f4 [256]
00000000: 165e 833d 70fc 8e3f 64d7 173e 8a59 e1bd
00000010: c0f5 0c3f 365e 213f f32f 443d e8b1 533e
00000020: a121 81ba 7395 853e 0d21 e3bc 73da 963f
00000030: 6bc7 013e 3238 a03f 4a63 b23e 83a9 9d3f
00000040: adb7 1ebd 2cbe 993d 657d 07bd 0f51 2d3f
00000050: 9582 a13e 4c12 363e ed81 83bd ff97 c83e
00000060: 1551 963f 2e29 203f 76c1 043e 6779 7f3e
00000070: be0e 9d3f b2ee 063f 4e01 afbc 63a3 233e
00000080: 87dd 3c3f cd70 673f 6342 403e 69bb 4b3c
00000090: a7b4 053d 59f8 9a3f bfba 1d3e 3157 2c3e
000000a0: 98e8 e13d 7285 073f 9056 9f3f b564 bbbd
000000b0: 8536 b53c 4107 8e3f 8027 7f3e f1b0 a03f
000000c0: eaf6 eabc 74c5 823d 8922 7b3e 4f5a 3bba
000000d0: f21e a03f b0d5 963f b1dd 153e 6dfa 183f
000000e0: 5a0f 923e df0c 073d cea6 a83f c932 453e
000000f0: df78 e0bc 115a 4e3f 030a a63f 7191 c53d
00000100: 8d29 743f 856a 523f ccef b63d 7ab2 013f
00000110: a033 9d3f e89b 143f aa18 9a3c ef01 a93f
00000120: 0dcf 703e 6291 1f3f bc93 c13e c957 063d
00000130: de0f 5d3f ae46 003f e339 8c3f 4640 823f
00000140: 8237 a23f 6adb 45be 27db 4b3f 88c2 333f
00000150: 394c 9f3f 1d1b 57be 8faf 0e3e b908 9f3f
00000160: 1b23 843f 1ed7 993f 783c fd3e 21f0 993f
00000170: 9348 26bd e6fd 4ebb 9dbb 503f bf3d ff3c
00000180: c26b cd3e 26d3 983f 7377 a33f 373c 94bc
00000190: 75ea cb3e 1e9c 433f 739b 6e3e 696a 9d3f
000001a0: 10e3 983f 2e59 253e ed1b 5bbc e46a 5d3f
000001b0: 0428 a53f 43ee d73e 7654 a9b9 91bb c33d
000001c0: dd6c 87bc 87d7 953f e164 c43c 1e90 bdbd
000001d0: 1f4d 993e 44f5 53bd 5df2 9b3f 6091 1e3d
000001e0: d39b 42bd f400 4f3f 4bdc 273f e012 5dbc
000001f0: 874b 1f3d fc0f 493e c09b 253f 6f1f 9a3f
00000200: 96ae 8dbd 9b65 a63f d94e 753f d00c 7c3d
00000210: 28cd 093f 7d34 c0bd cda0 a43f 574e 953e
00000220: 216d 8b3e d192 fabd bbef 1a3e f065 ccbd
00000230: 71ae 943f 30ac 613f 951c 363e f804 803f
00000240: 3d32 f03e 08f3 a33f b058 073f 436e b03e
00000250: 3922 67bc 85db 0f3e df46 993f 7af1 9e3f
00000260: bc00 e23e da4b 0a3f e266 853e 967e 813f
00000270: 95c5 933d 8785 02bd 887e f83e 1521 883e
00000280: 55e3 953f 5a12 67bd 5bca a13f eb9e 773f
00000290: b55d 903f 8da0 853c 6b0e b53e ae40 913d
000002a0: 419f ae3e 3ec9 9a3f 9661 fc3d de23 38bd
000002b0: 156e 4c3e beb9 9f3d 0ea1 463f f30e 7b3f
000002c0: 5dda 153d 894a 21bc f705 943f 0b1c 9a3f
000002d0: 4e6e a03f 99fc b33c 40ac 013f 1aff 95bd
000002e0: dfc9 073f e9c0 733e 54d7 553e 17f0 173e
000002f0: 1c48 ca3e a86f a13f d195 793f e911 acba
00000300: 0ec0 283e 2a7b 4a3f 0a05 09bd 4a6d 2f3f
00000310: f170 003c b192 b33e b19b 3bbe c7f8 5fbd
00000320: 09de c43b 36d7 f63e 9c01 963f 56fa d3bd
00000330: dfa1 0e3f a5b9 7c3e 30a1 943e 14a3 5d3f
00000340: e6f6 a43f 28a6 483f 21e0 10bd 0d48 983f
00000350: dc17 083f 82d0 9dbc be14 a13f 9e51 813f
00000360: bdb9 fc3e 4346 23bd e568 693c 3efd 553c
00000370: 0e0a a23f ce17 973f 2a82 a53f b6a7 a73e
00000380: c79a b7b9 e699 a43f 5d1c ab3d 8ef1 563f
00000390: 8d1a 573f 7442 873f 2899 723f cc4a a13f
000003a0: 0257 803f 5ca0 9f3f e0e7 67bd 8af3 3a3d
000003b0: 554a a53f 6ddf ba3e 85cb 9f3f 424b f13d
000003c0: 2f20 ce3e 824e 0b3e 2a98 973f 2995 823e
000003d0: e8db 2f3e 5c8c 9b3f c461 903f c7ad 393c
000003e0: aa4e cf3c 8695 e2bc e0b5 a73f fc9e 50bd
000003f0: f5de 963f de93 0b3f d3f4 953f 27b3 353c
0.0641443 1.1170788 0.14828259 -0.11003406 0.55062485 0.6303438 0.04789729 0.20673335
-0.0009851941 0.26090583 -0.02772572 1.1785415 0.12673728 1.251715 0.34841377 1.2317356
-0.038749386 0.075069755 -0.03307857 0.6770181 0.3154494 0.17780417 -0.06421266 0.39178464
1.1743494 0.62562835 0.12964424 0.24948655 1.2270124 0.5270797 -0.021362927 0.15980296
0.73775524 0.90406495 0.18775325 0.012434819 0.032642987 1.210704 0.15403269 0.16830136
0.11030692 0.52937996 1.2448292 -0.09150068 0.022120724 1.1095964 0.24917412 1.2553998
-0.02868219 0.063853174 0.24524893 -0.0007146941 1.2509444 1.1783962 0.1463535 0.5975712
0.28527337 0.03297126 1.3175905 0.19257654 -0.027401386 0.8060618 1.2971805 0.09646881
0.953759 0.82193786 0.089324564 0.5066296 1.228138 0.58050394 0.018810589 1.3203715
0.23516484 0.6233121 0.37808025 0.032798562 0.86352336 0.5010785 1.0955166 1.0175865
1.267319 -0.19321981 0.79631275 0.70218706 1.2445136 -0.21006437 0.13934158 1.2424537
1.0323213 1.2018774 0.49460196 1.2026407 -0.040596556 -0.003158444 0.81536275 0.031157373
0.40121275 1.1939437 1.2770828 -0.018095119 0.39827314 0.7641009 0.23301487 1.2298099
1.1944294 0.161473 -0.013373357 0.8649123 1.2902837 0.42173967 -0.0003229712 0.0955726
-0.016531402 1.1706399 0.023973884 -0.09256004 0.2994165 -0.051747575 1.2183338 0.03871286
-0.047511887 0.8086083 0.65570515 -0.01349327 0.038890388 0.19635004 0.6469078 1.2040843
-0.06918065 1.2999758 0.95823437 0.061535656 0.5382867 -0.09385011 1.2861573 0.2916133
0.27231696 -0.12235034 0.15130512 -0.099803805 1.1615735 0.8815336 0.1778434 1.0001516
0.4691333 1.2808542 0.528697 0.34459123 -0.01410728 0.14048584 1.1974753 1.2417443
0.44141185 0.5402199 0.26055056 1.0116756 0.0721542 -0.031865623 0.48534036 0.2658774
1.1710001 -0.056413986 1.2639879 0.96726865 1.1278597 0.016311908 0.35362563 0.07092415
0.34105876 1.2092664 0.123233005 -0.04495608 0.19963868 0.077990994 0.775895 0.98069686
0.0365852 -0.009844431 1.156432 1.2039808 1.2533662 0.021971034 0.5065346 -0.073240474
0.53042406 0.23804058 0.20882922 0.14837681 0.3950814 1.26122 0.97494227 -0.0013127896
0.16479513 0.79094183 -0.03345207 0.68526137 0.007839427 0.35072854 -0.1832111 -0.054680612
0.006007914 0.48211068 1.1719241 -0.10350482 0.55715746 0.24680193 0.29029226 0.8657696
1.2887847 0.78378534 -0.035369996 1.1896988 0.53161407 -0.019264463 1.2584455 1.0103033
0.49360457 -0.03986193 0.0142462 0.013060866 1.2659318 1.180414 1.2930348 0.3274514
-0.00035019798 1.2859466 0.08355019 0.83962333 0.8402489 1.0567155 0.9476495 1.2600951
1.0026553 1.2470813 -0.056617618 0.045642413 1.2913309 0.36498585 1.2483984 0.117819324
0.4025893 0.13604167 1.1843312 0.25504425 0.17173731 1.2152209 1.1279836 0.011332936
0.025306065 -0.027659189 1.3102379 -0.05093287 1.1786791 0.545225 1.171534 0.0110900765

critic.4.weight f4 [1, 256]
00000000: 8be7 9e3d 8050 27bc 52d4 af3e 20f8 a8bb
00000010: 3115 893d 2974 5f3e 2cfd 2b3e dbed 6a3e
00000020: 1b6b ee3c 9550 213f b672 213e 77d4 ccbc
00000030: 6ce8 a63d 545d 93bd dfde d93e 9278 47bd
00000040: ad85 053c 4065 d83d a249 fc3d c399 6e3e
00000050: b856 f93e 72b4 4f3e 95a0 a33c 8aa6 063f
00000060: a5ba 1bbd 4e87 a73c 390b 8a3e 02d3 e63e
00000070: 9139 c0bc 4f54 873e 84ea d53d e0a6 443e
00000080: 1c8f 65bd 51b6 ad3b a070 ac3e d1f9 a03d
00000090: 6475 0f3e e785 14bd 3650 3c3e 0ef7 9c3e
000000a0: 621e a13e 9647 9f3e 887d c8bc ec68 d33b
000000b0: ab9f 813d c77a 2bbc c3f3 783f 15cc bbbc
000000c0: 071e 483d 7abe 9a3d c0d1 7c3f e7e7 8d3d
000000d0: 9588 cdbc 7d95 bfbc dc5a 563e dd4d 893e
000000e0: 2986 b63e e865 683d 9f3a c6bd 3034 473e
000000f0: 4b8a 993c eb55 853b 43c2 16bd 8635 5f3e
00000100: b423 09ba e5c6 e13b aeab b03e 703b aa3d
00000110: d348 25bd 2271 8a3e bf73 d23c b300 e5bd
00000120: f683 fa3e a196 dd3b 0571 963e 05b5 bf3e
00000130: 5e3e fbbb 9dab 1d3e 3d2f ccbb 19d9 22bb
00000140: a23e 08bd c8f9 813e 5ff4 f93b 655d 9d3f
00000150: e1bf c5bc 62a2 983e ef9d a83e 752a dfbc
00000160: 86af fd39 3922 10bd 0cae 8abe fa95 06bd
00000170: e9dc 3a3d df8c 643d ae4a 2f3b 5a38 8b3e
00000180: 0c51 5a3f 16ed 05bd 1a90 f6bc 41ed d13c
00000190: 56a2 4e3f c3f4 b33b 3da3 1f3f 25a0 dcbc
000001a0: 82b7 03bd a751 643e 9a2a 9b3b 2630 673b
000001b0: b7f1 4bbd 6992 8d3e 12f4 143f 8ef9 313e
000001c0: e8e5 eabb ce4b 5bbc 6f08 233f b9ba 89bd
000001d0: 532a ad3e 5e2d d2b9 4bf0 2bbd 3e0b 5a3e
000001e0: 41b8 0c3d 72b0 d1bd 3776 fabc 52e0 093e
000001f0: 06fe 303e c2e9 d73e baba dcbd 1d75 0fbd
00000200: 33fe 913c e585 2ebd d6b2 0a3a 7382 213f
00000210: 654f 183e 3085 823d 61e4 6dbd ba30 4a3e
00000220: c0b9 c73e 70fb 693e 36b3 c53d 5a9b 133d
00000230: 1cfc 6ebc 94bc db3b 9a29 423e f813 54bb
00000240: c7a3 a33e 23f0 4dbd 3620 823e 2c17 c63e
00000250: 3ef8 44bc 2227 c83e f4b1 b4bc 6441 53bd
00000260: 23c6 8e3e 295a 933e 3b74 ac3e 17b0 48bb
00000270: 41ec 6b3e 398c 0a3e 8426 943e d852 a83e
00000280: 89cd e7bc db45 083e 0684 a2bd ea3c 07bb
00000290: 96b7 19bc dab2 9b3c ff0f 193f b3c8 f63d
000002a0: 3591 cd3e e7f6 c0bc e8e6 d93e 378d fb3b
000002b0: 4f50 183f 5ba4 743e 70e9 10bd 3d36 9bbb
000002c0: 7a6c 7a3e 1272 c53b 75b1 b6bc 7f9d a5bc
000002d0: 21de b3bc 77fd 4d3b cef4 493e 96ff 0bbc
000002e0: 9150 833e fdca ad3e 4805 9f3e 21ae a03e
000002f0: 241b 273f 3cee 45bd f859 11b8 05a4 b73e
00000300: 4ec3 d13e 9c14 adba 874e 483d f02a c6bd
00000310: 907d b53d 1870 ad3e 6695 d53b 233a 993d
00000320: 1496 ae3c 1f36 0abd f638 d5bc 15be 85ba
00000330: e7c2 103d e2a6 9a3e 1963 e33e 5ef0 973b
00000340: 5807 28bd e99d 0c3c ec53 9a3c 131a eebc
00000350: 0056 583e 0fbc ca3c 6f23 65bd f83f b4bb
00000360: f9ea 0c3f 7d4e de3c b7a6 123e 2d8c c43d
00000370: f27e 58bd 8531 c3bc 5b4a 61bd 5cbb 0e3f
00000380: c087 b53d 8f1f 2bbd 3a18 d43e 556c bf3b
00000390: 32aa bf3a 8483 03bc 9e47 b23b d237 0ebd
000003a0: 10c8 63bb 548e 34bd 19a1 e03d 9197 2a3e
000003b0: cd3b cfbd 1a41 fb3e cbdd 75bd 7b53 1b3f
000003c0: f857 b53e 04ce 623e 904c b9bc 7669 0a3f
000003d0: a378 8e3e 3511 04bd cca9 b1be e6c5 153c
000003e0: 1825 443e 6332 f73c 1ca2 35bd 6029 feb9
000003f0: b509 11bd f0b6 683e 1343 cebc 14a7 3e3d
0.07759007 -0.010212064 0.34341675 -0.005156532 0.06693495 0.21821655 0.16795796 0.22942297
0.029103806 0.63013583 0.15766415 -0.025003655 0.081498 -0.07195535 0.4255285 -0.04869897
0.008149547 0.10566187 0.12318732 0.23300843 0.48698974 0.20283678 0.019974032 0.5259787
-0.038019795 0.02045026 0.26961687 0.4508286 -0.02346495 0.2643151 0.10445121 0.19204283
-0.056044683 0.005301275 0.33679676 0.07860149 0.14009625 -0.03626051 0.18389973 0.30657238
0.31468493 0.31109303 -0.02447392 0.0064517166 0.063292824 -0.010466284 0.9724695 -0.022924462
0.04885676 0.07555862 0.98757553 0.069289975 -0.025089541 -0.023386711 0.20933098 0.26817217
0.3564923 0.05673781 -0.0967915 0.19453502 0.018742701 0.00406908 -0.036806356 0.21797761
-0.00052314554 0.006890165 0.3450598 0.08312118 -0.040352654 0.27039438 0.025689958 -0.11181774
0.48928803 0.006762341 0.29383102 0.37442794 -0.007667347 0.15397497 -0.006231217 -0.0024848639
-0.033262856 0.2538588 0.0076280083 1.2294127 -0.024139347 0.29811388 0.32932994 -0.027241925
0.00048386696 -0.035188887 -0.27085912 -0.032857873 0.045620833 0.055798408 0.0026747393 0.2719143
0.8527992 -0.032696806 -0.03009801 0.025625827 0.80716455 0.0054918244 0.62358457 -0.026931832
-0.03215743 0.22296773 0.004735303 0.0035276501 -0.049791064 0.27650765 0.5818492 0.17380354
-0.0071685202 -0.013384772 0.63684744 -0.06725068 0.33821353 -0.00040088122 -0.041977208 0.21293351
0.034355406 -0.102387324 -0.030573947 0.13464478 0.17284402 0.4217053 -0.10777803 -0.035023797
0.017821407 -0.04260816 0.0005290931 0.63089675 0.14874037 0.0637306 -0.058079127 0.1974515
0.39008904 0.22849822 0.096533224 0.036036827 -0.014586475 0.00670583 0.18961182 -0.0032360535
0.3196089 -0.05027784 0.254152 0.38689554 -0.012022076 0.39092356 -0.02205751 -0.051576033
0.2788554 0.28779724 0.33682427 -0.0030622536 0.23039342 0.13530053 0.28935635 0.32875705
-0.028296249 0.13307898 -0.07935338 -0.0020635673 -0.009382149 0.019006182 0.59790033 0.12049999
0.40149847 -0.023555232 0.4255898 0.007676746 0.5949754 0.23890822 -0.035378873 -0.0047366903
0.24455443 0.006025561 -0.022301415 -0.020216702 -0.021956505 0.0031431594 0.19722292 -0.008544823
0.25647405 0.3394393 0.31058717 0.3138285 0.6527579 -0.0483229 -3.4654484e-05 0.35867324
0.40969318 -0.0013204995 0.048903015 -0.096761584 0.0886184 0.33874583 0.006518054 0.07481792
0.021311797 -0.03374302 -0.026028138 -0.0010203744 0.035342123 0.30205446 0.44411543 0.0046368083
-0.04102263 0.008582571 0.018838845 -0.029065168 0.21126556 0.024747876 -0.055941995 -0.0055007897
0.5504604 0.027137036 0.14321409 0.09597049 -0.05285544 -0.023827324 -0.05500255 0.5575464
0.08863783 -0.041778143 0.41424733 0.0058417716 0.0014622866 -0.008026961 0.0054406663 -0.034721203
-0.0034756698 -0.044081047 0.10968227 0.1665938 -0.10118828 0.49073106 -0.06002597 0.60674256
0.35418677 0.22148901 -0.022619516 0.5406717 0.27826414 -0.032242972 -0.34699857 0.009141421
0.19154775 0.030175393 -0.044344053 -0.00048477482 -0.035409648 0.22726035 -0.025178468 0.046546057
