Tu/agent1/ppo/critic/critic.pth (torch, 369615 bytes, 5 tensors)

critic.0.weight f4 [256, 100]
0.097416796 0.02252453 -0.023442922 -0.13937297 -0.2620843 -0.52738947 -0.26482973 -0.054921146
-0.017501632 -0.30787572 -0.005831569 0.0014461409 -0.29002237 -0.33763933 -0.53762263 0.28392813
0.2621111 -0.13047516 -0.02503388 -0.012257487 -0.19804628 -0.07746092 -0.049021076 -0.043203343
0.44966206 0.24586424 -0.32161936 -0.5766986 -0.6892394 0.25023392 -0.077891774 -0.04629113
-0.29075006 0.046222627 0.0924757 -0.17332539 -0.15370445 -0.6343294 -0.017417403 0.1464362
-0.0024213984 -0.31351736 -0.18706113 0.12766378 0.08759544 -0.34230632 0.25874192 0.23146752
-0.17034341 -0.34716377 -0.27778414 -0.06503373 0.21377128 -0.12387346 -0.1792038 0.0759645
0.064607784 -0.24499777 -0.29765117 -0.04890973 -0.20445813 -0.37678868 0.0010569759 -0.17835733
0.06309097 0.21403019 -0.033137724 -0.26063004 -0.18402776 -0.24879022 0.0639615 -0.26843172
-0.020084755 0.089740746 -0.21456423 0.0065868027 -0.004649082 -0.45377204 -0.07685341 -0.22284001
0.39467454 0.20617066 -0.013888485 0.05828185 0.057512067 0.3556803 0.14994918 -0.067603946
-0.39042655 -0.6888012 -0.07436296 0.08300685 0.083390296 0.057493057 0.11217404 0.06546168
0.35288492 0.29862446 -0.30641937 0.3766427 0.43848884 0.094394915 -0.1389418 0.012506423
-0.0042821574 -0.050258264 0.17581795 -0.04905484 -0.124430716 0.1234628 -0.18425903 0.27061722
0.17471243 -0.14730336 -0.1978631 -0.06866975 -0.2849222 0.010166474 -0.1787623 0.1742012
-0.18318465 0.39986527 -0.20437393 -0.09871256 -0.019986665 -0.13543467 -0.1494684 -0.33724183
0.06446417 -0.117937736 -0.11853921 0.21364842 -0.17420416 -0.30491957 -0.24584468 0.19227517
-0.3385488 0.15141256 0.24548946 -0.2547295 0.39337817 -0.4502392 -0.113478184 -0.13230243
-0.39637947 0.23255846 -0.09732127 -0.31266665 -0.3410761 -0.1260727 -0.0033543447 0.054715633
-0.5830038 0.25977117 -0.09631319 -0.019670807 0.24988252 -0.07626189 -0.1679269 -0.12223215
-0.012072764 -0.098592155 -0.4098025 0.20864987 -0.15970157 -0.4034849 -0.20818217 0.041547835
-0.05629275 0.10338807 0.15699108 -0.17629234 -0.1346416 0.20166804 0.15926912 -0.16418625
-0.23031011 0.11877089 -0.3792968 -0.1646357 0.3782438 0.083867274 -0.0143780885 -0.117893405
-0.16154273 0.030096497 0.28920344 -0.2831796 -0.009458587 0.16747357 -0.28075618 0.35948676
-0.0650883 -0.39358157 -0.0803171 -0.26459187 0.09436796 -0.013906953 0.2374762 0.22843242
-0.1923996 -0.3006085 0.13681778 -0.14120024 -0.15648445 -0.3988224 -0.010081864 -0.2791988
-0.029841105 -0.15044144 -0.05912253 0.11632835 -0.093845725 -0.29560387 0.33427927 0.24671741
-0.0755821 -0.07465451 -0.22770125 0.103648394 -0.02261564 -0.35773653 -0.09333845 -0.3247938
0.30957803 -0.0078075724 -0.60113484 -0.36327025 -0.08090105 0.039082214 -0.0063397926 0.13679108
-0.43338925 -0.16764529 0.20907049 -0.48519695 -0.13381906 0.094678275 0.30572572 0.041995287
-0.3643391 -0.05218845 -0.29077065 -0.06467358 -0.08320847 -0.14125553 -0.0019369388 -0.31097817
-0.06874325 -0.2257085 -0.1363761 0.501821 0.44827878 0.53265923 0.36676478 0.06969259
00000000: 7582 c73d 5d85 b83c 5f0b c0bc cab7 0ebe
00000010: ea2f 86be ff02 07bf c397 87be fff4 60bd
00000020: 955f 8fbc e3a1 9dbe bf16 bfbb 708c bd3a
00000030: d07d 94be 10df acbe a3a1 09bf 075f 913e
00000040: 6d33 863e 489b 05be da13 cdbc a0d3 48bc
00000050: a5cc 4abe d5a3 9ebd 53ca 48bd fdf5 30bd
00000060: 1b3a e63e d6c3 7b3e 4bab a4be 85a2 13bf
00000070: fe71 30bf a91e 803e b985 9fbd c59b 3dbd
00000080: 31dd 94be f053 3d3d e663 bd3d 367c 31be
00000090: b364 1dbe 6963 22bf f1ae 8ebc 5ff3 153e
000000a0: 53b0 1ebb 5985 a0be f48c 3fbe 4bba 023e
000000b0: 3d65 b33d c642 afbe d279 843e d205 6d3e
000000c0: 816e 2ebe 73bf b1be b939 8ebe 6730 85bd
000000d0: dce6 5a3e 5eb1 fdbd 3381 37be 4793 9b3d
000000e0: 1651 843d b2e0 7abe bc65 98be 9255 48bd
000000f0: 795d 51be 72ea c0be 3a8a 8a3a 4ea3 36be
00000100: d735 813d bb2a 5b3e 6cbb 07bd 4d71 85be
00000110: c671 3cbe ddc2 7ebe 3ffe 823d e26f 89be
00000120: c988 a4bc ffc9 b73d bab6 5bbe 1bd6 d73b
00000130: 5457 98bb cf54 e8be 5265 9dbd 2c30 64be
00000140: c812 ca3e 671e 533e 878c 63bc f3b8 6e3d
00000150: c691 6b3d ba1b b63e 478c 193e f073 8abd
00000160: fde5 c7be 4755 30bf 9c4b 98bd 7fff a93d
00000170: 88c8 aa3d d77d 6b3d 81bb e53d c610 863d
00000180: 55ad b43e 4ee5 983e 00e3 9cbe 50d7 c03e
00000190: 9c81 e03e 1f52 c13d c246 0ebe bde7 4c3c
000001a0: 5751 8cbb 9cdb 4dbd 9f09 343e baed 48bd
000001b0: 88d5 febd 11da fc3d 66ae 3cbe 578e 8a3e
000001c0: d1e7 323e b1d6 16be a09c 4abe baa2 8cbd
000001d0: 53e1 91be 4891 263c 770d 37be cd61 323e
000001e0: c294 3bbe 24bb cc3e 6647 51be d029 cabd
000001f0: 13bb a3bc 63af 0abe 3f0e 19be f6aa acbe
00000200: ca05 843d 5789 f1bd afc4 f2bd a7c6 5a3e
00000210: 9362 32be 6b1e 9cbe b5be 7bbe c8e3 443e
00000220: 4556 adbe e50b 1b3e 9761 7b3e e86b 82be
00000230: dd68 c93e c185 e6be 4067 e8bd 4a7a 07be
00000240: 40f2 cabe ce23 6e3e 6050 c7bd d815 a0be
00000250: 87a1 aebe 3419 01be 91d4 5bbb 801d 603d
00000260: bd3f 15bf ba00 853e da3f c5bd ac24 a1bc
00000270: 34e1 7f3e 322f 9cbd 07f5 2bbe d954 fabd
00000280: d8cc 45bc afea c9bd a2d1 d1be 50a8 553e
00000290: cf88 23be 9395 cebe b52d 55be 102e 2a3d
000002a0: 3a93 66bd 20bd d33d 45c2 203e fb85 34be
000002b0: 7ddf 09be 1182 4e3e 7217 233e 7120 28be
000002c0: 6ad6 6bbe 273e f33d 3133 c2be 4396 28be
000002d0: 2ca9 c13e 9bc2 ab3d 1392 6bbc 1972 f1bd
000002e0: 756b 25be ee8c f63c 7912 943e ebfc 90be
000002f0: 30f8 1abc 317e 2b3e 46bf 8fbe a60e b83e
00000300: 044d 85bd 8683 c9be 4b7d a4bd 9678 87be
00000310: fd43 c13d fdd9 63bc f62c 733e 30ea 693e
00000320: 6704 45be 5be9 99be f619 0c3e cc96 10be
00000330: 763d 20be 7332 ccbe 672e 25bc 25f3 8ebe
00000340: 5575 f4bc 520d 1abe 772a 72bd 8f3d ee3d
00000350: 3032 c0bd 6459 97be a726 ab3e 7da3 7c3e
00000360: caca 9abd 77e4 98bd 842a 69be 9c45 d43d
00000370: 6f44 b9bc 3e29 b7be 3b28 bfbd 5f4b a6be
00000380: 0381 9e3e aad6 ffbb f9e3 19bf 8ffe b9be
00000390: 73af a5bd ac14 203d 09be cfbb f612 0c3e
000003a0: 32e5 ddbe 35ab 2bbe 9316 563e bc6b f8be
000003b0: dd07 09be afe6 c13d 1588 9c3e 4003 2c3d
000003c0: a88a babe 8ec3 55bd e4df 94be 9573 84bd
000003d0: 3469 aabd 4aa5 10be e2e0 fdba 8838 9fbe
000003e0: 43c9 8cbd 2120 67be 2da6 0bbe 5777 003f
000003f0: cc84 e53e 5b5c 083f 98c8 bb3e fdba 8e3d

critic.0.bias f4 [256]
1.1619415 0.8786351 0.09202885 0.40879497 -0.054861363 0.585924 0.8760315 -0.25427786
0.3592263 0.5054711 0.9590412 0.5797622 0.45370245 0.14011407 0.2954244 -0.087833
0.3314622 1.01089 -0.07678972 0.5765684 0.09829058 0.4849592 0.31822097 0.1651109
-0.21916413 0.46344453 0.2896808 -0.008846601 0.20886338 0.05539235 0.97297 0.45835486
0.2827477 0.40069845 0.2569901 -0.18960378 0.17190024 -0.046726454 0.19482417 1.097659
0.09957264 0.6465865 -0.90659386 0.5486569 -0.102965556 -0.05303766 0.044189923 -0.19612928
0.8309955 0.11793991 -0.119595766 0.6279005 0.04743788 0.1948642 0.6455184 0.045485992
-0.11668009 0.86114764 0.925137 0.27085245 -0.008756183 -0.01603701 0.022388624 0.55210286
0.3262158 -0.09176513 0.1498245 0.62754446 1.0312034 0.7411568 0.18157747 0.6994379
0.5975292 -0.023339616 0.8202529 -0.016292349 0.37562683 0.33288443 0.05999075 -0.07010885
0.77613485 0.06835678 0.3066001 0.034742013 0.020864474 0.09676964 -0.030749204 0.3942718
0.13107571 -0.12428459 0.2102521 0.21219705 0.5398055 0.39666742 0.6213514 0.095750585
0.2911716 1.0514187 0.75592065 0.22527714 -0.21090116 0.10129049 -0.013539426 0.39534098
0.12938155 -0.12407107 0.83230513 0.11316447 0.7182093 -0.023823408 0.042857733 0.9741805
0.33923268 0.21477795 0.3770441 1.1294461 -0.38810664 -0.025375776 0.66511035 -0.10741063
0.15234601 -0.7876887 0.9141401 0.14266016 0.62782735 0.060216747 -0.086920194 0.06152965
0.31071907 0.14425363 0.90176225 -0.05590106 0.1532832 -0.16253568 0.2329697 0.7591411
0.32944092 0.22345684 0.43535748 -0.46336687 0.152797 0.08429339 0.24625875 0.36944777
0.46117923 -0.20596133 0.5793732 0.3999539 0.5279857 0.53872776 0.11736736 0.94933677
0.7434307 0.19382885 0.24709895 0.4777408 -0.040315352 0.5229933 0.039364636 -0.023553059
-1.0492816 0.79240245 0.41987988 0.55497414 0.24963441 0.9293225 0.24630816 0.2678459
-0.17306496 0.37756637 0.40353292 0.81597185 0.36036277 0.37020817 0.31580284 0.038706288
0.34750718 0.8106128 -0.11594441 0.9653572 0.15536469 -0.05180055 -0.4581752 0.39992523
-0.13771491 -0.24491073 0.7057446 0.7313361 -0.12418349 0.62478554 -0.7137251 0.9809305
0.19522619 0.49331924 0.668369 0.71689135 -0.012159592 0.4147546 -0.050996132 0.77949387
0.5750562 -0.027174369 -0.05379994 0.8468783 0.11727008 0.041118935 0.6170282 0.19894315
-0.30749115 0.5468083 0.68934584 0.7570226 0.34610605 0.12257105 0.88946223 0.2632265
0.67715156 0.40452492 -0.0023579642 0.8129538 0.57445 0.2130153 0.80828327 0.64190775
0.28917363 0.444975 0.35402492 -0.0332168 0.51203966 0.16631003 0.24994008 0.9485759
-0.07906495 0.23123023 0.40840387 0.59378177 0.011295432 -0.018030034 0.71045214 0.36189407
0.03375919 0.2916826 0.43485087 -0.08732449 0.7110243 -0.088581525 -0.1616894 -0.015145932
0.8637916 -0.19632323 0.5357873 0.54653084 0.7320595 0.3983999 0.760274 -0.17761154
00000000: 80ba 943f 3bee 603f 9f79 bc3d 934d d13e
00000010: 4fb6 60bd 1eff 153f 9a43 603f b530 82be
00000020: 82ec b73e 8e66 013f b983 753f 4c6b 143f
00000030: b04b e83e 107a 0f3e de41 973e cae1 b3bd
00000040: 6ab5 a93e d864 813f ee43 9dbd fd99 133f
00000050: 924c c93d 924c f83e dced a23e d512 293e
00000060: 906c 60be 9a48 ed3e 0b51 943e 55f1 10bc
00000070: 48e0 553e 17e3 623d 9014 793f 7dad ea3e
00000080: 4ec4 903e 5928 cd3e 3594 833e 7e27 42be
00000090: 9e06 303e 3d64 3fbd fd7f 473e 1780 8c3f
000000a0: beec cb3d b186 253f 8916 68bf c774 0c3f
000000b0: 9bdf d2bd 043e 59bd 7e00 353d 1dd6 48be
000000c0: 1fbc 543f 7b8a f13d a0ee f4bd 16be 203f
000000d0: 394e 423d 7b8a 473e b240 253f 854f 3a3d
000000e0: f9f5 eebd 2c74 5c3f c7d5 6c3f 2cad 8a3e
000000f0: 1876 0fbc 0c60 83bc 5968 b73c 9d56 0d3f
00000100: c205 a73e 5bef bbbd 986b 193e c1a6 203f
00000110: 79fe 833f 74bc 3d3f 72ef 393e 5d0e 333f
00000120: acf7 183f b932 bfbc 18fc 513f 8877 85bc
00000130: 2952 c03e d46f aa3e dcb8 753d 3b95 8fbd
00000140: c6b0 463f a4fe 8b3d b0fa 9c3e a44d 0e3d
00000150: f9eb aa3c 292f c63d c1e5 fbbc fedd c93e
00000160: b638 063e eb88 febd 544c 573e 2f4a 593e
00000170: b130 0a3f fe17 cb3e e310 1f3f e218 c43d
00000180: 7214 953e e394 863f 0484 413f 0daf 663e
00000190: 79f6 57be 6371 cf3d 78d4 5dbc 226a ca3e
000001a0: 997c 043e f918 febd f311 553f c6c2 e73d
000001b0: 91dc 373f 4f29 c3bc 978b 2f3d e563 793f
000001c0: e8af ad3e c0ee 5b3e ed0b c13e b191 903f
000001d0: eab5 c6be dce0 cfbc ac44 2a3f 1bfa dbbd
000001e0: 9800 1c3e f7a5 49bf 1605 6a3f 8115 123e
000001f0: 4bb9 203f d6a5 763d 3703 b2bd 8406 7c3d
00000200: 9216 9f3e 39b7 133e e4d9 663f 83f8 64bd
00000210: 45f6 1c3e c16f 26be 9c8f 6e3e 1257 423f
00000220: 7bac a83e dfd1 643e 2de7 de3e 6c3e edbe
00000230: d176 1c3e 03a2 ac3d 412b 7c3e 4228 bd3e
00000240: af1f ec3e 87e7 52be cd51 143f c2c6 cc3e
00000250: 122a 073f 10ea 093f 4c5e f03d bc07 733f
00000260: 7951 3e3f 127b 463e 8207 7d3e 719a f43e
00000270: b621 25bd e4e2 053f d03c 213d 58f2 c0bc
00000280: dc4e 86bf e3da 4a3f 7ffa d63e c912 0e3f
00000290: 2aa0 7f3e 14e8 6d3f 3538 7c3e 1923 893e
000002a0: f137 31be 6150 c13e de9b ce3e 88e3 503f
000002b0: 7881 b83e ed8b bd3e e9b0 a13e 7c8a 1e3d
000002c0: 76ec b13e 5284 4f3f 4374 edbd a621 773f
000002d0: ec17 1f3e d02c 54bd f195 eabe 00c3 cc3e
000002e0: 2305 0dbe e1c9 7abe aeab 343f d838 3b3f
000002f0: ea53 febd f2f1 1f3f b0b6 36bf 431e 7b3f
00000300: 60e9 473e 5794 fc3e 3b1a 2b3f 3186 373f
00000310: 0639 47bc b75a d43e 52e1 50bd e98c 473f
00000320: e236 133f c89c debc 535d 5cbd 04cd 583f
00000330: 4c2b f03d 546c 283d 8ff5 1d3f c1b7 4b3e
00000340: 7b6f 9dbe a1fb 0b3f f878 303f 3ccc 413f
00000350: d034 b13e 8806 fb3d ccb3 633f a0c5 863e
00000360: ce59 2d3f e41d cf3e 1388 1abb be1d 503f
00000370: 280f 133f af20 5a3e a7eb 4e3f 1154 243f
00000380: 910e 943e c3d3 e33e c142 b53e 570e 08bd
00000390: 0815 033f 2d4d 2a3e 4bf0 7f3e dfd5 723f
000003a0: ceec a1bd 9ec7 6c3e 501a d13e 1502 183f
000003b0: 7a10 393c b9b3 93bc 31e0 353f 2e4a b93e
000003c0: 1447 0a3d 6c57 953e c6a4 de3e 2fd7 b2bd
000003d0: b005 363f 3b6a b5bd e891 25be a526 78bc
000003e0: 7221 5d3f f508 49be 5b29 093f 72e9 0b3f
000003f0: 4068 3b3f 12fb cb3e 51a1 423f cddf 35be

critic.2.weight f4 [256, 256]
-0.020779282 0.14562677 -0.10047682 0.035308387 -0.31153208 0.13886452 -0.03138625 -0.21069025
-0.15472895 -0.03463062 0.11901229 0.26796064 0.092525996 -0.20858584 0.45373347 -0.19857094
0.4015125 0.5192291 0.30442345 -0.016121607 0.3050345 0.30639714 0.28058004 0.18317518
0.101157576 -0.0077933636 0.4347628 0.10256604 0.6420199 0.2754766 0.0382966 0.03483753
-0.10973714 0.50577796 0.26875263 -0.006076887 -0.35626793 -0.097981706 0.039365865 0.025142113
0.197766 -0.069690526 -0.44602522 0.28594747 -0.051471222 0.449666 0.15665531 -0.15442605
0.12516344 -0.2218034 0.2980254 0.05025146 0.2403162 0.28522056 0.33972114 0.5113842
-0.2345557 0.2198731 0.0661734 0.32679483 0.19309783 0.635507 0.08991772 0.33367535
0.43562642 0.30368295 -0.49249095 0.0049572405 -0.04680227 0.1934149 0.12069138 0.11041392
0.19561003 -0.16776417 0.2524796 0.23296659 -0.32180923 0.106682345 0.21135062 0.45628163
0.040232286 -0.041906796 -0.044629205 0.42846185 0.33213666 0.36661103 0.28471395 0.42010427
0.11762815 0.2869614 0.33237487 0.43857497 0.271762 -0.12901904 -0.2783815 0.2100548
0.13091281 0.100271046 -0.003918664 0.31814262 -0.512436 0.7765561 0.46513805 0.21248391
0.38604847 0.20794131 0.119844705 0.50609565 0.14526542 0.07164158 0.23705441 0.035607163
0.35593703 0.3239324 0.39071885 -0.02800491 -0.4232999 -0.07530501 0.067208074 0.19180448
0.2928552 -0.36115128 0.18041341 0.39226586 0.3012564 -0.32062128 0.37087217 -0.29418367
0.124606326 0.08705391 -0.089793645 0.42986262 0.06525783 -0.25225174 0.29903468 0.014483925
0.31741565 0.3012734 0.28210324 0.012110027 0.26368997 0.3159158 0.42437124 0.09284458
0.035030294 -0.006971359 0.10404802 0.13678692 0.17506272 0.021178497 0.22709471 -0.032653913
-0.1287015 -0.10600006 -0.17442423 0.4342128 0.3290529 -0.018286778 0.222046 0.08048028
-0.4960161 0.03201804 0.066539556 0.0940842 0.5334259 0.15189129 0.15588148 0.10421798
0.6008306 0.33752385 0.37993452 0.06548528 0.30229673 0.13809343 -0.20698126 0.6161944
0.15080996 0.14468127 0.008298697 0.18203498 0.35866335 0.3994011 0.5313858 0.11246978
0.056918517 0.5112318 0.08068007 0.30333018 0.14451031 0.5193795 -0.3887163 -0.115385324
0.12588352 0.123135805 0.25589782 0.07530197 0.23808354 0.1734758 0.113402314 0.17208822
0.11312404 0.10815345 -0.12274624 -0.06680983 0.31227395 -0.098809704 0.1192359 0.27288628
-0.07343493 -0.33668327 0.19083531 -0.074144706 0.3568385 0.2342937 0.16950424 -0.021699367
0.14426178 0.2739408 0.35135674 -0.21948147 -0.4714191 0.25483033 0.10173994 0.33584425
0.3258845 0.44136837 0.043933 0.31816432 0.074788764 0.278397 0.40702605 0.21958952
0.31490535 0.371959 0.43608844 0.19571851 0.8078836 0.4254178 -0.058204465 0.36553603
0.0637485 0.042953096 0.2492975 0.43734887 0.55149734 0.71653175 -0.026519133 0.084023945
-0.015810909 0.38095278 -0.14536284 0.19984704 -0.030625481 -0.11790882 -0.0759143 0.14617547
00000000: 5039 aabc 2f1f 153e cac6 cdbd 879f 103d
00000010: 2281 9fbe 8032 0e3e de8e 00bd 2fbf 57be
00000020: 4471 1ebe d6d8 0dbd b7bc f33d 2332 893e
00000030: 457e bd3d 8797 55be c14f e83e 2e56 4bbe
00000040: 0c93 cd3e 33ec 043f 64dd 9b3e 7611 84bc
00000050: 7b2d 9c3e 16e0 9c3e 30a8 8f3e 4692 3b3e
00000060: b42b cf3d 795f ffbb 3b99 de3e 250e d23d
00000070: 6b5b 243f 450b 8d3e e5dc 1c3d ccb1 0e3d
00000080: debd e0bd aa7a 013f f299 893e 9f20 c7bb
00000090: c068 b6be a2aa c8bd 1a3e 213d d5f6 cd3c
000000a0: 2c83 4a3e e8b9 8ebd 6b5d e4be b567 923e
000000b0: 7dd3 52bd 9f3a e63e 406a 203e dd21 1ebe
000000c0: d82a 003e 6e20 63be c996 983e 7ad4 4d3d
000000d0: 7315 763e 6e08 923e eeef ad3e 13ea 023f
000000e0: 5f2f 70be 6a26 613e eb85 873d a751 a73e
000000f0: 70bb 453e 96b0 223f c826 b83d 7fd7 aa3e
00000100: 6d0a df3e 557c 9b3e c627 fcbe 5970 a23b
00000110: bdb3 3fbd 8e0e 463e 0b2d f73d b120 e23d
00000120: ff4d 483e 5fca 2bbe 0245 813e cb8e 6e3e
00000130: 2ec4 a4be 467c da3d 4c6c 583e bf9d e93e
00000140: 9cca 243d 76a6 2bbd 1dcd 36bd 5a5f db3e
00000150: d10d aa3e 71b4 bb3e 07c6 913e e817 d73e
00000160: 07e7 f03d 9bec 923e 0a2d aa3e e68c e03e
00000170: 6424 8b3e 911d 04be 0588 8ebe 9b18 573e
00000180: 020e 063e e85a cd3d 2368 80bb 97e3 a23e
00000190: 012f 03bf 61cc 463f 9326 ee3e 6295 593e
000001a0: 25a8 c53e 91ee 543e 2471 f53d 7c8f 013f
000001b0: 75c0 143e d2b8 923d 64be 723e d1d8 113d
000001c0: 613d b63e 78da a53e 4d0c c83e 8e6a e5bc
000001d0: c4ba d8be 8339 9abd 63a4 893d 6568 443e
000001e0: 1ef1 953e d2e8 b8be 4bbe 383e 12d7 c83e
000001f0: 473e 9a3e 7928 a4be f5e2 bd3e 3e9f 96be
00000200: 9a31 ff3d 5249 b23d bbe5 b7bd f416 dc3e
00000210: e6a5 853d 2427 81be 131b 993e fc4d 6d3c
00000220: 4e84 a23e 8240 9a3e d66f 903e 2269 463c
00000230: 5f02 873e b7bf a13e 3047 d93e 4d25 be3d
00000240: ed7b 0f3d ff6f e4bb 2117 d53d df11 0c3e
00000250: a443 333e 877e ad3c 848b 683e 1cc0 05bd
00000260: 53ca 03be 8f16 d9bd 449c 32be 2451 de3e
00000270: 9f79 a83e 27ce 95bc 0760 633e d8d2 a43d
00000280: d2f5 fdbe 5925 033d e445 883d 38af c03d
00000290: 9a8e 083f 6489 1b3e 659f 1f3e 3c70 d53d
000002a0: 09d0 193f edcf ac3e c786 c23e 251d 863d
000002b0: a3c6 9a3e 5d68 0d3e e5f2 53be ebbe 1d3f
000002c0: ed6d 1a3e 5427 143e 42f7 073c 6167 3a3e
000002d0: b9a2 b73e 4d7e cc3e e608 083f 8e56 e63d
000002e0: 6423 693d 16e0 023f 983b a53d 184e 9b3e
000002f0: 83fa 133e 0ef6 043f d305 c7be 244f ecbd
00000300: 9ce7 003e a02e fc3d 0a05 833e eb37 9a3d
00000310: 2ccc 733e a4a3 313e 793f e83d e537 303e
00000320: 94ad e73d 8e7f dd3d 6162 fbbd 98d3 88bd
00000330: 5fe2 9f3e be5c cabd f431 f43d c0b7 8b3e
00000340: 0d65 96bd c061 acbe 556a 433e 2ed9 97bd
00000350: 89b3 b63e b0ea 6f3e 8592 2d3e dfc2 b1bc
00000360: 5cb9 133e f841 8c3e 08e5 b33e c0bf 60be
00000370: d85d f1be 1f79 823e 085d d03d c7f3 ab3e
00000380: 55da a63e 09fb e13e 17f3 333d 6fe6 a23e
00000390: da2a 993d 0d8a 8e3e b865 d03e 13dc 603e
000003a0: 463b a13e 6971 be3e fc46 df3e 6f6a 483e
000003b0: 76d1 4e3f 5dd0 d93e ce67 6ebd 8a27 bb3e
000003c0: 938e 823d 96ef 2f3d d847 7f3e 31ec df3e
000003d0: ee2e 0d3f a06e 373f a73e d9bc bf14 ac3d
000003e0: e185 81bc 3e0c c33e ffd9 14be b4a4 4c3e
000003f0: 4ae2 fabc 2e7a f1bd f578 9bbd 06af 153e

critic.2.bias f4 [256]
0.9848849 1.0636058 -0.2257883 1.0591406 0.041146908 0.8203347 0.7046978 1.0478113
0.88717604 0.8659428 -0.056793366 0.9310187 -0.098850496 0.9388995 1.0203705 0.6142136
1.1186906 0.40653634 0.58074355 0.9726225 0.48470545 0.82446885 0.74309427 -0.06528489
0.8634043 0.20992328 0.27890354 -0.07726582 0.7494175 0.12745078 0.26049924 0.88056624
1.1306815 1.1885107 0.685961 1.0279459 -0.045721654 0.98227 0.066793315 0.6403685
0.7768574 0.9519717 -0.02618573 0.40198427 0.74767226 0.10833826 0.76214874 0.93119955
-0.081762925 -0.09633693 0.15643328 -0.019676635 0.9917672 1.1948531 1.0106877 0.5978101
0.092921026 0.9555379 1.0979654 1.1393534 0.7346081 0.25075498 0.04013532 1.1185545
0.45790803 1.0325578 1.155231 0.9272361 0.53142154 -0.01836475 0.8856584 1.0022218
0.24555005 1.0515319 0.30346885 0.93189055 0.050517727 0.07789611 0.12817602 1.0540255
-6.210582e-05 -0.23870662 0.76593125 1.1063626 0.01813476 0.09015223 0.065500215 1.0774843
-0.07659514 1.1415846 -0.27217042 0.039736137 0.0011131335 0.16121317 0.85546213 0.83194995
0.8869462 -0.068870395 0.7290948 1.0656443 0.13406102 -0.04304198 -0.015457792 -0.038432043
1.1356015 1.1275297 0.9112136 0.07649962 0.71903026 0.03402233 0.10440731 1.042009
0.9082616 0.065685295 0.8089439 0.14829883 0.3416563 0.84578663 -0.006425871 0.56265235
0.9784343 0.87141395 0.92642206 0.02798548 0.7867656 0.09653827 1.0106413 1.107138
1.0617955 0.04887905 0.05332575 0.88577676 1.118937 0.75015193 0.7999838 0.4876832
0.6440531 1.0017722 0.03289981 1.0268542 0.9261 0.21490408 -0.17840749 0.0430576
0.08423101 0.89477575 0.8861429 0.88991934 1.1728092 0.28293356 1.1349859 0.1285088
0.8518119 0.34786257 1.0480398 0.9608663 1.0551434 0.97299576 -0.08640217 -0.17189558
0.19711213 0.0872815 0.08227391 0.6650666 0.8797603 1.0388048 0.0073707993 0.831729
0.3337469 0.0035533456 0.9879482 0.79101956 0.5644045 1.0157088 0.23772964 0.18076126
0.40362215 -0.084130645 1.0350664 0.112156 0.75378025 0.99602354 0.84070987 -0.08229394
1.0973138 -0.10624061 1.0844731 0.7626121 1.082096 0.94557416 0.95830876 0.7052163
0.23705094 0.1298544 -0.040994138 0.1326086 0.05467663 0.9942334 1.0876715 1.0083265
-0.057146996 1.0984136 0.9719219 0.14668348 -0.08435878 1.0709918 -0.02883045 0.8928641
0.74919724 0.4470163 0.25634187 -0.113790005 0.8931794 0.9361118 0.6933168 1.119841
-0.0457552 0.9609113 0.3231001 1.1258605 0.11597415 0.06993565 0.97486603 0.9309858
0.043170474 0.91182405 1.0867299 0.14527655 0.0059208875 0.9265257 0.72482985 -0.024292896
0.7006379 0.3342564 0.69569457 0.97002006 -0.054420825 0.62621737 0.41846722 0.8452362
0.9056079 0.10905534 0.99488634 0.2933304 1.0969399 -0.07324215 0.07315807 -0.112911984
-0.040634803 1.1439492 0.90544873 0.8048164 0.0077659567 -0.015647694 0.0069460706 1.1387472
00000000: 6b21 7c3f 3c24 883f 0c35 67be eb91 873f
00000010: a989 283d 7401 523f 1367 343f ae1e 863f
00000020: f81d 633f 6dae 5d3f 29a0 68bd 3e57 6e3f
00000030: 2172 cabd b85b 703f 809b 823f 1a3d 1d3f
00000040: 4131 8f3f 8825 d03e 9cab 143f cafd 783f
00000050: 502b f83e 6410 533f 6d3b 3e3f 16b4 85bd
00000060: 1008 5d3f 21f6 563e 72cc 8e3e 8b3d 9ebd
00000070: d3d9 3f3f 7582 023e 2860 853e ca6c 613f
00000080: 2cba 903f 1e21 983f 249b 2f3f bb93 833f
00000090: a146 3bbd 0c76 7b3f efca 883d 31ef 233f
000000a0: 20e0 463f 6bb4 733f 7583 d6bc e2d0 cd3e
000000b0: 7367 3f3f 73e0 dd3d 2e1c 433f 1863 6e3f
000000c0: 5273 a7bd 4c4c c5bd 0c30 203e e530 a1bc
000000d0: 75e4 7d3f f2f0 983f 375e 813f 150a 193f
000000e0: 614d be3d 229e 743f 218a 8c3f 55d6 913f
000000f0: 470f 3c3f f562 803e ef64 243d cb2c 8f3f
00000100: ec72 ea3e db2a 843f 9cde 933f 585f 6d3f
00000110: 3e0b 083f ac71 96bc 82ba 623f ce48 803f
00000120: 7971 7b3e 9998 863f 4560 9b3e 6190 6e3f
00000130: adeb 4e3d ff87 9f3d 9340 033e 4fea 863f
00000140: cf3e 82b8 826f 74be 1214 443f 4a9d 8d3f
00000150: 598f 943c bba1 b83d fa24 863d 01eb 893f
00000160: eadd 9cbd 721f 923f ec59 8bbe 5cc2 223d
00000170: 90e6 913a 1115 253e 91ff 5a3f acfa 543f
00000180: e80e 633f ec0b 8dbd f5a5 3a3f 0867 883f
00000190: 4b47 093e ca4c 30bd ae42 7dbc eb6a 1dbd
000001a0: 645b 913f e552 903f 4b45 693f d5ab 9c3d
000001b0: 5e12 383f 005b 0b3d 80d3 d53d 8d60 853f
000001c0: d583 683f 0386 863d f316 4f3f a6db 173e
000001d0: 93ed ae3e 7985 583f 1d90 d2bb fc09 103f
000001e0: ac7a 7a3f fc14 5f3f ff29 6d3f ce41 e53c
000001f0: 7869 493f dbb5 c53d b25c 813f b3b6 8d3f
00000200: eae8 873f 6635 483d 1a6c 5a3d 44c2 623f
00000210: 5439 8f3f f509 403f bdcb 4c3f 9db1 f93e
00000220: aae0 243f 123a 803f f3c1 063d f56f 833f
00000230: e414 6d3f d10f 5c3e 74b0 36be 2a5d 303d
00000240: 4f81 ac3d 0610 653f 43da 623f c1d1 633f
00000250: 9d1e 963f abdc 903e 3847 913f d097 033e
00000260: 5810 5a3f 0b1b b23e 2b26 863f 55fb 753f
00000270: f00e 873f 4016 793f 9ff3 b0bd 6505 30be
00000280: c3d7 493e a5c0 b23d 397f a83d ce41 2a3f
00000290: f937 613f 8ef7 843f bf86 f13b 31ec 543f
000002a0: e0e0 aa3e 3fdf 683b 2cea 7c3f 4280 4a3f
000002b0: d07c 103f bf02 823f 666f 733e 7b19 393e
000002c0: 90a7 ce3e b04c acbd 0e7d 843f 0cb2 e53d
000002d0: bef7 403f 66fb 7e3f c338 573f ba89 a8bd
000002e0: c774 8c3f ad94 d9bd 04d0 8a3f 8c3a 433f
000002f0: 1f82 8a3f 2611 723f b953 753f 0e89 343f
00000300: 7bbd 723e 8df8 043e 78e9 27bd 8dca 073e
00000310: 9af4 5f3d 1586 7e3f d238 8b3f d810 813f
00000320: f812 6abd d198 8c3f e0cf 783f 3234 163e
00000330: 4cc4 acbd 4216 893f d62d ecbc be92 643f
00000340: 64cb 3f3f 52df e43e 3e3f 833e bc0a e9bd
00000350: 68a7 643f 06a5 6f3f 367d 313f f356 8f3f
00000360: ce69 3bbd 48fe 753f 606d a53e 321c 903f
00000370: db83 ed3d 6c3a 8f3d d290 793f 1655 6e3f
00000380: 86d3 303d 4d6d 693f f719 8b3f 60c3 143e
00000390: 0104 c23b ca30 6d3f 738e 393f e501 c7bc
000003a0: 015d 333f a823 ab3e 0a19 323f 3c53 783f
000003b0: 5fe8 5ebd c84f 203f 5641 d63e 6661 583f
000003c0: ebd5 673f 6858 df3d dfb0 7e3f 672f 963e
000003d0: 8768 8c3f fbff 95bd e6d3 953d 663e e7bd
000003e0: ae70 26bd ed6c 923f 7dcb 673f 7308 4e3f
000003f0: 9179 fe3b 982f 80bc dd9b e33b 78c2 913f

critic.4.weight f4 [1, 256]
-0.037798814 -0.061260674 0.24724929 -0.104792 0.35244432 -0.0137944855 0.13599233 -0.10998497
0.2848013 0.4939787 0.11353218 -0.0072752433 0.20397946 -0.06133077 -0.051185645 0.61801106
-0.087201566 0.6887836 0.5111277 -0.019251652 0.7700213 -0.0023565937 0.20916054 0.046460997
-0.0028244308 0.48113993 0.6741038 0.04673372 0.104412906 0.3145073 0.47305164 -0.014419064
-0.0950567 -0.17789023 0.11534715 -0.08413899 0.48923442 0.11205347 0.63319564 0.5948335
0.12779105 -0.027811458 0.5354063 0.93386614 0.11164683 0.31333828 -0.06300778 -0.02090394
0.2436573 0.0019694667 0.43582046 0.087170325 -0.056898963 -0.21081483 0.11631414 0.89855134
0.36190027 0.5460735 -0.10358582 -0.09597091 0.12664323 0.43204555 0.03725901 -0.10714884
0.71122074 -0.07858997 -0.123917095 -0.034902092 0.5461139 0.39839622 0.38023028 -0.034395844
0.71553314 -0.09836493 0.52317125 0.38165316 0.42426413 0.315226 0.48981574 -0.04593987
0.46792716 0.12407454 0.4685966 -0.07185463 0.15309992 0.4986293 0.5115791 -0.06381045
-0.011751228 -0.12513804 0.117072165 0.08805074 0.049799476 0.5445289 -0.0045081894 -0.004143381
-0.011150998 0.27492714 0.12034986 -0.09491487 0.48967347 0.026391676 0.109066196 0.04800746
-0.09392938 -0.12505595 -0.03387892 0.4294503 0.13583922 0.3203046 0.29632315 -0.09524981
0.51825875 0.41448128 -0.00083980383 0.4280888 0.47262362 -0.024738774 0.09080168 0.47967273
-0.02508973 0.1274776 -0.014588937 0.23909673 -0.0040601906 0.15166959 -0.048376307 -0.10097004
-0.07111614 0.02426967 0.06910675 0.44816858 -0.105064236 0.10000566 0.2215671 0.6888881
0.07989779 -0.07642529 0.42917243 -0.041025847 0.45394263 0.5442607 0.31107458 0.34646854
0.5093808 0.41543388 -0.012708846 0.5295334 -0.12728259 0.8693026 -0.09819088 0.5460686
0.16646507 0.7157123 -0.06086359 0.37179455 -0.06356157 -0.018966392 0.39932942 0.15467456
0.58577377 0.15476792 0.30339926 0.10384276 -0.009822112 -0.09834044 0.010023414 0.1297997
0.04814279 0.322483 0.36000463 0.12393778 0.6978473 -0.053162973 0.57981986 0.5925835
0.7052739 0.25366327 -0.10772752 0.4985531 0.11389327 -0.07364631 -0.00018444787 0.0065414542
-0.126671 0.323377 -0.083655305 0.08139494 -0.096989565 -0.038688734 -0.051073775 0.5972667
0.45320117 0.53285307 -0.0047129816 0.32166734 0.057021808 -0.07334937 -0.11105241 -0.04280841
0.0047483966 -0.076842085 -0.061416645 0.5712128 -0.0039061634 -0.053078335 -0.0032807947 0.3808684
0.13771902 0.4997717 0.44445065 0.4229269 0.5460092 0.37615642 0.5685519 -0.085706055
0.10151025 -0.029517071 0.604034 -0.111931816 0.539333 0.085373625 -0.051258776 -0.0150360335
0.029473374 -0.01534788 -0.107466705 0.508312 0.43904135 0.14398222 0.24678579 0.24897
0.12815943 0.63505805 0.59100515 0.3037903 0.014043337 0.55534214 0.68909895 0.21882047
0.5456408 0.4881089 0.47572336 0.52046156 -0.094526544 0.25375634 0.4397141 0.16921838
0.04040781 -0.12031936 0.14102304 0.12026976 0.0389714 0.07356623 0.04292768 -0.11821318
00000000: eed2 1abd 79ec 7abd eb2e 7d3e 309d d6bd
00000010: 9573 b43e 4402 62bc 9341 0b3e cd3f e1bd
00000020: 7ad1 913e c7ea fc3e 8f83 e83d 2a65 eebb
00000030: fedf 503e f935 7bbd 0aa8 51bd f935 1e3f
00000040: bc96 b2bd 1f54 303f 44d9 023f a4b5 9dbc
00000050: 1e20 453f 1571 1abb 2e2e 563e e34d 3e3d
00000060: 161a 39bb f957 f63e 1192 2c3f db6b 3f3d
00000070: 6fd6 d53d 1a07 a13e d333 f23e f03d 6cbc
00000080: 16ad c2bd db28 36be 203b ec3d 1051 acbd
00000090: ef7c fa3e 4a7c e53d 1c19 223f 0247 183f
000000a0: a8db 023e dbd4 e3bc 6310 093f da11 6f3f
000000b0: 18a7 e43d e06d a03e 390a 81bd bd3e abbc
000000c0: 4d81 793e 2b12 013b dc23 df3e 5b86 b23d
000000d0: e30e 69bd d8df 57be 1c36 ee3d 7607 663f
000000e0: fe4a b93e 79cb 0b3f cd24 d4bd 658c c4bd
000000f0: c3ae 013e 1335 dd3e e79c 183d da70 dbbd
00000100: 9012 363f c7f3 a0bd 3fc8 fdbd 7ff5 0ebd
00000110: 1fce 0b3f 97fa cb3e 8bad c23e a8e2 0cbd
00000120: 2e2d 373f 8d73 c9bd 8dee 053f 0b68 c33e
00000130: 2639 d93e 4d65 a13e 21c9 fa3e 722b 3cbd
00000140: 2694 ef3e cb1a fe3d e5eb ef3e 8528 93bd
00000150: 3ac6 1c3e 574c ff3e d9f6 023f 0eaf 82bd
00000160: 3988 40bc 3024 00be 88c3 ef3d f253 b43d
00000170: 89fa 4b3d 3f66 0b3f 6fb9 93bb 33c5 87bb
00000180: adb2 36bc 40c3 8c3e fd79 f63d ba62 c2bd
00000190: 7bb6 fa3e 5b33 d83c 195e df3d 78a3 443d
000001a0: 0c5e c0bd ab0e 00be 9fc4 0abd e9e0 db3e
000001b0: 7019 0b3e f7fe a33e abb7 973e 5512 c3bd
000001c0: 9bac 043f e436 d43e 4826 5cba 752e db3e
000001d0: b9fb f13e f8a8 cabc 3bf6 b93d aa97 f53e
000001e0: fa88 cdbc 7d89 023e 7006 6fbc c6d5 743e
000001f0: 590b 85bb 464f 1b3e 3c26 46bd 61c9 cebd
00000200: 57a5 91bd 30d1 c63c d787 8d3d 5a76 e53e
00000210: eb2b d7bd c4cf cc3d 7ce2 623e f85a 303f
00000220: 74a1 a33d dd84 9cbd 7dbc db3e b80a 28bd
00000230: 2b6b e83e ab54 0b3f 2b45 9f3e 5364 b13e
00000240: c866 023f c0b3 d43e c338 50bc 808f 073f
00000250: 5e56 02be 9d8a 5e3f 4d18 c9bd 27cb 0b3f
00000260: d275 2a3e ec38 373f 1a4c 79bd db5b be3e
00000270: 922c 82bd 685f 9bbc e874 cc3e 0263 1e3e
00000280: 45f5 153f 7b7b 1e3e 2657 9b3e 83ab d43d
00000290: ecec 20bc b666 c9bd 3f39 243c 36ea 043e
000002a0: 6031 453d 7e1c a53e 8752 b83e 17d3 fd3d
000002b0: 1fa6 323f 6bc1 59bd 136f 143f 8db3 173f
000002c0: d58c 343f 27e0 813e 3fa0 dcbd 5a42 ff3e
000002d0: e040 e93d e0d3 96bd 5968 41b9 b259 d63b
000002e0: 0bb6 01be ac91 a53e 7953 abbd 64b2 a63d
000002f0: 77a2 c6bd 1478 1ebd bc32 51bd 78e6 183f
00000300: fc09 e83e 0f69 083f 5b6f 9abb 95b1 a43e
00000310: b38f 693d 3238 96bd 726f e3bd df57 2fbd
00000320: 7098 9b3b 625f 9dbd 0590 7bbd 013b 123f
00000330: 8cfe 7fbb ab68 59bd 9a02 57bb 2f01 c33e
00000340: 3706 0d3e 14e2 ff3e 098f e33e e089 d83e
00000350: 42c7 0b3f 9397 c03e 9e8c 113f a886 afbd
00000360: 9be4 cf3d c9cd f1bc f9a1 1a3f 823c e5bd
00000370: ba11 0a3f 5ed8 ae3d b9f4 51bd b259 76bc
00000380: 2572 f13c ad75 7bbc 8117 dcbd bc20 023f
00000390: 07ca e03e 1370 133e 6ab5 7c3e fef1 7e3e
000003a0: 3a3c 033e 2a93 223f 1d4c 173f 678a 9b3e
000003b0: 0616 663c e72a 0e3f ca68 303f 7912 603e
000003c0: 1eaf 0b3f 69e9 f93e 0392 f33e f83c 053f
000003d0: 2297 c1bd 5aec 813e 3522 e13e 9547 2d3e
000003e0: a982 253d ff69 f6bd 5868 103e fe4f f63d
000003f0: 7aa0 1f3d e4a9 963d efd4 2f3d c019 f2bd
