Tu/agent2/ppo/actor/actor.pth (torch, 471367 bytes, 6 tensors)

actor.0.weight f4 [256, 100]
000000 15 10 a1 be eb 54 86 bd e5 1e 63 3c ac ef 3b be
       -0.31457582 -0.065591656 0.013862346 -0.18353146
000010 24 7a 24 be b6 26 4d 3e 7d ce f8 3d a6 f4 e1 3d
       -0.16062218 0.20034298 0.121487595 0.11032991
000020 fa 39 28 bd e4 d8 70 3e 21 eb 91 bc d2 80 b9 3d
       -0.041070916 0.23520237 -0.017812314 0.09057774
000030 42 4d 36 bd 98 55 30 3d ca 03 54 3d d1 07 20 3e
       -0.044507273 0.04305038 0.051761426 0.15627982
000040 ec 15 92 3e f3 e0 65 bd 3e 37 31 3e 30 01 22 3d
       0.2853235 -0.05612273 0.1730623 0.039551914
000050 de 2e c0 bd 9b 7d 3b 3e 6f 38 81 be e6 fc 3a 3e
       -0.09383939 0.18309633 -0.25238368 0.18260536
000060 f8 de 7b 3e c4 06 6c be f8 a0 45 be dd 45 4e 3e
       0.24596775 -0.23049456 -0.19299686 0.20143838
000070 fe 53 4f 3e 4e d4 03 be 95 e1 07 3e d2 5e b6 3d
       0.20246884 -0.12873957 0.13269646 0.08904804
000080 56 90 60 bd 81 20 92 3d c7 aa fb bd f4 eb 30 3e
       -0.05482515 0.07135106 -0.122884326 0.17277509
000090 9a 52 73 3c c3 ff 0d bd 5b fd f8 bc a6 4c 2c 3e
       0.014851237 -0.03466774 -0.030394247 0.16826114
0000a0 47 55 c7 3d 0f 6a 80 be b2 49 4e 3e cc 4c 84 bc
       0.09733062 -0.25080916 0.201453 -0.0161499
0000b0 fe 76 bf 3c 4e 98 5b bd 60 b8 e9 3c 5c 2a 09 be
       0.02337217 -0.053612046 0.0285303 -0.13395065
0000c0 c6 b1 40 be cd f5 f6 bd 6c 02 e6 3d b6 d6 b5 3d
       -0.18817815 -0.120586015 0.11230931 0.088788435
0000d0 6c 08 13 be 5d 91 02 bc 2b df 43 bd 31 89 66 bc
       -0.14358681 -0.007969228 -0.04782025 -0.014070795
0000e0 b6 b9 71 3d 0e 68 2b 3d 79 07 ef bb c5 63 76 3e
       0.059015 0.04184728 -0.007294592 0.24061497
0000f0 60 08 90 bd ff bb f1 bd 4a 01 11 be e7 2d 38 3d
       -0.070328474 -0.118034355 -0.14160648 0.04496565
000100 17 f3 22 bc 81 af ab bb 42 d2 90 3e 21 1b 53 be
       -0.009945652 -0.0052394276 0.28285414 -0.20615818
000110 5b 0e 01 be 44 93 11 3e f8 be b4 3d 58 df 1e 3d
       -0.12603132 0.14216334 0.08825487 0.038787216
000120 aa 6f 40 3e 39 07 f1 3c a2 9d 16 3d 9b 60 30 be
       0.18792596 0.02942239 0.036771424 -0.17224352
000130 d4 17 29 be f1 07 ac 3e 9a 13 67 be 29 53 ad 3d
       -0.16512996 0.3359981 -0.22566071 0.08463127
000140 e9 75 87 be b1 5b 2e 3e 24 1b 7f be 7b 9c c7 bd
       -0.26457146 0.17027165 -0.24912697 -0.09746643
000150 7b 29 00 3e 56 aa b4 bc 8b a5 75 bd b2 f7 70 3e
       0.12515824 -0.022053879 -0.059972327 0.23531988
000160 2c 54 fc bd 94 35 b1 bd 48 a9 04 be bf 56 14 3d
       -0.12320742 -0.08652797 -0.129552 0.03621554
000170 8a c6 4f 3c a7 2b 58 3e 3e e7 64 be 74 c2 bd bd
       0.012681613 0.21110402 -0.22353837 -0.092656046
000180 dd cd 27 bd 91 40 b5 bd fa 29 4a 3d 16 4b 53 3a
       -0.04096781 -0.08850206 0.04935644 0.00080602
000190 47 da 04 3e a9 16 5d 3d 4d ab 14 be b8 cb 9b bd
       0.12973891 0.05397669 -0.14518471 -0.07607216
0001a0 cd c4 1d be 44 72 86 be f8 24 6c 3d fc 85 a4 bd
       -0.15407105 -0.26259053 0.057652444 -0.08033368
0001b0 d1 7e 41 bd c3 b0 82 be 44 f4 22 bc 3e f3 b4 bd
       -0.047240082 -0.25525483 -0.009945933 -0.08835457
0001c0 b8 d7 af bd 00 3e f6 bd 57 d2 1b be 2a cd 0b bd
       -0.08586067 -0.12023544 -0.15216957 -0.034131207
0001d0 f8 f4 84 bd 94 2d 5c be f0 8b 38 3d 2c 23 10 bd
       -0.064920366 -0.21501762 0.04505533 -0.035189793
0001e0 13 66 57 be c7 e0 6b 3e 91 1d 9b bc 88 28 4b bd
       -0.21035032 0.23034965 -0.018934997 -0.0495992
0001f0 48 7a 43 bc 42 c1 13 bc 40 ef 74 3d a5 48 9c bd
       -0.01193101 -0.009018244 0.05979848 -0.07631043
000200 5b 59 b1 3d 2b 01 ef bc 75 75 19 3e b5 1d 0b 3e
       0.08659621 -0.029175362 0.14986213 0.13585551
000210 f6 ba 22 3e 37 a1 49 bd 43 d4 2d 3c 55 cd 56 3e
       0.15891632 -0.049226012 0.010609689 0.20976765
000220 8b 47 f7 3d 9d d9 cb 3b 95 89 31 3d 59 22 d8 3c
       0.120741926 0.00622101 0.0433441 0.026383566
000230 1f 6d 5f be 96 38 cd 3e 35 4f 34 bd 2d 48 f0 bd
       -0.2181897 0.40082234 -0.04402085 -0.117325164
000240 e3 64 a7 3d b2 66 42 3e db 1c 38 bc c9 96 e2 3d
       0.081735395 0.18984488 -0.011237348 0.11063916
000250 9e c4 96 3d bd 37 93 3b bc e8 30 3a db b3 de 3c
       0.073617205 0.0044927285 0.00067485473 0.027185371
000260 f0 3f 2e bc 3c 78 65 3d e6 4a 52 be 96 ea 13 be
       -0.010635361 0.056022868 -0.20536384 -0.14444956
000270 5b 9a 80 3d d3 e1 1b 3e a3 60 86 be df 91 26 be
       0.06279441 0.15222864 -0.26245603 -0.16266583
000280 00 af 8c 3d 87 26 0a be 87 72 ff bc f1 bd 51 be
       0.06869316 -0.1349126 -0.03118254 -0.20482613
000290 81 c9 43 bd 02 fd 5b 3e 04 56 fd 3c ed b4 c4 3d
       -0.04779959 0.21483234 0.030924805 0.09604821
0002a0 c8 a0 d3 bd 55 dd 66 3e 16 90 21 3e fe cc c7 3d
       -0.10333401 0.22545369 0.1577762 0.09755896
0002b0 9d 19 18 bd 78 0b 0b bd 92 ff b4 3d 45 7e 99 bc
       -0.0371338 -0.033946484 0.08837809 -0.018736968
0002c0 1a 01 89 3d e1 d3 a3 3d 56 ca 06 bd 5f 2e 45 3e
       0.06689663 0.07999397 -0.032907806 0.1925597
0002d0 be e8 18 3e f1 98 3c bd ca 8d 32 3b 21 32 92 bd
       0.14932534 -0.046044294 0.0027245157 -0.071384676
0002e0 23 57 b3 3c 52 5a 1c be 73 a9 78 bd 2b 68 f8 3d
       0.021892136 -0.1526883 -0.060708474 0.121292435
0002f0 d8 35 5d be 84 5c 4a bb 89 93 bf 3c 61 47 90 3d
       -0.21602571 -0.0030877898 0.02338578 0.070448644
000300 04 e1 c4 bd 3b 52 4f 3e 22 05 81 3d 87 fa f2 bd
       -0.09613231 0.20246212 0.06299807 -0.118641905
000310 93 82 81 be 79 11 aa 3b f2 a9 c7 3d 0d 74 bf bd
       -0.25294933 0.005190071 0.09749211 -0.09348307
000320 44 cc bb 39 19 7c 29 3d 50 45 73 3e 0d 87 ac bd
       0.0003581961 0.041378114 0.2375691 -0.084241964
000330 42 ee 2e be ec 75 52 be 34 61 ae bd 04 73 81 bd
       -0.17083076 -0.20552796 -0.08514634 -0.063207656
000340 40 03 99 3d d2 45 ef bd d9 f8 c1 3b b0 4a 8d bd
       0.07471323 -0.11683239 0.0059195575 -0.06899011
000350 b1 f7 4e 3d 31 5f 7a 3e 73 95 e5 bc 60 79 37 3e
       0.050529186 0.24450375 -0.028025365 0.17917395
000360 bd bf 66 bd 69 d8 e8 3d 7d 78 20 3e 4b 51 86 bd
       -0.0563352 0.11369402 0.15670963 -0.06558474
000370 bc 0c a8 bd 4b cb d5 3d 62 18 1a be dc 43 e6 3d
       -0.08205554 0.10439166 -0.15048364 0.11243412
000380 6c af e2 bd 36 b3 a8 3d ea e9 54 3d 7e 0e 6f bd
       -0.11068615 0.08237307 0.05198089 -0.05836343
000390 e8 a9 8e bc b1 80 09 3e 40 ae e1 bd f3 fc 8f bd
       -0.017415002 0.13427998 -0.11019564 -0.07030668
0003a0 17 fb 2f 3d bf b7 97 3d 75 70 5d 3e f2 93 80 be
       0.042964067 0.07408094 0.2162493 -0.25112873
0003b0 7e e5 11 3c b4 ae f1 bd db df 8e bd 52 aa 66 3d
       0.008904813 -0.118009 -0.06976291 0.056314774
0003c0 37 cd b1 be 27 49 81 3c 5a b0 60 bd 30 c3 7b 3e
       -0.3472688 0.015781952 -0.054855682 0.24586177
0003d0 d0 51 03 be 06 ea 26 bd 71 2f e8 bc e5 49 d5 bc
       -0.12824178 -0.040750526 -0.028342934 -0.026036212
0003e0 a5 68 f1 3b 6e 52 c0 3e b7 70 2f 3e 0a f1 fc bc
       0.007367211 0.3756289 0.17132841 -0.030876655
0003f0 2c b1 c3 3e 0e c5 26 3e 9f f5 40 3e bf 76 94 be
       0.3822111 0.16286108 0.18843697 -0.28996846

actor.0.bias f4 [256]
000000 0f 32 45 3d 95 db 80 bd 02 74 65 be c5 97 d3 3c
       0.048143443 -0.06291882 -0.22407535 0.025829205
000010 50 c7 45 3d 1d 05 3b 3e de 49 c0 3c 0f 5f 26 be
       0.048285782 0.1826367 0.023472723 -0.162472
000020 17 b1 c1 bd d1 1c aa 3d ec 3a 0c be 88 1e 01 3e
       -0.09457605 0.083062775 -0.13694352 0.12609303
000030 16 aa ed bd e5 87 20 be 49 78 88 bd 0c a0 05 be
       -0.11604707 -0.1567684 -0.066635676 -0.13049334
000040 32 cb 51 3b bb 72 fd 3b 0c d0 54 bd d4 d1 18 3e
       0.0032011983 0.007734624 -0.05195622 0.14923793
000050 1e af c7 3c 33 56 31 be cc 37 07 be 68 ee 1d be
       0.024375495 -0.17318039 -0.13204879 -0.15422976
000060 97 7a 70 3e 70 95 8f 3d e5 49 04 3c 1d 14 10 bd
       0.23484264 0.07010925 0.008074258 -0.03517543
000070 57 76 85 bd 9a 60 fe 3d 05 e7 76 be 99 59 56 be
       -0.06516712 0.12420769 -0.24111564 -0.20932616
000080 21 bd 58 bd 8e 3b e3 3b 61 f6 a4 bd b2 dc c4 bd
       -0.052914742 0.0069345897 -0.080548055 -0.09612407
000090 66 10 ef 3d 5a be 0b 3d fc 39 36 bd 92 0d 6b bd
       0.1167305 0.03411708 -0.044488892 -0.05738599
0000a0 10 45 cd bd 53 a8 8d bd f0 24 08 bc 2b 65 4c 3e
       -0.10022938 -0.06916871 -0.008309588 0.19960468
0000b0 3c ec 8d 3d 83 df 12 3e ed d0 14 be 1e 79 b0 be
       0.06929824 0.14343075 -0.14532824 -0.34467405
0000c0 41 94 29 be 1e 46 9a bc d1 70 3a 3b d8 b0 cd bd
       -0.1656046 -0.018832263 0.0028448591 -0.10043496
0000d0 5a fa 09 be 8b 6c f4 bd 48 1e 00 be b0 b4 3b 3d
       -0.13474408 -0.119347654 -0.12511551 0.045826614
0000e0 30 9d 5c bd 89 34 c5 bd 7c 58 57 bd 1c c6 5c be
       -0.053860843 -0.09629161 -0.05257462 -0.21559948
0000f0 cd 5a 99 bc 77 b3 b6 bd 14 58 71 be 98 a2 8c be
       -0.018720055 -0.08920949 -0.23568755 -0.274678
000100 53 6b 60 3e 68 50 bb bb 09 1f 94 bd e0 4f 25 bb
       0.21915941 -0.0057163723 -0.07232482 -0.002522461
000110 b2 4d 6f bd 90 71 86 bd 1f 36 61 bd b2 5c 41 be
       -0.058423705 -0.06564629 -0.054983255 -0.18883017
000120 31 f4 af 3d c7 4a b8 bd f4 0f 02 be 1a 32 14 3e
       0.08591498 -0.08998638 -0.12701398 0.14472237
000130 9c 74 21 be e3 76 22 3e 57 8c 00 bd 33 2e aa bd
       -0.15767139 0.15865664 -0.03138384 -0.08309593
000140 70 64 36 be 7c 7f 20 bd 23 6e 71 bd 93 1e 2e bd
       -0.17811751 -0.03918408 -0.058942925 -0.042509627
000150 41 71 d5 bc 88 ca 5a bd ed 86 3f be 95 ea 2c bd
       -0.02605498 -0.053415805 -0.18703814 -0.042215902
000160 8c 6c ee bd 12 f3 a7 bd f7 96 f3 bc 7b 2d 25 bc
       -0.116417974 -0.08200659 -0.029735072 -0.010081644
000170 f0 0e a7 3d 55 14 f8 bd 89 66 b1 3d f5 8a 04 be
       0.08157146 -0.12113253 0.08662135 -0.12943633
000180 d7 da 8e 3b 82 2d 15 3e 7d dd 45 bd e8 46 5f 3c
       0.004359584 0.14568141 -0.04830693 0.013627745
000190 72 79 ab bd 6c 06 2a bd 88 e7 00 be a0 87 4d be
       -0.08372773 -0.04151003 -0.12588322 -0.20071268
0001a0 e9 fd 4e 3e 5d 45 32 3c 23 cf 37 3d a5 d4 b6 bd
       0.20214047 0.010880795 0.044875275 -0.089272775
0001b0 d6 b9 01 be e2 a7 93 bd 87 3e ad bd 9a 48 a9 bc
       -0.12668547 -0.072097555 -0.08459192 -0.020664502
0001c0 54 d6 0f be c5 30 48 be 6e ec 2a be 2f d6 ba 3b
       -0.14046603 -0.19549854 -0.16691753 0.005701802
0001d0 89 3d 47 be c5 72 57 bd c8 17 72 3e 56 6f ce 3c
       -0.19457068 -0.052599687 0.23641884 0.025199573
0001e0 e0 93 39 3e 4c 68 b7 be 07 62 b6 b9 c4 2e a3 3d
       0.18122816 -0.3582176 -0.0003478678 0.07967904
0001f0 e1 c7 2a be 7c 5a 92 bb 90 ff 1e be e3 a7 e5 3d
       -0.1667781 -0.004466353 -0.15527177 0.112136625
000200 d0 58 69 bd 22 6c 2a be 01 ea 81 bb 1e 7f 0a bd
       -0.056969464 -0.16642812 -0.003964663 -0.033812635
000210 2e 6b 32 3d d5 f8 74 bd d1 19 1b be a6 ed f6 3c
       0.043559246 -0.059807617 -0.15146567 0.030142616
000220 81 be 35 bd 84 6d a8 bc b5 ea 0d be 8c 2a 93 bd
       -0.04437113 -0.020560034 -0.13859065 -0.071858495
000230 a3 b2 ff 3c da 60 30 bd 54 b2 01 bd 43 48 33 be
       0.03121311 -0.043061115 -0.031664208 -0.17508034
000240 0c de 88 3e 7c 25 81 bd 8e 20 67 bd ef 70 7c bd
       0.26731908 -0.06305978 -0.05642753 -0.06163114
000250 4a d2 bd 3e 95 2d dc bd 01 72 90 bd aa 38 4a be
       0.370745 -0.107508816 -0.070529945 -0.19748178
000260 e5 bf a7 3d 5f de 9e 3c ad 07 39 3e 6c 6c 37 bd
       0.08190898 0.019393144 0.18069334 -0.044781134
000270 cc 4d 0c be 42 d7 db bd 27 15 a8 bc 61 e9 a7 3d
       -0.13701552 -0.107344165 -0.020517899 0.0819881
000280 44 b3 95 bd 0b 4e 59 bd 04 16 18 be 67 69 11 3d
       -0.07309583 -0.053052943 -0.14852148 0.03550091
000290 62 47 9d bd ce c9 44 3d 49 13 a6 3d 94 c0 fc bc
       -0.07679631 0.04804402 0.08109147 -0.030853547
0002a0 b1 db 62 bc 8d 2b 07 3c 6c 46 83 bd a5 bb e4 bd
       -0.013846324 0.008250129 -0.06409916 -0.11168603
0002b0 3a b5 df bd 39 b0 88 be 36 c7 9a bd 7d a2 27 bd
       -0.10923238 -0.26696947 -0.07557528 -0.040926445
0002c0 0f 40 c1 3d 2b 92 b2 bd d8 4f 73 3d ac 53 58 bd
       0.09436046 -0.087192856 0.059402317 -0.05281417
0002d0 6a a1 20 be 32 c4 a4 bb 4b 10 17 bb c7 7e ae bd
       -0.15686575 -0.005028271 -0.0023050483 -0.085202746
0002e0 b9 cf 0b be 2f 6f b6 bc 37 09 32 be d2 f9 69 be
       -0.13653459 -0.022269813 -0.17386328 -0.22849205
0002f0 4f 6f 4f be 3f 27 5d 3e 70 7f d4 bd 89 2e 41 be
       -0.20257305 0.21597002 -0.10375869 -0.18865408
000300 7d 8b 45 3d 7f 24 4c be 49 d8 7f 3d 19 0d a2 bd
       0.04822873 -0.19935797 0.062462125 -0.079126544
000310 b6 3d 72 be 14 ed 88 3d 5d d0 0a be 57 92 9b bd
       -0.23656353 0.06685844 -0.13556047 -0.075962715
000320 b3 1e d4 bd c6 00 62 bd 93 dd eb 3d 28 af 53 bd
       -0.10357418 -0.05517652 0.11516871 -0.051680714
000330 0a 37 bf 3d ce 12 93 3c 3c 95 86 be ee 6e 6c bc
       0.0933667 0.017953303 -0.26285732 -0.014430745
000340 b7 75 07 3e 53 7e 3a 3e b6 30 e9 bd 47 2b 80 3d
       0.13228498 0.18212251 -0.11386244 0.062582545
000350 7c 23 f1 bc a3 51 f8 3d 14 f1 8f bd c5 1a ca 3d
       -0.029435866 0.12124946 -0.07028404 0.09868387
000360 44 35 03 be 30 40 06 be 9a 65 33 3d 62 59 6b bd
       -0.12813288 -0.13110423 0.043798067 -0.05745829
000370 36 17 7e 3e 28 20 32 be ae 94 cf bd 25 87 99 bb
       0.24813542 -0.17395079 -0.1013578 -0.0046853
000380 ce d3 88 bd de 3f a6 3d 9e d7 40 3e e7 5c 8b bd
       -0.066810235 0.081176504 0.18832251 -0.06804829
000390 2d 38 8b bd 4f aa 5f bd 08 a0 94 bd aa 08 eb 3d
       -0.06797824 -0.05460578 -0.07257086 0.11476262
0003a0 55 fa 34 be 6c c9 c7 bd 08 98 36 be 78 21 6f 3d
       -0.17673619 -0.09755215 -0.17831433 0.058381528
0003b0 a8 e5 7c bd 39 03 05 be 0b f6 11 be c9 88 b9 bd
       -0.061742455 -0.1298951 -0.14254014 -0.09059293
0003c0 49 ba 8c bd e6 7d 28 bd 28 bc 29 be 09 23 ea bd
       -0.068714686 -0.04113569 -0.16575682 -0.11432464
0003d0 21 64 a0 bd d8 6f 35 be c8 91 e3 bc 41 cb 0e be
       -0.07831598 -0.17718446 -0.027779475 -0.13944723
0003e0 c5 23 27 3e 9a 8c 7d bc 59 12 33 be 0b 26 d9 bd
       0.16322239 -0.015475417 -0.17487468 -0.10602959
0003f0 0d 24 52 bd 48 83 fe ba 50 2e da 3d a7 0e 21 bd
       -0.051303912 -0.0019417787 0.10653365 -0.039320614

actor.2.weight f4 [256, 256]
000000 1f d0 1c be 81 fa 46 be a1 14 80 bd d0 91 d0 bd
       -0.15313767 -0.19431497 -0.06253935 -0.101840615
000010 8c e9 8e 3d 83 ae 40 3e 58 a4 1b bd 8b 23 07 be
       0.06978139 0.18816571 -0.037998527 -0.13197152
000020 13 b7 ae be f3 d4 17 3d a3 35 62 bd fd 63 35 be
       -0.3412405 0.03706832 -0.055226933 -0.17713924
000030 87 c9 23 be b7 ba fb bd 8d 78 b6 3d 67 1f 2e 3c
       -0.15994845 -0.122914724 0.08909712 0.010627604
000040 ec 7a 3b be e9 12 cd bd af dd 4f bd c7 b8 0e 3e
       -0.1830861 -0.100133725 -0.050748523 0.13937674
000050 35 84 c1 bd b7 39 04 bd bb 74 d6 bd 5e 32 9b bd
       -0.094490446 -0.032281604 -0.10471483 -0.07577966
000060 46 9c f0 3d e7 f2 2d 3e 59 f0 68 be cc 0c 86 be
       0.11748557 0.16987191 -0.22747935 -0.26181638
000070 f9 25 81 bd 9f c4 af bd c0 0f 12 be 74 21 8a 3d
       -0.06306071 -0.08582424 -0.1426382 0.06744662
000080 98 8c 9e bd eb f0 3f bd e3 f7 9c bd 83 73 23 be
       -0.0774166 -0.046860617 -0.07664468 -0.15962033
000090 3f cd 01 3e 4b be 0e be c7 99 5a bd 26 a9 82 bc
       0.12675951 -0.13939779 -0.05336931 -0.015949797
0000a0 03 ea 8a bd f6 d9 88 3b aa 48 0b 3d b9 83 b8 bd
       -0.067829154 0.0041763736 0.034004845 -0.09009499
0000b0 85 75 23 be f9 45 bf bc e4 37 d5 3d 80 ca 6e 3e
       -0.15962799 -0.023348795 0.10411051 0.23319435
0000c0 7c 31 15 3d 3b b3 00 3e 57 bb 10 bd c0 95 78 3d
       0.036424145 0.12568371 -0.03533491 0.060689688
0000d0 a1 87 54 be de 32 d1 3c 2f c4 c3 3b 96 c9 a5 3d
       -0.20754863 0.02553695 0.0059743146 0.0809509
0000e0 6d 13 45 bc 9d 37 5a be ec fe 8e be fc 06 a9 bd
       -0.012028557 -0.21310277 -0.27928865 -0.08253285
0000f0 43 6e 6c 3b e8 f6 58 3d 60 6d a7 bd 3b f5 aa 3d
       0.0036076463 0.052969843 -0.081751585 0.08347555
000100 09 42 c4 bd be 08 e7 be 8c c9 bc 3d fe 3d 7f 3d
       -0.09582908 -0.45123857 0.092181295 0.06231498
000110 5a b6 cc bc b6 70 a3 bb aa d5 8d be 68 98 f8 3d
       -0.024989296 -0.0049878014 -0.27702075 0.12138444
000120 66 4a e7 bd 56 90 82 3d 22 a7 77 bd 0a 75 6d 3e
       -0.11293487 0.06375186 -0.060462125 0.23189178
000130 bc 41 f8 bd 29 7d 97 3d 34 73 db bd 9c 5d e7 bd
       -0.12121913 0.07396919 -0.107153326 -0.112971514
000140 ca 3b 74 bd 60 b9 97 bd 1e 52 0f 3d d5 f7 8f 3c
       -0.05962733 -0.07408404 0.034990422 0.01757423
000150 7c aa c9 bd e7 87 10 bd dd 5b ed bd 10 29 82 bd
       -0.098469704 -0.035285857 -0.11589787 -0.06355488
000160 48 1d 4f be 35 18 ee bd 6b 53 ac bd 47 95 78 bc
       -0.20226014 -0.11625711 -0.08414348 -0.015172309
000170 8f c8 89 be 85 5f 11 be 1f 04 42 be d7 2d 67 3d
       -0.26910827 -0.14196594 -0.18946885 0.0564402
000180 84 bd cf bd 65 40 93 bd 1e 6e c8 be d2 af 7e be
       -0.10143569 -0.07190017 -0.39146513 -0.24871758
000190 1f 59 b6 3d e9 7a 22 be f9 7e 27 be 82 55 a3 bd
       0.08903717 -0.15867199 -0.1635703 -0.07975294
0001a0 27 dc 86 bd 36 8a c9 3d e3 cd a5 3d 10 9b f0 bd
       -0.065849595 0.09840815 0.080959104 -0.11748326
0001b0 f8 08 6a bd 81 35 41 3c 45 6e de bd 41 da ce bd
       -0.05713746 0.0117925415 -0.10860876 -0.101002224
0001c0 b5 bc d8 3d 42 fc 71 bb d3 47 01 be 30 a5 94 be
       0.10582868 -0.003692404 -0.12625055 -0.29032278
0001d0 c3 7f 8e be b8 3b b1 bd 45 ad c7 3b 04 3f 89 be
       -0.2783185 -0.086539686 0.0060936534 -0.2680589
0001e0 68 35 98 3d fe a3 8e 3d 1a ed 1a be cc af bf 3d
       0.074320614 0.06964873 -0.1512951 0.093597025
0001f0 da 95 b5 3d cf 0c 51 be 87 d3 b6 bd 31 8b 87 bd
       0.088664725 -0.20415042 -0.089270644 -0.066183455
000200 ef a7 d0 bd 79 98 f6 bd 6a 26 9d 3d 5d 85 38 3e
       -0.10188281 -0.120408006 0.076733425 0.18019624
000210 74 29 0f bc 4f 29 b8 3d f7 e5 51 3b 20 c0 02 be
       -0.008737911 0.08992254 0.003202794 -0.12768602
000220 97 90 60 3d 38 c7 a2 be 0b 7f a4 3b de dd 65 3d
       0.05482539 -0.31792617 0.0050200275 0.056119792
000230 34 82 84 3d 2f ac 9c bd 0a f7 20 bd f7 ba b2 bb
       0.06470147 -0.07650029 -0.039298095 -0.005454417
000240 46 da 10 be 2e 93 be 3b 8f 09 c8 3c 54 0e 1a 3e
       -0.14145765 0.005815885 0.02441862 0.15044528
000250 bb bd 0b bd 7f 1f 32 3e c0 11 d0 bc a9 4f 88 be
       -0.034116488 0.17394827 -0.025399089 -0.26623276
000260 8e 4d cf 3d 20 e6 b1 bd b2 e7 1c be 4a dc 85 bd
       0.10122214 -0.08686471 -0.1532276 -0.065361574
000270 0d a7 cb bd 13 50 c4 3d 5f 86 02 3e 16 44 5e 3d
       -0.09943972 0.095855854 0.12746571 0.05426415
000280 d2 34 29 be 6f c2 7b 3c d2 24 38 be 80 9a dd bd
       -0.16524056 0.015366181 -0.17982796 -0.10820484
000290 0c cd c1 3d 34 17 b3 be ae fc 48 3c d4 01 a8 bd
       0.09462938 -0.3497864 0.012267275 -0.08203474
0002a0 08 5b 66 3e 8b 3f 05 3d 29 36 07 be 30 24 3a be
       0.22495663 0.032531302 -0.13204254 -0.18177867
0002b0 2d 9d c7 bb 96 cd b2 bd ef 4a 05 be b5 9e ea 3d
       -0.006091735 -0.08730619 -0.13016866 0.11456052
0002c0 5e b0 1d be 87 dd c6 3b 02 cf a6 bd ed ae 2c be
       -0.1539931 0.0060688886 -0.08144952 -0.16863604
0002d0 74 f4 35 be 56 65 59 ba 46 f6 0f 3e 92 4e 41 be
       -0.17769033 -0.00082929933 0.1405879 -0.18877628
0002e0 e6 2d 12 bd 86 0a 1d bd 38 d9 db bb 88 d1 c3 bd
       -0.035688303 -0.038340114 -0.006709244 -0.09561449
0002f0 32 35 98 bd 84 e2 a9 3d 55 c3 25 be ee 37 12 3d
       -0.07432021 0.082951576 -0.16187795 0.03569787
000300 6b e3 34 be cb 6a aa 3d bc 1f 3f be 36 6e a5 bd
       -0.17664878 0.083211504 -0.1866445 -0.08077662
000310 05 cc 8e bd ac 15 0a be ed 2b 08 be 48 31 51 bb
       -0.069725074 -0.1348483 -0.13298006 -0.0031920243
000320 95 00 02 be 97 4d 5f 3d eb 4e 17 bd 52 d0 ba 3d
       -0.12695535 0.054517355 -0.036940496 0.09121765
000330 3b 10 44 3e 88 0d 84 bd d3 e2 55 be 66 43 ab bd
       0.19146816 -0.064478934 -0.20887308 -0.083624646
000340 98 47 8e bd 6f 67 ae 3d 50 40 9a bd 6b bd a7 3d
       -0.06947249 0.08515822 -0.07531798 0.081904255
000350 f5 c4 8e ba b9 19 28 bd c6 5d f3 3c 5e 43 c4 bd
       -0.0010892438 -0.041040156 0.0297078 -0.09583162
000360 b3 87 45 bd 4e 91 9b bd 54 a2 9c bd f8 ef 94 bc
       -0.048225116 -0.07596074 -0.07648149 -0.018180832
000370 39 da 81 bd 3d 07 0c be 07 10 5c 3c fa ac 9f bc
       -0.06340451 -0.13674636 0.013431556 -0.019491661
000380 27 13 98 bd e1 6e b6 3d a6 da 44 bd b4 0f ed bd
       -0.07425528 0.08907867 -0.048060082 -0.11575261
000390 f8 f5 24 bd 64 92 87 bc ee 6a c0 bd 0d bf 60 3d
       -0.040273637 -0.016549297 -0.09395395 0.0548697
0003a0 6f b0 36 be c8 2a 11 3d 3a 3c de bd 81 ed 90 bd
       -0.17840742 0.03544119 -0.10851331 -0.0707655
0003b0 f9 d0 4b be c7 d4 84 3d c5 b1 1f be d1 d5 62 be
       -0.19903935 0.064858966 -0.15595157 -0.22151877
0003c0 16 1f 3a 3d a9 27 ab bc 46 92 1d 3d d0 80 1b 3e
       0.045439802 -0.020892935 0.038469575 0.15185857
0003d0 4a f3 3c be 05 1b 3a 3e 9e df 6c be 44 d7 14 3d
       -0.18452182 0.1817437 -0.23132178 0.036338106
0003e0 d7 63 b0 bc 2b db c3 3a d8 9c 3e be e9 55 58 3d
       -0.021531982 0.0014942636 -0.18614519 0.052816305
0003f0 db 53 e6 bc fa 8c c3 bd 5a 23 ec bb 04 4d 7c bd
       -0.028116157 -0.095483735 -0.0072063627 -0.061596885

actor.2.bias f4 [256]
000000 4a 69 e4 39 17 96 a3 3e 53 3c 8d 3d e3 80 35 3e
       0.00043565995 0.31950447 0.068962716 0.17724948
000010 14 da b5 3e c3 11 42 bd 49 66 10 bc 0d e7 ef bc
       0.35517943 -0.04738022 -0.008813449 -0.029284978
000020 27 15 06 3e b8 db 85 bd c8 35 41 bd 71 82 16 3e
       0.13094006 -0.06536049 -0.04717043 0.14698197
000030 37 d9 9f 3d b0 4d 6c 3d be e7 a9 3a 9e 88 02 3e
       0.07805102 0.057691276 0.0012962741 0.12747428
000040 55 e3 40 3d 16 e4 c9 bc 02 4f aa 3d e6 ae e5 bc
       0.0470918 -0.024644893 0.08315851 -0.0280375
000050 60 f9 8c 3e 40 6b 66 bd 17 24 b9 bd b9 48 52 bd
       0.27534008 -0.056254625 -0.09040087 -0.051338885
000060 bc 37 6a 3d a4 e9 36 3d 79 2b f2 3d c2 bd 07 3d
       0.05718206 0.04465641 0.11824698 0.03313995
000070 7a ba 19 3a f7 0d 0b bd 07 40 6f 3e a8 06 3f 3e
       0.0005864274 -0.033948865 0.23364268 0.18654883
000080 cf f1 0f 3d 2d d0 3c 3b ba bc 11 3d e3 13 e7 3c
       0.035142716 0.0028810606 0.035580374 0.028207725
000090 69 14 3f 3e 6d ee 2b 3e cb 6d 7f 3c 59 d8 01 be
       0.1866013 0.16790171 0.0155901415 -0.12680186
0000a0 38 db b3 3d d9 be 8e bb eb d4 75 3c 8b ee 2a 3e
       0.08782047 -0.004356247 0.015004377 0.1669256
0000b0 3d 91 b9 bd 1b ca 0b 3e bd eb a9 3d 70 cc 11 3e
       -0.09060905 0.13651316 0.08296917 0.14238143
0000c0 6c e5 c3 3e 07 d1 8f 3d a4 d8 39 bc e3 db dd bd
       0.38260972 0.07022291 -0.011343155 -0.10832956
0000d0 c6 b4 3b 3d fb 21 f1 ba 71 06 ce 3d ce 4c 40 bc
       0.045826696 -0.0018396968 0.10059822 -0.011737062
0000e0 87 58 4c bd 83 d2 bd bc a4 44 4f bd 7e e6 fd bd
       -0.049889114 -0.023171669 -0.05060257 -0.123974785
0000f0 a6 04 33 bc c1 00 1b 3d 95 50 b7 3e 00 6d 85 bc
       -0.010926401 0.037842516 0.35803667 -0.016287327
000100 49 c3 3d 3c f2 9e a6 3c 88 cb 19 3c 5e fc 97 bd
       0.011582204 0.020339463 0.009386905 -0.07421182
000110 d5 aa e6 3c 00 51 99 3d b1 6c 1b 3d 8c 11 ff 3b
       0.028157631 0.07486153 0.037945453 0.007784074
000120 0b 8b ed 3d 5a 59 88 3d 0c 5a 73 3b a6 43 66 3c
       0.11598786 0.066576675 0.003713253 0.014054215
000130 38 62 db bd 8d fe 24 3d 1a 06 3a bd 12 4c 11 3d
       -0.10712093 0.04028182 -0.045415975 0.035472937
000140 fe 09 2a 3d 90 cc f4 3d 88 45 61 bd 7d 4e 80 bd
       0.041513436 0.1195308 -0.05499795 -0.062649705
000150 67 27 b2 3d 31 b3 98 3d 93 7e 20 bd 7a db ad bd
       0.08698922 0.07456053 -0.03918321 -0.084891275
000160 dd 81 82 bd a6 95 83 3e 9c 8a 19 3c 2e f6 52 3e
       -0.06372426 0.2570011 0.009371426 0.20601723
000170 7d 2c 07 bc ff 80 04 bd 20 a2 20 3e 44 44 9b bc
       -0.008250353 -0.032349583 0.15686846 -0.01895345
000180 27 e6 72 bd 67 79 aa 3d 73 ff 99 bd 24 ac 2a 3d
       -0.05930152 0.08323937 -0.07519426 0.041668072
000190 78 92 74 3e be f8 b6 bc 80 ad 37 bd 9f e7 3f bd
       0.23883998 -0.022335406 -0.044843197 -0.04685175
0001a0 b5 50 c0 39 59 98 1f 3c 5b 04 55 3e 6b cb 05 bd
       0.00036681225 0.009740912 0.20802443 -0.032664698
0001b0 c1 88 89 bd ce ea 04 3f 8d c6 4e bd 71 45 a0 3d
       -0.06715537 0.51920784 -0.05048232 0.07825745
0001c0 31 8d b0 3d c0 43 96 bd 3b 51 70 3c aa b8 be 3c
       0.0862068 -0.07337141 0.014667804 0.023281414
0001d0 32 de c0 bd ce 96 f7 bd c8 42 e2 bd a3 dd 04 3e
       -0.094173804 -0.120893106 -0.11047894 0.12975173
0001e0 c3 99 5a bc 7d 40 15 3d c5 4a 48 3d 99 0b fa bc
       -0.013342324 0.036438454 0.04889943 -0.030523108
0001f0 94 93 71 3d ba e1 20 bd 26 16 90 bd db 0a 95 3d
       0.058978632 -0.03927777 -0.070354745 0.07277461
000200 cd ed ae bd 37 09 4d ba 2b 6e 61 bb fc fb a5 3d
       -0.08541451 -0.00078215025 -0.003439794 0.08104703
000210 75 c2 3c 3e 1e 03 18 3e 30 51 3a 3d 68 6e b4 3d
       0.18433554 0.14844939 0.045487583 0.08810121
000220 94 70 b0 bd 59 0e 35 bd 7b cf 7b 3e f2 e5 f3 3d
       -0.086152226 -0.044203136 0.24590866 0.11909093
000230 a4 1d 13 bd f0 f7 69 3d 15 1a 5a 3d 31 56 7f bd
       -0.03591694 0.057121217 0.05324753 -0.062338058
000240 c2 1e f7 3d e1 ac 8a 3d 5a 30 c6 3c 7e fe bd 3c
       0.120664135 0.06771255 0.024192978 0.02319264
000250 68 13 08 be e9 f9 6d 3e 19 e9 20 3d a2 65 94 3e
       -0.13288653 0.23239864 0.0392848 0.2898379
000260 59 b0 57 3e c0 ea ca bd 46 6b 37 bc f6 ca 28 bd
       0.21063365 -0.09908056 -0.01119501 -0.041209184
000270 4e db bc 3d ed 39 f3 3b f7 9c 9c bd 61 a1 77 bc
       0.092215165 0.007422677 -0.07647126 -0.015114159
000280 38 a5 28 3e 09 9e e5 bc 96 4b 45 bd 8a c3 68 bd
       0.16469276 -0.028029459 -0.048167787 -0.056827106
000290 7d 7d 6f 3e c8 3a 0f 3e 5c 8c 42 bd 4d b6 87 bd
       0.23387714 0.13987267 -0.04749714 -0.06626568
0002a0 4a 64 d4 bc a7 23 ab 3e 1c 43 85 3d 4f 55 d5 3d
       -0.025926728 0.33425638 0.06506941 0.10416662
0002b0 33 05 5d 3a a8 f0 f6 3b 9d 64 ff bd 46 a5 09 3e
       0.00084312557 0.0075360127 -0.12470362 0.13441953
0002c0 96 c4 61 3e 6e 02 aa 38 d7 70 3d bc f1 9d 48 3e
       0.22047648 8.106684e-05 -0.011562548 0.195915
0002d0 4a 5c 30 3e d1 8b 0c 3b 16 8b 4a 3e eb 48 1d be
       0.17222705 0.0021445642 0.1977962 -0.15359847
0002e0 2f 1f 33 3c 86 c7 a3 3e 21 9a 32 3b 20 4b 8f 3d
       0.010932728 0.31988162 0.0027252513 0.06996751
0002f0 62 96 61 3e 48 52 37 3e f4 0b 64 3e 7d 7e 81 3e
       0.22030023 0.17902482 0.22270185 0.25291815
000300 bc 01 c3 bc 03 61 a6 bc d1 f1 a7 bd e1 89 8f bc
       -0.023804538 -0.02030993 -0.0820042 -0.0175218
000310 33 06 83 3d 30 39 45 bd 66 8e 58 bd 3c 7f 98 3c
       0.06397667 -0.04815024 -0.052870177 0.018615358
000320 c6 6d 4f 3c c5 a5 ea 3d 4b 44 1b 3e 09 86 25 3e
       0.012660449 0.11457399 0.1516277 0.16164412
000330 49 d6 4b 3d 96 d4 84 bd a3 0f 69 3d 8e 15 48 3c
       0.049764905 -0.0648586 0.056899678 0.01221217
000340 3c fc b5 bd 29 7b 55 3e 02 35 90 bd 16 9b 0a 3e
       -0.088860005 0.20847763 -0.070413604 0.13535723
000350 f5 33 95 3d 1e 33 50 3b 73 d7 e5 bc 59 3e 5f 3e
       0.07285301 0.003176875 -0.028056836 0.21801127
000360 70 6f e1 3d dd 18 82 3d ab ad b9 3d 0c e9 c0 bd
       0.11007583 0.063523985 0.09066328 -0.0941945
000370 2f fa cd 3d b9 fe 2f 3d 35 b7 98 bd 0f 8b ec bc
       0.10057484 0.04296753 -0.07456819 -0.028874902
000380 39 f5 0d bd ec 6e 0f bd 7a 3c b7 bc 2d 4f bc 3a
       -0.03465769 -0.035017893 -0.022367705 0.0014366858
000390 da 82 d9 bc 5a 68 67 3e f6 66 a5 bc 53 48 4f bd
       -0.026551653 0.225984 -0.020190697 -0.050606083
0003a0 ba e6 2b bd 52 46 11 3e de 61 56 bd 63 a6 43 bd
       -0.041968085 0.14186981 -0.052339427 -0.0477661
0003b0 37 13 c2 3e 6a f7 56 bd 92 e3 e0 bd 69 8c b3 bd
       0.37905285 -0.052482046 -0.109809056 -0.087670155
0003c0 f5 db 43 3e 1f 04 f4 3c f7 ba b6 bd 9e 34 a2 bd
       0.19126876 0.029787121 -0.089223795 -0.07920192
0003d0 e8 a9 9b 3b 67 6c 40 3e 13 09 27 3e 17 4b bc bd
       0.004750479 0.18791352 0.16312055 -0.0919401
0003e0 57 a8 57 3e 52 36 3b bd d0 56 51 bd f8 76 92 3c
       0.2106031 -0.0457061 -0.05110818 0.017878994
0003f0 f4 20 99 3c b2 36 c9 3c eb a4 27 bd 64 69 55 3e
       0.018692471 0.024562214 -0.040928762 0.20840985

actor.4.weight f4 [100, 256]
000000 b7 51 9a 3f 67 45 17 3d 79 68 c5 3d fb 6b af 3f
       1.2056187 0.03693142 0.09639067 1.3704828
000010 2e 52 d8 3f e5 9e 5a bc fc 80 97 bd 55 f5 7a 3d
       1.6900079 -0.0133435475 -0.07397649 0.061269123
000020 5d 32 78 3f 3b 44 54 3f 59 e5 4d 3f 4f e1 82 3f
       0.9695185 0.8291661 0.8042808 1.0225009
000030 b7 3c b9 3f 90 6e 98 3f e2 b8 8e 3f 0d de a5 3f
       1.4471654 1.1908741 1.1150172 1.295839
000040 5e 0b 85 3f 22 1a a5 3d b3 1b b7 3f 90 99 90 3d
       1.0394094 0.08061625 1.4305328 0.0706054
000050 ad 51 ab 3f 0c 6c 4c 3e ce 18 19 3d 75 89 cf 3e
       1.33843 0.19963092 0.03737717 0.4053456
000060 95 03 a8 3f ee ce 75 3f 59 46 99 3f 0e 81 60 3f
       1.3126093 0.96018875 1.1974593 0.8769692
000070 44 7e a0 3f 5b 91 95 3f e0 64 8d 3f 79 d8 9e 3f
       1.2538533 1.1684984 1.104641 1.2409812
000080 bf 1a 9f 3f 76 38 96 3f 34 28 80 3f d7 17 8c 3f
       1.2430037 1.173598 1.0012269 1.0944775
000090 dc e2 be 3f 62 38 7c 3f bd d3 17 3d ed a7 66 3f
       1.4912982 0.98523533 0.037067164 0.90099984
0000a0 41 ce 65 3f 2b e7 e8 3e 0b 21 87 3f 25 d2 92 3f
       0.89767843 0.45488867 1.0556959 1.1470381
0000b0 bc af e3 3e 32 32 8d 3f 24 f9 22 3f 9e 8b 6b 3f
       0.44470012 1.1030943 0.6366141 0.92009914
0000c0 da fb db 3f 50 9c 84 3f 64 9e 22 3f b8 58 44 3e
       1.7186234 1.0360203 0.63522935 0.19174469
0000d0 d2 f2 7b 3f 40 a8 5a 3f 44 1a b2 3f a4 3b 8b 3f
       0.9841739 0.8541298 1.3914266 1.0877576
0000e0 cf fa 0a 3f 05 84 43 3e 18 6d 9e 3f ce 7a 18 3f
       0.54288954 0.1909333 1.2377043 0.59562385
0000f0 31 20 dc 3c f2 4f a2 3f e8 a7 af 3f 88 e6 ac 3c
       0.026870819 1.2680647 1.3723116 0.02110602
000100 f3 b3 3f 3f 80 1e 04 3f 9e c1 8a 3f 17 ee 90 3f
       0.74883956 0.5160904 1.0840337 1.1322659
000110 79 18 9b 3f 7d d3 db 3f ff 8d 9f 3f a7 21 52 3f
       1.2116843 1.7173916 1.2465209 0.820826
000120 60 d1 7d 3f c3 94 c9 3f 71 f0 b9 3d 5e 55 8d 3f
       0.99147606 1.5748523 0.09079064 1.1041677
000130 38 43 a9 3f 3c 6c 92 3f b9 1a 38 bc de eb 5f 3f
       1.3223639 1.143928 -0.01123684 0.8746928
000140 25 00 98 3f 68 71 41 3f 93 11 6b 3f a7 07 15 3f
       1.1875044 0.7556367 0.9182369 0.582148
000150 43 8a 45 3f 9d 38 41 3f 5c 44 a7 3f 56 58 ac 3e
       0.77164096 0.7547701 1.3067737 0.33661145
000160 78 7b 86 3d e8 71 c3 3f ce 81 1c 3f da 24 48 3f
       0.065665185 1.5269136 0.61135566 0.7818123
000170 c2 05 69 3f de 33 9a 3f 14 d1 b5 3f d6 13 c2 3f
       0.9102441 1.2047079 1.420443 1.5162303
000180 c7 71 d8 3e e1 5c 34 3f 3b 39 99 3f 50 a7 5a 3f
       0.42274305 0.7045422 1.197059 0.8541155
000190 c6 5a 95 3d 9b cb 63 bd 31 18 fe 3e 06 18 36 3f
       0.07292704 -0.055614095 0.49627832 0.71130407
0001a0 4f 02 26 3f 51 29 96 3f 63 ac 64 3f 29 35 94 3f
       0.6484727 1.1731359 0.8932554 1.1578723
0001b0 cd d2 bf 3f 8e e0 eb 3e 20 8b 1c 3f 5e 94 c6 3f
       1.4986206 0.4606976 0.6114979 1.5514028
0001c0 b3 b6 1a 3f a8 88 f2 3e 40 78 17 3f 65 5d 97 3f
       0.60435027 0.47369885 0.5916786 1.1825377
0001d0 56 16 ae 3e d9 3f 36 3e 5f 24 92 3e 5a d0 94 3f
       0.34001416 0.17797793 0.28543374 1.1626084
0001e0 4a cb 2c 3e ba 28 97 3f b3 9f cd 3f 03 b8 fd 3e
       0.16874424 1.1809304 1.6064361 0.49554452
0001f0 3d ec af 3e 6d f1 b7 3f 05 c7 18 3e b5 8e 94 3f
       0.34359923 1.4370552 0.1491967 1.1606051
000200 e7 58 81 3d 04 64 c0 3f 81 40 42 3d f2 ac 14 3f
       0.06315785 1.5030522 0.047424797 0.58076394
000210 c4 59 ca 3f 18 40 a1 3f 16 5a 4e 3f c0 86 91 3f
       1.5808644 1.2597685 0.8060621 1.1369247
000220 82 c7 12 3f f0 c5 60 3f 9c 37 83 3f 0d 20 d8 3e
       0.57335675 0.8780203 1.0251346 0.42211953
000230 7c 08 f1 3e 1e e9 91 3f 53 8f 1b 3f 03 90 75 3e
       0.47076786 1.1399267 0.6076557 0.23980717
000240 87 49 71 3f 61 9c ca 3e 86 78 c8 3f 48 ae 24 3d
       0.9425282 0.39572433 1.5661781 0.04020527
000250 88 80 43 bc e9 a6 a4 3f a4 e8 55 3f 61 56 8e 3f
       -0.0119325 1.2863437 0.83558106 1.1120111
000260 3c ed f6 3e fd f2 35 3f 45 a3 92 3f fd e4 7b 3e
       0.4822787 0.71073896 1.1456076 0.24599071
000270 fb 0c 84 3e 96 fd 59 3f f2 1b ba 3e 37 f7 3e 3e
       0.25791153 0.85152566 0.36349446 0.18648992
000280 c3 40 06 3f f2 be a5 3e e0 33 c7 bd d9 c8 92 3f
       0.5244257 0.32372242 -0.09726691 1.1467544
000290 1b 8b 1c 3f 85 ab ab 3f cc 4c a1 3f f0 b1 e8 3e
       0.6114976 1.3411719 1.2601562 0.45448256
0002a0 bb c2 64 3f f6 67 8e 3f 7c 86 99 3f 31 60 68 3f
       0.89359635 1.1125476 1.1994166 0.90771776
0002b0 b9 fc 01 bd 5c d1 f3 bc 4f 55 57 3f d5 d9 3e 3f
       -0.031735156 -0.029762916 0.84114546 0.74551135
0002c0 90 63 a0 3f fe 66 7b 3f 82 23 22 be 85 4d 83 3f
       1.2530384 0.9820403 -0.15833858 1.0258032
0002d0 81 f8 4a 3f 4d 23 88 bd 98 f4 8c 3e 09 5c c5 3d
       0.79285437 -0.06647358 0.2753036 0.09636695
0002e0 9a 20 b2 bd 05 bd 3f 3f 6d 25 ae 3f 12 5c 8d 3f
       -0.086976245 0.74897796 1.3605171 1.1043723
0002f0 b7 ff 08 3f c4 b4 c1 3e 93 c3 5f 3f 7b e1 f7 3f
       0.5351519 0.37833226 0.874078 1.9365686
000300 5a 99 13 3c a4 dc a1 3e 64 41 9e 3f 2c 3f a0 3e
       0.00900873 0.31613648 1.2363706 0.31298196
000310 72 94 c9 3e 40 71 5f 3f cf d7 1a 3e 00 2c 5a 3f
       0.39371067 0.8728218 0.15121387 0.8522339
000320 7b 7f 2d bd d2 fc ab 3f 82 7d 82 3f b2 32 5e 3f
       -0.042357903 1.343653 1.0194552 0.86796105
000330 c7 e8 90 3f 34 74 07 3e df ec 43 3f d4 07 3c 3f
       1.1321038 0.13227922 0.7653331 0.73449445
000340 ba ef 70 3f 23 15 8c 3f fd ab 35 3f b3 65 17 3f
       0.94115794 1.094395 0.7096556 0.59139556
000350 01 63 83 3f 05 90 2f 3e ad 95 74 3f 38 49 8c 3f
       1.0264589 0.17144783 0.9554089 1.0959845
000360 fd 4a 8f 3f ca 15 c2 3f 18 04 ad 3f 32 5f 7b 3f
       1.119476 1.51629 1.3516874 0.9819213
000370 c3 1e 88 3f 6d 6f 48 3f b3 38 a7 3f 01 18 2b 3e
       1.0634388 0.7829502 1.3064178 0.16708376
000380 dd 9d 70 3f fa 59 65 bd 48 40 81 3f 08 c0 b9 3f
       0.9399088 -0.05599401 1.0097742 1.4511728
000390 2b 09 c8 bc b6 1e 5e 3f 07 62 98 3e 71 f0 85 3f
       -0.024418434 0.8676561 0.2976229 1.0464002
0003a0 a8 f7 41 3f bf 84 73 3f 75 15 10 3f 0f fe b9 3f
       0.7576852 0.9512443 0.5628274 1.4530658
0003b0 cc ba a3 3f 9d 37 bb 3e f8 9d 25 3f 57 b1 a3 bc
       1.2791381 0.36565867 0.64694166 -0.019982023
0003c0 c1 9e 61 3f f9 eb 57 3f a5 7a e2 3b 40 3f e0 3f
       0.88132864 0.8434444 0.006911593 1.7519302
0003d0 1d 4b 0a 3f b5 35 a1 3f be 35 92 3f fe 2f 58 3d
       0.54020864 1.2594515 1.1422651 0.052780144
0003e0 31 f1 b9 3e f8 ca 7b 3f 1e 8e 7d 3e 00 51 ac 3e
       0.36316827 0.9835658 0.24761245 0.33655548
0003f0 8d 80 39 3f 43 26 a3 3e 42 81 e6 3e a9 e9 80 3f
       0.7246178 0.3186513 0.4502049 1.0071307

actor.4.bias f4 [100]
000000 8d 7c a9 3f e7 06 ac 3f e9 9c 85 3f 47 81 8a 3f
       1.3241135 1.3439606 1.043851 1.0820702
000010 a3 f7 8f 3f 57 3b 80 3f 5e b8 90 3f 70 15 84 3f
       1.1247448 1.0018109 1.1306264 1.0319042
000020 14 08 7f 3f 1e 8b 7e 3f 55 48 75 3f 0f 28 9b 3f
       0.996217 0.99431026 0.95813495 1.21216
000030 5a 69 7d 3f 6f 93 9d 3f e7 fd ae 3f d3 0e 96 3f
       0.9898888 1.2310618 1.3671235 1.1723274
000040 f6 35 90 3f 22 1c 87 3f 41 e0 9a 3f 60 53 89 3f
       1.1266468 1.055546 1.2099687 1.0728569
000050 ac 4d 74 3f f4 cf 9a 3f f9 e0 b3 3f 9e c7 a4 3f
       0.9543102 1.2094712 1.4053031 1.2873418
000060 c7 64 b1 3f 5c eb a4 3f ce 04 9d 3f 41 01 7e 3f
       1.385888 1.2884326 1.2267091 0.99220663
000070 f3 2c 86 3f 13 91 8d 3f 41 f9 7e 3f 5b 9e 8f 3f
       1.0482467 1.1059898 0.9959908 1.1220201
000080 d0 56 a4 3f 78 2d 9a 3f 25 cb 82 3f 72 6e a8 3f
       1.2838993 1.2045126 1.0218245 1.3158705
000090 4a 71 6d 3f 3b 86 9b 3f 0e c3 96 3f 15 e8 99 3f
       0.9275099 1.2150339 1.1778276 1.2023951
0000a0 fa 9a 58 3f 80 3e 83 3f 06 37 86 3f 89 12 7b 3f
       0.84611475 1.0253448 1.0485542 0.9807516
0000b0 57 6d 91 3f 88 7f b2 3f ee 3a b5 3f e5 8f 95 3f
       1.1361493 1.394517 1.4158609 1.1684538
0000c0 b3 ac 81 3f fb 20 85 3f 80 5d 8b 3f e1 3e 75 3f
       1.0130829 1.040069 1.0887909 0.9579907
0000d0 70 35 93 3f e6 9a 93 3f 9b a2 8e 3f 4e ab a9 3f
       1.1500683 1.1531646 1.1143373 1.3255403
0000e0 3e 4e 81 3f 3b 0c 95 3f 25 45 9f 3f d9 d5 80 3f
       1.0102003 1.1644357 1.2442976 1.0065261
0000f0 51 5d 8e 3f 8c e9 9b 3f 55 33 8d 3f 18 53 91 3f
       1.1122228 1.2180648 1.103129 1.1353483
000100 2a 60 94 3f 13 94 b4 3f c5 4e 8c 3f 97 5e 8a 3f
       1.1591847 1.4107689 1.0961539 1.0810117
000110 0a 4e 91 3f 71 f9 a6 3f b1 fb 93 3f 97 ef 89 3f
       1.1351941 1.3044873 1.1561185 1.0776242
000120 6f cb 99 3f 71 6d 9a 3f 8a ef 93 3f a8 99 a0 3f
       1.2015208 1.2064649 1.1557477 1.2546892
000130 cc 0e 9f 3f 3c 47 87 3f 6a 2e 98 3f 6e 01 6d 3f
       1.2426391 1.0568614 1.1889164 0.92580307
000140 5a 91 90 3f 32 7a 5e 3f 40 69 99 3f 23 d6 82 3f
       1.1294358 0.86905205 1.1985245 1.0221599
000150 ca 36 8c 3f 45 5b a9 3f 31 67 87 3f 3d 71 82 3f
       1.095422 1.3230978 1.0578367 1.0190808
000160 52 f3 95 3f ee 3c 8b 3f 3d 1d 8f 3f 4d e5 4e 3f
       1.171488 1.0877969 1.1180798 0.80818635
000170 6d ee 6f 3f 95 74 8b 3f 7a 22 8f 3f 24 41 90 3f
       0.93723184 1.0894953 1.1182396 1.1269879
000180 d4 fb a5 3f 19 a4 93 3f 79 2b 9b 3f 97 eb 79 3f
       1.2967477 1.1534454 1.2122642 0.97625107
