Hien/actor/actor.pth (torch, 471303 bytes, 6 tensors)

actor.0.weight f4 [256, 100]
-0.029521963 -0.023745265 -0.048946474 0.038416337 0.11006419 -0.027179362 -0.008232555 -0.00474526
-0.04996817 -0.11917855 -0.019611314 -0.012474095 0.017815206 0.1055208 0.10169527 0.11411228
0.11176954 -0.05917882 0.027107242 -0.13847022 -0.06974855 -0.034920353 -0.07224196 0.052866213
0.0511977 0.045698997 -0.0017417421 0.15593423 0.09459377 0.057388004 -0.06980838 -0.012500106
0.11851748 -0.025524918 -0.1615854 0.06669785 0.020057904 -0.090236925 0.010146313 0.06597436
-0.023879446 -0.025380747 0.026213504 -0.037107415 -0.030023439 -0.045350492 -0.13860272 -0.05066493
-0.092847094 -0.09667779 0.0022707589 0.023116626 0.11129468 -0.061942868 0.047694925 -0.11292827
0.09223091 0.10630023 0.022243144 0.011293972 0.036722858 0.10988976 0.029841676 -0.11572537
0.12783812 0.0020588378 0.029982021 0.05713763 -0.0713371 -0.026711939 -0.040387332 -0.16659378
0.016472915 0.045105264 0.016188988 0.03385494 -0.027263772 0.0073932814 -0.13014841 -0.18291833
-0.063435495 -0.13928331 -0.09654972 -0.030556763 0.060311664 -0.17246884 0.07323106 -0.050787073
0.067169495 0.068836644 -0.054755513 0.1024288 -0.08519029 0.119929165 0.116081856 -0.017627126
-0.09242497 -0.11112847 0.0008452931 0.04853657 0.090445325 0.026658442 0.050681222 -0.01387482
-0.045111336 -0.041741744 0.04344987 -0.07687685 -0.05503793 0.08653091 -0.09988601 0.00780067
0.064332254 -0.1653357 0.17317708 0.08226351 -0.0007459983 0.0036019566 -0.048412725 -0.023922998
0.06407466 0.11105493 0.02821644 0.09539878 0.04326578 0.103359066 -0.056258474 0.038406692
-0.053499363 0.06555116 0.06472274 -0.059910905 -0.025963046 -0.025379201 0.003896981 -0.11489978
0.104054056 -0.0066703623 -0.026166862 -0.13238268 0.24468987 -0.0833993 -0.03027259 0.10889128
-0.05548807 0.06465602 0.01553064 -0.10784256 -0.015391909 0.0035051925 -0.05389949 0.032625984
0.21736962 9.355101e-05 -0.057342965 0.030046284 0.07619591 0.031385567 -0.0018855887 -0.07177196
-0.00928453 -0.015934668 -0.12358333 -0.059112653 -0.06293711 0.030940253 0.04380694 -0.033803143
-0.07663626 -0.11275892 0.03087531 -0.05191031 -0.010419758 0.103506304 -0.01275158 -0.04624717
-0.14740516 0.104238205 -0.090580866 0.104350604 -0.05332832 0.047721535 -0.043291297 -0.06273408
0.024121547 -0.043214772 -0.043835588 -0.0019166304 -0.032727513 -0.032217532 -0.068952486 0.030669495
-0.12546486 0.034530867 0.048409384 0.0687236 0.15501128 -0.06517315 -0.046446737 -0.07291762
0.104878746 -0.07116937 0.08682688 0.056590218 -0.0016447391 0.10090683 0.1026064 -0.06616321
-0.07987072 0.11357073 -0.08540349 -0.005624435 -0.06674377 0.05936731 -0.16005474 0.00068749033
0.04358801 -0.08343824 -0.032269515 0.050509177 0.00033947584 0.044575825 -0.08191567 0.13518006
-0.055232316 0.16248465 -0.05099826 -0.015454135 0.00041167208 0.081475735 -0.027240904 -0.06681577
0.09242251 0.09653638 -0.08016772 -0.023212444 -0.03798201 -0.039118476 0.09814604 -0.10114962
-0.11716038 0.06409489 0.02579951 0.030935427 0.08904199 -0.12937692 -0.12103045 0.035030082
0.05574171 -0.015751837 -0.0768092 -0.064999804 0.007622977 -0.05197809 -0.03869293 0.017688813
00000000: 0bd8 f1bc 6e85 c2bc 197c 48bd 735a 1d3d
00000010: 5669 e13d 41a7 debc d7e1 06bc 207e 9bbb
00000020: 6cab 4cbd e213 f4bd e8a7 a0bc 2660 4cbc
00000030: 32f1 913c 4a1b d83d 9c45 d03d b3b3 e93d
00000040: 6ee7 e43d 7e65 72bd 0210 de3c 23cb 0dbe
00000050: 54d8 8ebd a508 0fbd 98f3 93bd 3e8a 583d
00000060: aeb4 513d df2e 3b3d 2b4b e4ba 39ad 1f3e
00000070: 61ba c13d af0f 6b3d b2f7 8ebd 3fcd 4cbc
00000080: 4bb9 f23d a219 d1bc a576 25be e298 883d
00000090: 7950 a43c 23ce b8bd b93c 263c 911d 873d
000000a0: d49e c3bc 49eb cfbc b4bd d63c f2fd 17bd
000000b0: b7f3 f5bc 70c1 39bd dfed 0dbe 0886 4fbd
000000c0: 9e26 bebd 01ff c5bd 03d1 143b 145f bd3c
000000d0: 77ee e33d ceb7 7dbd c15b 433d f046 e7bd
000000e0: 8fe3 bc3d efb3 d93d 4137 b63c 5a0a 393c
000000f0: b56a 163d e20d e13d 8876 f43c 6c01 edbd
00000100: ffe7 023e 91ed 063b db9c f53c 2609 6a3d
00000110: 2f19 92bd ffd2 dabc 306d 25bd 8f97 2abe
00000120: 35f2 863c 4cc0 383d c59e 843c 7aab 0a3d
00000130: 4658 dfbc 5743 f23b a045 05be f14e 3bbe
00000140: 78ea 81bd 49a0 0ebe dcbb c5bd 2d52 fabc
00000150: 5d09 773d ac9b 30be 2afa 953d 1b06 50bd
00000160: 2990 893d 3afa 8c3d 5147 60bd 31c6 d13d
00000170: 3f78 aebd 6c9d f53d 53bc ed3d c366 90bc
00000180: 4d49 bdbd 5397 e3bd a996 5d3a 48ce 463d
00000190: 663b b93d ce62 da3c 1d97 4f3d 3753 63bc
000001a0: aac6 38bd 64f9 2abd 7ef8 313d 9c71 9dbd
000001b0: 746f 61bd 1e37 b13d 0991 ccbd c39c ff3b
000001c0: a1c0 833d c34d 29be 5555 313e c579 a83d
000001d0: 198f 43ba ce0e 6c3b 6c4c 46bd 2afa c3bc
000001e0: 9339 833d c470 e33d 2a26 e73c 7060 c33d
000001f0: 7537 313d ebad d33d 496f 66bd 5650 1d3d
00000200: 2622 5bbd b03f 863d 5b8d 843d 2365 75bd
00000210: 74b0 d4bc 0be8 cfbc 7e64 7f3b 9350 ebbd
00000220: 4b1a d53d 0e93 dabb e35b d6bc 538f 07be
00000230: fb8f 7a3e 41cd aabd 39fe f7bc 6402 df3d
00000240: 7547 63bd 606a 843d 3a74 7e3c 8fdc dcbd
00000250: 582e 7cbc 5fb7 653b b6c5 5cbd d3a2 053d
00000260: 2496 5e3e d130 c438 75e0 6abd a023 f63c
00000270: 9a0c 9c3d 278e 003d dc25 f7ba 2dfd 92bd
00000280: 241e 18bc 6c89 82bc 4219 fdbd 1c20 72bd
00000290: 2ce5 80bd 6a76 fd3c e86e 333d 2a75 0abd
000002a0: 79f3 9cbd 26ee e6bd 38ee fc3c e89f 54bd
000002b0: a2b7 2abc 1dfb d33d 01ec 50bc ac6d 3dbd
000002c0: 61f1 16be d77a d53d 7682 b9bd c5b5 d53d
000002d0: cc6e 5abd a877 433d 3752 31bd ba7a 80bd
000002e0: 8d9a c53c f901 31bd f28c 33bd 7237 fbba
000002f0: 490d 06bd 88f6 03bd f636 8dbd 983e fb3c
00000300: dc79 00be 3d70 0d3d eb48 463d f5be 8c3d
00000310: 47bb 1e3e 8079 85bd ef3e 3ebd d555 95bd
00000320: abca d63d 3fc1 91bd 4bd2 b13d 25cb 673d
00000330: 4994 d7ba 3da8 ce3d 4e23 d23d 9480 87bd
00000340: 4393 a3bd c597 e83d 06e8 aebd 2e4d b8bb
00000350: f5b0 88bd 232b 733d 64e5 23be b238 343a
00000360: 5789 323d abe1 aabd 0a2d 04bd b6e2 4e3d
00000370: adfb b139 2495 363d 67c3 a7bd a46c 0a3e
00000380: 483b 62bd 6062 263e 8de3 50bd 5733 7dbc
00000390: b1d5 d739 c0dc a63d 5128 dfbc b5d6 88bd
000003a0: 0348 bd3d deb4 c53d f92e a4bd 0628 bebc
000003b0: 0693 1bbd b23a 20bd cb00 c93d 8827 cfbd
000003c0: c8f1 efbd 2f44 833d 7e59 d33c 4b6c fd3c
000003d0: a65b b63d 627b 04be d0de f7bd b47b 0f3d
000003e0: 6b51 643d ff09 81bc 244e 9dbd 9e1e 85bd
000003f0: 2aca f93b fae6 54bd 7a7c 1ebd 21e8 903c

actor.0.bias f4 [256]
0.0047327094 -0.023078036 -0.06637083 -0.073173545 -0.0125628505 0.042315956 0.0052415757 -0.022363544
-0.06435957 -0.06550584 -0.019287461 -0.024922624 -0.024918554 -0.052978165 -0.07129408 0.07609691
-0.026586866 -0.011243541 -0.081891045 -0.104035944 -0.049878567 -0.09196756 0.004084515 -0.0055303387
-0.06268024 -0.063697055 -0.035645843 -0.07836861 -0.10928857 -0.0066709663 -0.12510672 -0.008141782
-0.122637264 -0.090511955 -0.030979803 -0.10048614 0.04319239 -0.084570915 -0.054302957 -0.037975844
-0.06853453 -0.12784055 -0.07000097 -0.09055909 0.022984924 -0.085415274 -0.09109649 0.020566784
-0.11321254 -0.14626546 -0.06786393 -0.026797742 -0.09921767 -0.032276276 -0.054532368 0.08428314
-0.053046647 -0.12656663 -0.1255066 -0.09783529 -0.15039337 -0.070412524 0.007534765 0.05991659
-0.061190326 -0.05772823 -0.105135106 -0.076090716 -0.07768723 -0.002005156 -0.017687367 -0.019579189
-0.07799592 -0.105479576 -0.16387415 -0.13642858 0.048615515 -0.19248456 -0.049807202 -0.11736861
-0.06459806 -0.050589014 -0.08920291 -0.054381944 -0.05101941 -0.053041384 -0.09028464 -0.065074496
-0.11584898 0.0046288907 -0.16510741 -0.033147074 -0.024698796 -0.09673766 -0.16308393 -0.10981221
-0.11711568 -0.02352304 -0.004720151 0.07474542 -0.027098736 0.036611337 -0.094334446 -0.0153069105
0.0049627842 -0.06036345 -0.110658705 -0.12010376 -0.08145158 0.012018489 -0.04998007 -0.080530345
-0.06969871 0.002827408 -0.046907913 -0.14741781 -0.07591146 -0.08598262 -0.009191453 -0.056018014
0.021077588 -0.18222621 0.021364655 -0.04751989 -0.12016194 -0.021771587 -0.08794429 0.032034937
0.048626054 -0.06494176 -0.08418973 -0.09556172 -0.023224797 -0.108798474 -0.02400586 -0.10583286
-0.01377417 -0.17994592 -0.083415724 -0.06966455 -0.011646853 -0.0004112919 0.075530544 -0.15440544
-0.15079047 -0.086390354 -0.12335887 -0.08170886 0.029393137 -0.120786816 -0.063173704 -0.18303572
-0.14065062 -0.114626415 0.012840985 0.0011299199 -0.0793739 -0.19274038 0.03326739 -0.14868955
-0.050608043 -0.072783396 -0.13015538 -0.17293051 -0.13599305 -0.06129633 -0.028416065 -0.117711715
-3.904912e-05 -0.15071882 -0.11758701 -0.056461424 -0.19711563 -0.003537026 -0.07320343 -0.086431555
0.003648398 -0.16018777 -0.1362529 -0.111859255 -0.119328275 -0.097034596 -0.08756191 -0.15820925
-0.09877731 -0.07947455 -0.0356022 -0.04542072 0.05340695 -0.0110250395 -0.080481745 -0.08883995
-0.029347902 -0.03850342 -0.042440277 -0.109992236 -0.03701103 -0.14414856 -0.0678957 -0.16105968
-0.03357955 -0.13086095 -0.123070784 -0.036106147 -0.1276591 -0.07539172 -0.10652546 0.055121318
-0.0104435235 -0.026883144 -0.103674345 -0.044176795 -0.057137273 -0.0845746 -0.06426145 -0.11724323
-0.03432765 -0.16760507 -0.11472612 -0.13507523 -0.0115378825 -0.18696341 -0.072240986 -0.030617848
-0.060960263 -0.13788329 -0.0038968197 -0.11616689 -0.16835412 -0.04208264 -0.12559028 -0.029958235
-0.23271725 -0.032514036 -0.033069577 -0.043540332 -0.14019448 -0.08353454 -0.08024854 -0.09199067
-0.15542756 -0.15205298 -0.065543704 -0.07957784 -0.036964554 -0.033508133 -0.06511751 -0.07769333
-0.055973172 -0.13158007 -0.11593052 -0.03197531 -0.035936628 0.013898344 -0.06146446 -0.13922267
00000000: d814 9b3b 260e bdbc 6eed 87bd 03dc 95bd
00000010: 6ad4 4dbc 7f53 2d3d 86c1 ab3b c033 b7bc
00000020: f3ce 83bd ed27 86bd bd00 9ebc 882a ccbc
00000030: ff21 ccbc a2ff 58bd a102 92bd b2d8 9b3d
00000040: b3cc d9bc d436 38bc 7eb6 a7bd cc10 d5bd
00000050: 784d 4cbd 7d59 bcbd 65d7 853b d837 b5bb
00000060: 7f5e 80bd 9a73 82bd 6001 12bd b97f a0bd
00000070: b0d2 dfbd 1f98 dabb fa1b 00be 1c65 05bc
00000080: 3f29 fbbd 555e b9bd 5bc9 fdbc adcb cdbd
00000090: 81ea 303d 8433 adbd c76c 5ebd 8f8c 1bbd
000000a0: d55b 8cbd a2e8 02be ab5c 8fbd 0b77 b9bd
000000b0: e14a bc3c 34ee aebd cc90 babd ac7b a83c
000000c0: fadb e7bd 9dc6 15be 3efc 8abd f086 dbbc
000000d0: a232 cbbd 2134 04bd 555d 5fbd a49c ac3d
000000e0: 7147 59bd af9a 01be cd84 00be de5d c8bd
000000f0: b800 1abe 7134 90bd 31e6 f63b 196b 753d
00000100: b5a2 7abd 7074 6cbd 1351 d7bd 73d5 9bbd
00000110: 7c1a 9fbd ef68 03bb 19e5 90bc 8964 a0bc
00000120: 53bc 9fbd ad05 d8bd a0ce 27be efb3 0bbe
00000130: 1021 473d ac1a 45be a302 4cbd f45e f0bd
00000140: fd4b 84bd 6d36 4fbd 04b0 b6bd 9abf 5ebd
00000150: bbf9 50bd ec41 59bd 27e7 b8bd c745 85bd
00000160: 3b42 edbd f3ad 973b eb11 29be 3ac5 07bd
00000170: 2155 cabc 651e c6bd 79ff 26be 39e5 e0bd
00000180: 58da efbd 64b3 c0bc 7fab 9abb 2014 993d
00000190: 2bfe ddbc c5f5 153d 6b32 c1bd d6c9 7abc
000001a0: da9e a23b aa3f 77bd 08a1 e2bd f6f8 f5bd
000001b0: 16d0 a6bd 32e9 443c e7b7 4cbd 18ed a4bd
000001c0: 33be 8ebd 094c 393b 8322 40bd b2f4 16be
000001d0: 7877 9bbd a817 b0bd c097 16bc 2573 65bd
000001e0: e8aa ac3c 8299 3abe ee04 af3c 37a4 42bd
000001f0: 7717 f6bd 545a b2bc 231c b4bd 1137 033d
00000200: 1d2c 473d 2f00 85bd aa6b acbd ddb5 c3bd
00000210: ee41 bebc bcd1 debd f0a7 c4bc e6be d8bd
00000220: 0ead 61bc be43 38be ddd5 aabd 4aac 8ebd
00000230: 71d2 3ebc aaa2 d7b9 c2af 9a3d 761c 1ebe
00000240: d168 1abe 6ded b0bd 93a3 fcbd fa56 a7bd
00000250: e0c9 f03c 145f f7bd 3761 81bd b76d 3bbe
00000260: b706 10be 41c1 eabd ff62 523c d219 943a
00000270: c98e a2bd bc5d 45be 6343 083d 1342 18be
00000280: 614a 4fbd 760f 95bd 7447 05be b214 31be
00000290: c341 0bbe dc11 7bbd cfc8 e8bc d712 f1bd
000002a0: acc8 23b8 0956 1abe 75d1 f0bd 1844 67bd
000002b0: aed8 49be 73cd 67bb aeeb 95bd 0703 b1bd
000002c0: f619 6f3b 4308 24be e185 0bbe 7716 e5bd
000002d0: 6262 f4bd 13ba c6bd a953 b3bd 9b01 22be
000002e0: c24b cabd 8ec3 a2bd 9dd3 11bd 140b 3abd
000002f0: 3fc1 5a3d 5ea2 34bc 9dd3 a4bd b8f1 b5bd
00000300: 036b f0bc c3b5 1dbd dbd5 2dbd 9c43 e1bd
00000310: e198 17bd ae9b 13be e70c 8bbd d4ec 24be
00000320: b68a 09bd 6a00 06be 890c fcbd 0ae4 13bd
00000330: 11b9 02be f966 9abd 052a dabd e4c6 613d
00000340: 501b 2bbc 0a3a dcbc 3753 d4bd baf2 34bd
00000350: c608 6abd 7335 adbd 829b 83bd 381d f0bd
00000360: 269b 0cbd aaa0 2bbe 87f5 eabd 2951 0abe
00000370: 6309 3dbc 5673 3fbe 15f3 93bd 48d2 fabc
00000380: 78b1 79bd 4731 0dbe c961 7fbb e8e8 edbd
00000390: 0665 2cbe d95e 2cbd bd9a 00be f96a f5bc
000003a0: 6e4d 6ebe 702d 05bd f773 07bd 5957 32bd
000003b0: 248f 0fbe 2814 abbd 5959 a4bd 9b65 bcbd
000003c0: 6728 1fbe c7b3 1bbe c73b 86bd b5f9 a2bd
000003d0: 2568 17bd d33f 09bd 545c 85bd ae1d 9fbd
000003e0: 2044 65bd edbc 06be fb6c edbd 8bf8 02bd
000003f0: 4932 13bd e1b5 633c 28c2 7bbd 6390 0ebe

actor.2.weight f4 [256, 256]
-0.109577894 -0.098234944 -0.04037114 -0.015882863 -0.05325847 -0.02350018 -0.03268853 0.07211103
-0.028113717 0.07113392 0.023766683 0.007373549 -0.08438701 0.020620452 -0.0322876 -0.08500545
-0.008885313 -0.099785715 0.05720957 -0.08613412 -0.0053837555 0.009508815 0.03515856 0.054419857
-0.0064390316 -0.035345674 -0.04546988 0.062295806 -0.13005403 -0.1377444 -0.055912185 -0.0021523796
0.028276587 0.006630659 -0.038857292 -0.011807029 -0.038801216 0.056575757 -0.020307627 0.00067584467
-0.052832246 0.019216796 0.036461078 0.009676737 -0.036667172 -0.09067958 0.039868917 0.07883445
0.06448113 0.080054455 -0.014929155 0.04514312 -0.00621317 0.07297472 -0.0058331164 -0.045647133
-0.033629857 -0.04691414 -0.04387754 -0.07552884 -0.11299538 -0.017547406 -0.012267441 0.0571154
-0.090711445 -0.06764429 -0.009891547 0.11033133 -0.01005919 -0.07338716 -0.13289782 -0.07140154
-0.058693327 -0.08806106 -0.03893475 -0.028723178 -0.05308776 0.05299406 -0.04767996 -0.06908683
-0.07617072 0.01528928 -0.009075211 0.005740375 0.045785356 0.017609308 -0.05967111 0.020020738
0.056645785 -0.0056100697 0.014531066 -0.111061685 -0.016856771 -0.09394598 -0.020796053 -0.027015144
-0.124711186 -0.037243105 0.00769561 -0.07301904 -0.018626433 -0.035889238 -0.045523286 -0.055451933
-0.057107754 -0.15049446 0.07590607 -0.0043282737 0.08744491 -0.065426104 -0.03257052 -0.021303633
0.010778038 -0.09685211 -0.019462677 -0.016669659 -0.040108565 -0.053048115 0.0547469 0.010211345
-0.02528464 -0.06567942 0.011634664 -0.048166092 -0.021388715 -0.058576845 0.061560757 -0.03157008
-0.04125451 -0.03191315 0.011704848 -0.002667362 -0.0019295759 0.008664747 -0.045391846 0.019926306
-0.046392914 -0.03801078 0.03052683 0.039246287 0.0063241967 0.021737782 -0.058762666 0.00912941
0.009677464 -0.110344335 -0.0035714174 -0.15839685 0.018391253 0.005930907 -0.07775011 0.07166966
0.010042212 0.041179433 -0.09891594 -0.15935415 -0.058837995 0.07586181 0.019743 0.0015675663
-0.035633154 0.010671932 -0.0074313297 -0.09203093 0.08263103 -0.13908595 0.036455218 -0.061399546
-0.032643594 -0.098905 0.036008004 -0.10003311 0.010501452 0.03480672 0.013032534 0.028446466
-0.0241761 0.00576749 -0.05476584 0.0021325161 0.075267196 -0.03091798 -0.005085304 0.07782128
-0.112130456 0.034236867 -0.045627806 0.08158695 -0.045558758 -0.0134999305 -0.021036824 -0.03022572
-0.085200615 0.08947649 0.028185153 -0.017719971 0.009472365 -0.028619327 -0.043052107 0.010578234
-0.03701435 0.012883536 -0.08078501 -0.034975216 0.030008044 0.03642795 0.034351252 -0.05887482
0.052639227 -0.037581712 0.04259026 -0.0066977665 0.0077123456 -0.075593196 0.092581995 0.017798157
-0.036932115 -0.031317487 0.021453982 0.016885333 -0.043448962 0.049614888 -0.05054437 0.0030355686
-0.06777403 0.014523845 0.009217157 -0.0624912 -0.023948014 -0.034687765 -0.13394266 -0.071823575
-0.07502701 -0.0070505743 -0.11749232 -0.017818004 -0.024542298 -0.14726983 -0.032667924 0.0041541173
0.049270075 0.049051173 -0.13860306 -0.03739134 0.014683391 -0.0078743845 0.050659474 -0.058667324
0.061770625 -0.118823975 -0.039740678 -0.014550237 -0.0061014323 0.029082065 0.053822637 -0.011405545
00000000: 606a e0bd 672f c9bd 355c 25bd c71c 82bc
00000010: 8e25 5abd 7383 c0bc 68e4 05bd f3ae 933d
00000020: bd4e e6bc a9ae 913d 59b2 c23c d09d f13b
00000030: 19d3 acbd 39ec a83c 0140 04bd 5617 aebd
00000040: b493 11bc 745c ccbd 9554 6a3d 1667 b0bd
00000050: 376a b0bb dcca 1b3c 6c02 103d 5be7 5e3d
00000060: 83fe d2bb a0c6 10bd a03e 3abd e329 7f3d
00000070: e22c 05be de0c 0dbe 2d04 65bd f00e 0dbb
00000080: 4da4 e73c 0046 d93b d328 1fbd 4572 41bc
00000090: 06ee 1ebd fbbb 673d 2e5c a6bc 2b2b 313a
000000a0: a066 58bd 8b6c 9d3c 3658 153d 2d8b 1e3c
000000b0: 5130 16bd 37b6 b9bd 974d 233d f573 a13d
000000c0: af0e 843d 97f3 a33d 6a99 74bc fee7 383d
000000d0: d997 cbbb c573 953d ba23 bfbb 7df8 3abd
000000e0: 76bf 09bd 0b29 40bd efb8 33bd ddae 9abd
000000f0: 1f6a e7bd 94bf 8fbc 60fd 48bc d6f1 693d
00000100: ecc6 b9bd 1789 8abd 2810 22bc 64f5 e13d
00000110: 4dcf 24bc 024c 96bd 5e16 08be f83a 92bd
00000120: 6a68 70bd 5b59 b4bd 0b7a 1fbd df4c ebbc
00000130: 8d72 59bd 4d10 593d 104c 43bd 657d 8dbd
00000140: 65ff 9bbd e37f 7a3c 32b0 14bc c119 bc3b
00000150: 6d89 3b3d 6541 903c b269 74bd 8802 a43c
00000160: 6905 683d add4 b7bb b513 6e3c 4f74 e3bd
00000170: 3617 8abc c066 c0bd 7c5c aabc dd4e ddbc
00000180: 9468 ffbd 3a8c 18bd 752b fc3b 028b 95bd
00000190: 7696 98bc 9800 13bd a076 3abd 9121 63bd
000001a0: d2e9 69bd 381b 1abe a474 9b3d 31d4 8dbb
000001b0: 5116 b33d 1ffe 85bd aa68 05bd f584 aebc
000001c0: 5e96 303c 665a c6bd 3170 9fbc cf8e 88bc
000001d0: e148 24bd fb48 59bd 493e 603d 7c4d 273c
000001e0: bc21 cfbc ef82 86bd 519f 3e3c cf49 45bd
000001f0: 6337 afbc 46ee 6fbd 2227 7c3d a14f 01bd
00000200: 7dfa 28bd 5db7 02bd b1c5 3f3c e9ce 2ebb
00000210: d3e9 fcba 95f6 0d3c cdec 39bd 7e3c a33c
00000220: 7f06 3ebd 31b1 1bbd 6713 fa3c b7c0 203d
00000230: 353b cf3b 6f13 b23c 1fb1 70bd 8593 153c
00000240: 3a8e 1e3c 36fc e1bd 710e 6abb c932 22be
00000250: 41a9 963c 0e58 c23b 733b 9fbd 8bc7 923d
00000260: 1788 243c c4ab 283d 7194 cabd bc2d 23be
00000270: 1c00 71bd 705d 9b3d 12bc a13c cc76 cd3a
00000280: 12f4 11bd 54d9 2e3c 8382 f3bb b67a bcbd
00000290: 753a a93d 8c6c 0ebe 1152 153d 177e 7bbd
000002a0: 4ab5 05bd b48e cabd 217d 133d 29de ccbd
000002b0: 480e 2c3c 7e91 0e3d 6986 553c 9008 e93c
000002c0: f50c c6bc 36fd bc3b 2552 60bd afc1 0b3b
000002d0: b025 9a3d b447 fdbc 9fa2 a6bb c360 9f3d
000002e0: a7a4 e5bd f53b 0c3d 39e4 3abd 0f17 a73d
000002f0: d29b 3abd d02e 5dbc 6b55 acbc ee9b f7bc
00000300: a97d aebd 733f b73d 8de4 e63c 7929 91bc
00000310: fa31 1b3c 1473 eabc 6857 30bd 5450 2d3c
00000320: 5c9c 17bd 7715 533c 9c72 a5bd 2c42 0fbd
00000330: 6ed3 f53c 7935 153d e6b3 0c3d b926 71bd
00000340: 3b9c 573d 48ef 19bd 2073 2e3d f078 dbbb
00000350: d8b7 fc3b 9bd0 9abd a19b bd3d 71cd 913c
00000360: 2146 17bd c446 00bd 43c0 af3c 1c53 8a3c
00000370: 8af7 31bd fb38 4b3d 9d07 4fbd 64f0 463b
00000380: 1ccd 8abd 6cf5 6d3c 8f03 173c c6f6 7fbd
00000390: a02e c4bc c214 0ebd 4428 09be 3d18 93bd
000003a0: c3a7 99bd 8108 e7bb d09f f0bd 10f7 91bc
000003b0: ee0c c9bc e7cd 16be cdce 05bd 431f 883b
000003c0: 6bcf 493d e2e9 483d f6ed 0dbe a927 19bd
000003d0: 9b92 703c 9003 01bc 4f80 4f3d 264d 70bd
000003e0: 3203 7d3d fc59 f3bd 1fc7 22bd 1e64 6ebc
000003f0: 86ee c7bb 833d ee3c 2075 5c3d 53de 3abc

actor.2.bias f4 [256]
-0.05785736 0.025719333 -0.013648471 -0.014170948 -0.012834194 0.010242297 0.02546987 0.049845546
-0.010745454 0.013745517 -0.06878248 -0.014000154 0.076796375 0.023497988 0.025897287 0.046987344
0.01164161 -0.08414237 -0.06345354 -0.03416954 -0.006191098 0.03231184 0.09118721 -0.013531479
0.010357465 -0.07260936 -0.005506359 0.007257724 0.0064457464 0.09206221 -0.034600727 -0.0052671046
-0.04362465 0.0152553385 -0.03016653 0.040616352 -0.022654574 0.11470588 -0.0011901256 0.07296492
0.010612466 -0.08555232 -0.036576007 -0.0016558149 0.017536884 -0.070503086 0.00136904 -0.014844531
0.006106316 0.087079525 0.0020401224 -0.015786495 -0.022780903 0.075954214 0.022449503 -0.0071421843
0.041793827 -0.06125453 0.010949111 0.00034323876 -0.023006132 -0.06570944 0.054052997 0.039649114
0.071756616 -0.027673014 -0.056774907 0.08274787 0.02538291 0.0077907727 0.061034795 0.078288056
-0.020845111 0.04043206 -0.014894998 0.044377275 -0.08320462 0.07575408 -0.055111114 0.02263733
-0.023911022 -0.024578232 -0.0031447024 -0.0070206276 0.08773317 0.03369508 0.06965098 0.024122793
1.2853355e-05 0.048046533 0.0442541 -0.067239255 0.09656482 0.069105975 -0.08659942 -0.0025483158
7.352819e-05 -0.0061941748 0.04352472 -0.05177743 0.009882116 0.061399672 0.015388701 -0.002123082
-0.010926684 -0.0016776291 0.08592237 0.093269974 0.02564654 0.016645238 -0.07118808 0.051518127
0.012100641 0.04198355 -0.031828925 0.008397547 -0.018972479 0.007275518 -0.070736475 -0.043791406
0.03850881 0.095208615 -0.0125605725 0.008704554 0.043054968 -0.029594759 -0.058403995 -0.07135901
-0.0693154 -0.057182994 -0.008138497 -0.049497064 -0.0019439305 -0.07091275 -0.0465247 0.058659468
0.025895052 -0.041428152 -0.043376118 0.007448873 0.03767954 0.034415808 -0.023134604 -0.034024157
0.03271419 -0.03825209 0.005829527 -0.064307176 0.015547153 -0.04358553 -0.010365052 0.08532932
0.062485494 -0.021240167 -0.019043077 0.027003475 -0.007242529 -0.022596568 -0.077034466 -0.026710823
0.04417985 -0.0025502648 0.040939696 0.027634913 -0.01185682 -0.058549453 0.048861913 -0.0014105624
0.037965436 -0.076748505 0.047822267 0.034766637 -0.020666424 0.012360065 0.058564 0.031994145
0.09519059 -0.007899148 -0.018791256 -0.012727266 -0.056839336 0.039032955 0.100795455 0.005140049
0.010851509 -0.03413788 -0.057802316 0.0042633526 -0.07186676 0.025084604 0.029393118 -0.060997996
0.13676627 0.038658697 -0.01278719 0.08282344 -0.01759926 -0.056447953 -0.074415974 0.09598026
0.060520135 -0.065853335 -0.03925844 0.14245942 0.0048547457 0.009035439 -0.03209793 -0.093366496
0.06968352 0.12294408 -0.0003507293 -0.025963906 -0.08142831 0.057595495 0.07577458 0.08121222
0.042070035 0.048516322 -0.04230907 -0.0012730891 0.00670956 -0.023351483 -0.029180584 0.059617653
-0.020433629 0.10409604 0.082678504 -0.0050682626 -0.0063446215 0.010889755 -0.011014322 -0.06390567
-0.008866768 0.045507148 0.014427452 0.03256301 -0.04826966 0.08318518 -0.078526646 0.03651723
0.048321526 0.0069530224 -0.047017638 -0.037412196 0.031691924 0.08069943 0.007822735 -0.018041713
0.11946209 -0.015779365 -0.009211471 0.009539791 0.033875782 0.06913437 -0.011497834 -0.032890607
00000000: d7fb 6cbd 5ab1 d23c d69d 5fbc 442d 68bc
00000010: 8346 52bc 4fcf 273c 30a6 d03c d82a 4c3d
00000020: b30d 30bc e034 613c d4dd 8cbd e760 65bc
00000030: 6b47 9d3d da7e c03c 8c26 d43c cd75 403d
00000040: 74bc 3e3c d652 acbd eef3 81bd 5cf5 0bbd
00000050: b2de cabb 6c59 043d 5cc0 ba3d 23b3 5dbc
00000060: 5bb2 293c 37b4 94bd b06e b4bb 34d2 ed3b
00000070: d736 d33b 1d8b bc3d 7eb9 0dbd ad97 acbb
00000080: c3af 32bd 87f1 793c cc1f f7bc 555d 263d
00000090: 1696 b9bc ebea ea3d fdfd 9bba a26e 953d
000000a0: e9df 2d3c 0e36 afbd b9d0 15bd ee07 d9ba
000000b0: 83a9 8f3c ec63 90bd 5c71 b33a 7a36 73bc
000000c0: 7e17 c83b c056 b23d 93b3 053b ae52 81bc
000000d0: 049f babc e28d 9b3d 05e8 b73c fc08 eabb
000000e0: 0130 2b3d 08e6 7abd e663 333c baf4 b339
000000f0: 5b77 bcbc ac92 86bd ad66 5d3d 1c67 223d
00000100: 22f5 923d 84b2 e2bc ce8c 68bd b777 a93d
00000110: d2ef cf3c bd49 ff3b 9fff 793d 7d55 a03d
00000120: 5ec3 aabc 169c 253d 260a 74bc f2c4 353d
00000130: 2f67 aabd f524 9b3d 31bc 61bd ec71 b93c
00000140: 0ce1 c3bc 4a58 c9bc 5a17 4ebb 4b0d e6bb
00000150: 73ad b33d da03 0a3d 2ca5 8e3d 2a9d c53c
00000160: bda4 5737 71cc 443d ca43 353d bcb4 89bd
00000170: c7c3 c53d 6f87 8d3d 095b b1bd a501 27bb
00000180: 2533 9a38 81f8 cabb fa46 323d 9214 54bd
00000190: 99e8 213c 397e 7b3d e420 7c3c 6823 0bbb
000001a0: d605 33bc e4e3 dbba 11f8 af3d 5404 bf3d
000001b0: b118 d23c 985b 883c 0ecb 91bd ac04 533d
000001c0: c441 463c f1f6 2b3d 0c5f 02bd dd95 093c
000001d0: 2c6c 9bbc 7867 ee3b 49de 90bd 9e5e 33bd
000001e0: 6abb 1d3d bcfc c23d dcca 4dbc 8c9d 0e3c
000001f0: 685a 303d b570 f2bc 0739 6fbd ac24 92bd
00000200: 3cf5 8dbd b738 6abd 5557 05bc 6fbd 4abd
00000210: 7ccb feba b43a 91bd af90 3ebd e944 703d
00000220: dc21 d43c 91b0 29bd 28ab 31bd ad15 f43b
00000230: dd55 1a3d 97f7 0c3d c884 bdbc ea5c 0bbd
00000240: 51ff 053d 39ae 1cbd 9e05 bf3b 7bb3 83bd
00000250: 7cb9 7e3c be86 32bd 2ed2 29bc 23c1 ae3d
00000260: caf0 7f3d dcff adbc 3a00 9cbc 6436 dd3c
00000270: bd52 edbb 701c b9bc 3fc4 9dbd a8d0 dabc
00000280: eef5 343d 5822 27bb 62b0 273d 9d62 e23c
00000290: 1c43 42bc 8dd1 6fbd 6e23 483d 9fe2 b8ba
000002a0: a581 1b3d 522e 9dbd 48e1 433d 7667 0e3d
000002b0: a24c a9bc df81 4a3c cee0 6f3d 4b0c 033d
000002c0: 49f3 c23d 6e6b 01bc 1ff0 99bc 0686 50bc
000002d0: 5dd0 68bd 05e1 1f3d d96d ce3d db6d a83b
000002e0: 87ca 313c 29d4 0bbd 1fc2 6cbd 98b3 8b3b
000002f0: e12e 93bd 3a7e cd3c d6c9 f03c 09d9 79bd
00000300: 750c 0c3e 9558 1e3d 5d81 51bc 569f a93d
00000310: 532c 90bc f835 67bd 6767 98bd 4c91 c43d
00000320: f6e3 773d 1dde 86bd 75cd 20bd e2e0 113e
00000330: 8f14 9f3b 6109 143c 1e79 03bd ef36 bfbd
00000340: 3cb6 8e3d 1bca fb3d 17e2 b7b9 42b2 d4bc
00000350: e3c3 a6bd 41e9 6b3d b42f 9b3d 9852 a63d
00000360: a151 2c3d 0db9 463d 464c 2dbd c8dd a6ba
00000370: dedb db3b 9c4b bfbc 1f0c efbc a431 743d
00000380: 6d64 a7bc 4e30 d53d 5953 a93d ab13 a6bb
00000390: 8be6 cfbb f16a 323c 6a75 34bc fae0 82bd
000003a0: ec45 11bc b465 3a3d 1f61 6c3c ca60 053d
000003b0: 68b6 45bd fe5c aa3d 94d2 a0bd 1793 153d
000003c0: cbec 453d 2ed6 e33b 9195 40bd 883d 19bd
000003d0: 64cf 013d be45 a53d ee2a 003c 37cc 93bc
000003e0: 8aa8 f43d ba43 81bc b6eb 16bc c94c 1c3c
000003f0: 55c1 0a3d 5296 8d3d 6961 3cbc 4db8 06bd

actor.4.weight f4 [100, 256]
-0.009752658 -0.051416587 0.10363125 -0.036539286 0.108849026 0.015099889 -0.07738837 0.03563004
0.024498025 0.24791844 0.07132569 0.053914264 0.018436223 -0.008403632 -0.014790331 0.05002195
0.0639851 0.027420182 -0.015195182 0.10570855 0.08161976 0.10913072 0.05081651 0.08022447
-0.026708124 -0.004046028 0.17863627 0.057828546 0.10818124 0.23687024 0.132723 0.24280305
0.1124905 0.09735543 0.22278666 0.17786366 0.05307711 0.09332585 0.049036346 0.011690565
-0.077184565 0.1998386 0.027478466 0.24835512 -0.05471415 0.11491951 0.0019224113 0.15471232
0.08151612 0.14189096 0.09322576 0.07061079 0.259868 0.025693832 0.12485405 -0.086177506
0.04589682 -0.010965129 -0.01232947 -0.027400466 0.07216546 -0.029544292 0.15481745 0.12050094
0.07296327 0.18107946 0.02262469 0.07041349 0.105776496 -0.008990639 -0.021894153 -0.09776675
-0.05221736 0.13022685 -0.08460714 -0.11505334 -0.05829192 0.22471164 0.09645436 0.070644215
-0.0530942 -0.017491631 -0.006087964 -0.10725555 0.22068262 0.09488984 0.077206664 0.118005715
0.022274973 0.14800645 0.20280913 0.06495237 -0.0044232435 0.1427672 -0.060327258 0.007857336
0.019804489 0.08535162 0.015586761 0.029371152 0.037134297 -0.036610097 0.038352434 0.060035873
0.23372395 0.08648172 0.0673297 0.04009018 -0.011457521 0.2231451 0.01876828 0.11354571
-0.01934605 0.11272503 0.044407032 0.014287245 -0.04676644 0.03942732 -0.0051448788 0.04303289
0.2684474 0.1430558 0.08482531 0.07751537 -0.021018276 0.05384384 0.11903514 0.092186995
0.0037416187 0.045144707 0.020904858 0.009965335 0.012716077 -0.027765336 -0.026133796 -0.105219595
0.0021301943 0.017868603 0.034706328 0.07077496 -0.063256636 0.048299454 0.075675525 0.048697744
0.08888633 0.15090369 -0.034700148 -0.011195156 0.17682512 0.09078019 0.008069377 0.06782972
0.1465274 -0.07603706 -0.06658775 -0.028841227 0.008838413 0.054709118 0.0015980451 -0.098959155
0.21628286 0.0615712 0.1923504 -0.018023837 0.10461623 -0.03890066 0.06772938 0.061208475
0.3417166 0.017712602 0.07279832 0.070055805 0.17379788 -0.101026185 0.0063580307 0.10565688
-0.110765845 -0.08368703 -0.046673402 -0.012194016 0.023363272 0.15975523 0.0011491824 0.08384391
-0.02411141 0.028321818 0.12557831 0.03515887 -0.03397566 0.07736946 0.113896914 -0.0053193965
0.15584049 0.161564 -0.056880783 0.19702822 0.1609274 0.05942532 -0.020728862 0.14701422
0.020376256 0.12536404 0.051503927 0.12234274 0.0932326 -0.017585993 0.19014283 0.0523253
-0.12515414 0.009718592 0.16919717 0.042496555 0.085312024 0.11103316 0.06669958 -0.044017494
0.10699194 0.07824734 0.023704648 0.03380921 0.17511335 -0.009040771 0.10292442 0.108212724
0.21676922 0.095785804 0.015455953 0.044642385 -0.021944381 0.07247887 0.01147578 0.10458498
0.119525425 0.08600024 0.15218487 0.042227894 0.07854613 0.13761996 0.13778561 0.013739486
-0.00049716706 0.1501391 0.117851034 0.0003545073 0.064892784 0.09386362 0.026031543 0.10108529
0.0458623 0.065913126 -0.004174054 0.09199117 0.093713224 0.098545775 0.051833715 -0.07138943
00000000: 9dc9 1fbc 339a 52bd 9f3c d43d 38aa 15bd
00000010: 3dec de3d 8665 773c cb7d 9ebd cef0 113d
00000020: 15b0 c83c 55de 7d3e 3413 923d 34d5 5c3d
00000030: 9007 973c 63af 09bc 2553 72bc d1e3 4c3d
00000040: 9f0a 833d 4aa0 e03c 36f5 78bc b97d d83d
00000050: 4328 a73d ed7f df3d f924 503d ba4c a43d
00000060: ffca dabc 8b94 84bb 6dec 363e a0dd 6c3d
00000070: 208e dd3d 1d8e 723e 8ae8 073e 5da1 783e
00000080: 6b61 e63d 4962 c73d 3022 643e e421 363e
00000090: 6267 593d a021 bf3d 56da 483d c989 3f3c
000000a0: f112 9ebd 7da2 4c3e 851a e13c ce50 7e3e
000000b0: f21b 60bd ec5a eb3d 6bf9 fb3a e86c 1e3e
000000c0: ecf1 a63d dd4b 113e 26ed be3d 649c 903d
000000d0: 6b0d 853e df7b d23c 7bb3 ff3d d57d b0bd
000000e0: 4efe 3b3d 16a7 33bc 8c01 4abc f176 e0bc
000000f0: 7ccb 933d df06 f2bc 7788 1e3e 32c9 f63d
00000100: c46d 953d e56c 393e 6a57 b93c f334 903d
00000110: 59a1 d83d 794d 13bc 5e5b b3bc ef39 c8bd
00000120: dfe1 55bd 305a 053e 8246 adbd 16a1 ebbd
00000130: 82c3 6ebd cf1a 663e dd89 c53d eaad 903d
00000140: 4e79 59bd 9c4a 8fbc 8b7d c7bb cca8 dbbd
00000150: a0fa 613e 9b55 c23d 871e 9e3d fbac f13d
00000160: 017a b63c 018f 173e 32ad 4f3e c005 853d
00000170: dbf0 90bb 9131 123e b719 77bd 0ebc 003c
00000180: 063d a23c d5cc ae3d 9d5f 7f3c c59b f03c
00000190: 221a 183d 78f4 15bd 7117 1d3d 2de8 753d
000001a0: 5555 6f3e 541d b13d 27e4 893d 9a35 243d
000001b0: 53b8 3bbc 2680 643e f0bf 993c a78a e83d
000001c0: 9c7b 9ebc 61dc e63d 26e4 353d 0d15 6a3c
000001d0: 2b8e 3fbd 8b7e 213d 5f96 a8bb 4143 303d
000001e0: f071 893e 387d 123e e4b8 ad3d 61c0 9e3d
000001f0: 852e acbc 5c8b 5c3d b2c8 f33d 89cc bc3d
00000200: f235 753b a8e9 383d aa40 ab3c a545 233c
00000210: 1857 503c 2174 e3bc 8b16 d6bc 5f7d d7bd
00000220: bb9a 0b3b 2d61 923c 3928 0e3d 76f2 903d
00000230: b28c 81bd a6d5 453d c5fb 9a3d 4977 473d
00000240: 090a b63d 7f86 1a3e be21 0ebd e36b 37bc
00000250: a511 353e f7ea b93d 6c35 043c 4fea 8a3d
00000260: 470b 163e 51b9 9bbd 295f 88bd 7044 ecbc
00000270: fece 103c ab16 603d 7f75 d13a 19ab cabd
00000280: 4179 5d3e 1532 7c3d 81f7 443e baa6 93bc
00000290: 0941 d63d 4c56 1fbd b4b5 8a3d bdb5 7a3d
000002a0: 7af5 ae3e 051a 913c 4917 953d 6b79 8f3d
000002b0: 12f8 313e d1e6 cebd 0757 d03b a262 d83d
000002c0: 34d9 e2bd 1b64 abbd 9c2c 3fbd 69c9 47bc
000002d0: 5564 bf3c e096 233e 2aa0 963a 5bb6 ab3d
000002e0: 4b85 c5bc 2803 e83c 9a97 003e bf02 103d
000002f0: 102a 0bbd e173 9e3d c942 e93d 554e aebb
00000300: a694 1f3e 0971 253e d3fb 68bd c4c1 493e
00000310: 27ca 243e f767 733d 93cf a9bc e58a 163e
00000320: 1bec a63c 6e5f 003e c8f5 523d d58e fa3d
00000330: bcf0 be3d 8010 90bc cdb4 423e 0e53 563d
00000340: 6828 00be bb3a 1f3c 0642 2d3e de10 2e3d
00000350: 12b8 ae3d 5a65 e33d ca99 883d b04b 34bd
00000360: 971e db3d 2440 a03d 4030 c23c 877b 0a3d
00000370: ea50 333e be1f 14bc 0aca d23d a29e dd3d
00000380: c0f8 5d3e 592b c43d f73a 7d3c efda 363d
00000390: b4c4 b3bc cd6f 943d e904 3c3c a630 d63d
000003a0: bfc9 f43d e520 b03d 5ad6 1b3e 28f7 2c3d
000003b0: cbdc a03d 3fec 0c3e ac17 0d3e 951b 613c
000003c0: 5154 02ba 10be 193e e25b f13d 2add b939
000003d0: 82e6 843d 923b c03d 1a40 d53c ce05 cf3d
000003e0: 1bda 3b3d 76fd 863d 81c6 88bb de65 bc3d
000003f0: b8ec bf3d 5ed2 c93d 974f 543d 9f34 92bd

actor.4.bias f4 [100]
-0.047427237 -0.067186385 -0.008030337 -0.046811853 -0.008594406 -0.039431695 0.05875447 0.034918692
0.038982548 -0.019812787 -0.033846244 -0.029446172 -0.046737786 0.04776182 -0.009365318 -0.026312554
0.013670205 0.0073942435 0.042125404 -0.015795229 -0.01189689 -0.02787265 0.10500688 0.03697563
0.031639043 0.08192583 0.09609342 -0.05427329 -0.044664394 -0.055523936 -0.091938965 0.08516002
-0.05297161 0.025709232 -0.04701663 0.051356696 0.03252396 0.12039454 0.041445687 0.030595321
-0.03964673 0.02081517 -0.025446398 0.029611764 0.068590224 0.083284676 0.05231229 0.039500233
-0.022091536 -0.048257336 -0.11320433 0.02991168 -0.021703536 0.0014814662 -0.004933413 -0.022385981
0.011211173 0.081119366 0.042467948 0.052906796 -0.041303203 -0.037470497 0.10031507 0.04685188
0.025514716 -0.006342626 0.034851987 0.083712816 -0.001123628 -0.025991064 -0.095632896 -0.0019225206
-0.047070842 0.024740798 0.056610316 -0.11485405 0.052944385 0.07706004 0.052717697 0.034462806
-0.019391797 0.046712827 -0.0034149375 0.05470136 0.06212927 0.007857385 -0.08687359 0.1544157
0.03817551 0.06324043 -0.04202643 0.032956768 0.14285502 0.062168423 0.005792421 -0.00037066263
0.010672744 -0.00078010256 -0.15331878 -0.06022645
00000000: 1043 42bd 0499 89bd ad91 03bc c9bd 3fbd
00000010: 8dcf 0cbc 2183 21bd 87a8 703d e706 0f3d
00000020: 2aac 1f3d 6d4e a2bc 5ca2 0abd 1939 f1bc
00000030: 1f70 3fbd e6a1 433d fe70 19bc 6d8d d7bc
00000040: fff8 5f3c 694b f23b b08b 2c3d ff64 81bc
00000050: 2ceb 42bc 2f55 e4bc d90d d73d c273 173d
00000060: f197 013d bbc8 a73d a1cc c43d ab4d 5ebd
00000070: 03f2 36bd 116d 63bd 7f4a bcbd 6068 ae3d
00000080: c2f8 58bd 2b9c d23c 8394 40bd 665b 523d
00000090: d837 053d 6a91 f63d f4c2 293d 0aa3 fa3c
000000a0: 9c64 22bd 9384 aa3c f774 d0bc 5f94 f23c
000000b0: 0879 8c3d 2891 aa3d 6945 563d ffca 213d
000000c0: 4ff9 b4bc 7ca9 45bd acd7 e7bd 5709 f53c
000000d0: 9dcb b1bc c22d c23a 78a8 a1bb ce62 b7bc
000000e0: 11af 373c e921 a63d dff2 2d3d ccb4 583d
000000f0: 8c2d 29bd aa7a 19bd fd71 cd3d c2e7 3f3d
00000100: 3d04 d13c ced5 cfbb f5c0 0e3d a071 ab3d
00000110: b346 93ba 36eb d4bc 2edb c3bd 16fd fbba
00000120: 5bcd 40bd 37ad ca3c 38e0 673d 9a38 ebbd
00000130: 36dc 583d a7d1 9d3d 83ee 573d df28 0d3d
00000140: 8cdb 9ebc f355 3f3d 25cd 5fbb 890e 603d
00000150: 437b 7e3d 43bc 003c c8ea b1bd 261f 1e3e
00000160: ec5d 1c3d 3384 813d e823 2cbd adfd 063d
00000170: 9648 123e 51a4 7e3d 59ce bd3b 7f55 c2b9
00000180: bcdc 2e3c cc7f 4cba 99ff 1cbe 03b0 76bd
