Dat/critic/critic.pth (torch, 369551 bytes, 5 tensors)

critic.0.weight f4 [256, 100]
0	0xbe108473	-0.14113025
1	0xbd1b387a	-0.037895657
2	0x3d87fc74	0.066399485
3	0xbcada1ae	-0.021195259
4	0xbd55a4dc	-0.052159175
5	0x3c5fba1f	0.013655215
6	0xbd91d682	-0.07120992
7	0x3d619706	0.055075668
8	0x3d4348fe	0.047677033
9	0xbc868ece	-0.016425516
10	0xbc9d7ef0	-0.019225568
11	0xbd929f19	-0.07159252
12	0xbc8e602f	-0.017379848
13	0xbdbc46d0	-0.09193194
14	0xbc268afc	-0.010164972
15	0xbda87410	-0.08225262
16	0xbdfbd692	-0.122967854
17	0xbdd2de23	-0.102962755
18	0x3e4a4d1e	0.1975598
19	0x3e49f8d1	0.19723822
20	0x3c4befc9	0.012447306
21	0x3e210392	0.15724018
22	0xbe205fd1	-0.15661551
23	0x3e0d8a81	0.13822366
24	0xbda0ef76	-0.078581735
25	0xbe0c9993	-0.13730459
26	0xbda51684	-0.08060935
27	0x3b9156a6	0.004435378
28	0x3df5dde1	0.12005211
29	0xbe95b702	-0.29241186
30	0x3d409161	0.047013644
31	0x3e19d892	0.15024021
32	0xbcb260c2	-0.021774653
33	0x3caeb2fd	0.021325583
34	0xbc3a3c07	-0.011366851
35	0xbd81f468	-0.06345445
36	0x3e24032d	0.16016836
37	0xbcf5138d	-0.02991655
38	0x3dbd389f	0.09239315
39	0x3d4937c6	0.049125455
40	0x3e20d613	0.15706663
41	0xbcebc52e	-0.028780546
42	0xbe52a2b4	-0.20569879
43	0xbd7709b8	-0.060312003
44	0x3e030f9f	0.12798928
45	0x3d168316	0.036746107
46	0xbd837ea3	-0.064206384
47	0x3dc66df6	0.09688942
48	0xbd8fe690	-0.07026398
49	0x3e2a6417	0.16639744
50	0x3c6e0918	0.014528535
51	0xbc093de8	-0.008376576
52	0xbde42e87	-0.11141687
53	0xbe383430	-0.17988658
54	0xbdc897fc	-0.09794614
55	0x3dfdf596	0.124003574
56	0xbcc0b183	-0.023522144
57	0x3d00206c	0.03128092
58	0xbdfaeb97	-0.122519664
59	0x3dc4653e	0.09589623
60	0x3d0c62cd	0.03427391
61	0xbe40edec	-0.1884076
62	0xbd04f451	-0.03245956
63	0x3e1f5f9c	0.15563816
64	0xbde6b74b	-0.11265429
65	0x3dc4c6b9	0.09608216
66	0xbe1113d1	-0.14167716
67	0x3dac074f	0.083998315
68	0xbd52cdb9	-0.051465724
69	0xbd7569a5	-0.059915204
70	0x3a9bc7d2	0.0011885113
71	0x3c52e17b	0.012871142
72	0x3d33b063	0.043869387
73	0xbe05ad7b	-0.13054459
74	0x3c44bde0	0.01200816
75	0x3dae907e	0.085236534
76	0xbe010a74	-0.12601644
77	0xbd0b71f4	-0.03404422
78	0x3d85bcd3	0.06530156
79	0x3dfe9f23	0.12432697
80	0x3d444f09	0.047926936
81	0x3e1775eb	0.14791076
82	0xbe0cd897	-0.13754497
83	0x3e135ed8	0.14391649
84	0x3d1d87f9	0.03845975
85	0x3e02a67c	0.12758821
86	0xbcb2b468	-0.02181454
87	0x3e235f2b	0.15954272
88	0xbe2e86c5	-0.17043598
89	0x3daa0eaa	0.08303578
90	0x3dd842ee	0.10559641
91	0x3df8cfdc	0.12149021
92	0xbcb5b7c4	-0.022182353
93	0xbe018d6c	-0.12651604
94	0x3de8e3e9	0.113715954
95	0xbdc65f64	-0.09686163
96	0x3ac48b22	0.0014995078
97	0x3d6bf943	0.05761076
98	0x3e10ab8b	0.14127938
99	0xbc467b1a	-0.012114311
100	0xbdcd5f0f	-0.100278966
101	0xbdb8118b	-0.08987721
102	0x3e063e97	0.13109814
103	0x3bc7cd82	0.0060974965
104	0x3e25c627	0.1618887
105	0xbc2248a7	-0.009905017
106	0xbde92532	-0.113840476
107	0x3e1f2805	0.1554261
108	0xbdf5ee36	-0.12008326
109	0x3d068fa8	0.032851845
110	0xbd5a9737	-0.053366866
111	0xbdd3fe7c	-0.103512734
112	0xbdc7b406	-0.097511336
113	0xbbf2d01c	-0.0074100625
114	0x3d9361bc	0.07196376
115	0x3d73ccf6	0.059521638
116	0x3c2bb7ed	0.010480863
117	0x3dbf1b04	0.09331325
118	0xbe0433a3	-0.12910323
119	0x3dec7fbe	0.115478024
120	0x3d2fd4a7	0.04292741
121	0xbdd8c3a3	-0.1058419
122	0x3da76039	0.0817265
123	0xbe44d02d	-0.19220038
124	0xbe2225ae	-0.15834686
125	0x3dbda4c9	0.09259946
126	0xbdcb30d7	-0.09921425
127	0xbe504208	-0.20337689
128	0x3e6fdcf2	0.23424128
129	0xbe241026	-0.16021785
130	0x3db076b9	0.086163945
131	0x3dac3bd9	0.084098525
132	0xbde7d621	-0.11320139
133	0xbbb81973	-0.005618268
134	0xbd7bcc1a	-0.061473943
135	0x3e4676aa	0.19381204
136	0xbdc4d24d	-0.09610424
137	0xbd3f2d9e	-0.046674363
138	0xbda94aeb	-0.082662426
139	0x3cdda4de	0.027056154
140	0x3d8c2d36	0.06844561
141	0xbe67ef5a	-0.22649899
142	0x3d1097e3	0.0353011
143	0x3e368c75	0.17827018
144	0x3dc22e85	0.09481529
145	0xbd910533	-0.0708107
146	0x3d8f261b	0.0698969
147	0x3d92dc65	0.07170943
148	0x3aa4b9d0	0.0012567583
149	0x3cff69b4	0.031178333
150	0x3e5060f1	0.2034948
151	0x3d4f76cd	0.050650407
152	0xbe1ee47b	-0.15516846
153	0x3d7825e6	0.060583018
154	0x3e592f10	0.21209359
155	0xbd840f2d	-0.06448207
156	0xbc8686bf	-0.016421674
157	0xbdccf945	-0.10008482
158	0x3cdd4931	0.02701244
159	0xbcf6cf11	-0.030128034
160	0xbdc0a8a4	-0.09407166
161	0x3d032721	0.032019738
162	0x3d092991	0.033486906
163	0xbd6cc1ca	-0.057802
164	0xbde53d1c	-0.11193296
165	0xbe5dc666	-0.21657714
166	0x3cd2a456	0.025713127
167	0xbd9438bd	-0.072373845
168	0xbda67077	-0.0812692
169	0xbb8540ae	-0.0040665483
170	0xbd06c877	-0.032906022
171	0xbe3350c1	-0.17511274
172	0x3cb1491a	0.021641303
173	0x3c999ba8	0.01875098
174	0x3e67b122	0.22626165
175	0x3be84c91	0.0070892056
176	0xbe017f6e	-0.12646267
177	0x3e2b16dd	0.1670794
178	0x3e18394d	0.14865609
179	0xba880cfe	-0.0010379849
180	0x3d9c3f6d	0.07629285
181	0xbbcac888	-0.006188456
182	0xbd82904c	-0.06375179
183	0xbdf600b4	-0.12011853
184	0x3e68537f	0.22688101
185	0x3e0f173b	0.13973705
186	0xbd7bf7b5	-0.06151553
187	0x3bc267ef	0.0059328
188	0xbe043c7e	-0.12913701
189	0x3e13e237	0.14441763
190	0xbd203e6a	-0.039122023
191	0x3d8f9ac4	0.07011941
192	0xbe69e2c6	-0.22840413
193	0xbe3ef253	-0.18647127
194	0xbdec512d	-0.115389206
195	0x3e8b8da2	0.27256495
196	0x3d0c8eba	0.034315802
197	0xbd1e1200	-0.038591385
198	0x3c138e41	0.009006084
199	0x3d809f73	0.062804125
200	0xbe6a8f80	-0.22906303
201	0xbdb546b6	-0.08851378
202	0xbcbe7b5c	-0.023252182
203	0x3d9ff4ab	0.078103386
204	0xbb147c31	-0.0022657032
205	0xbc077d2c	-0.008269589
206	0xbd0a28a5	-0.033730168
207	0xbd369602	-0.044576652
208	0xbdd989f1	-0.10622013
209	0xbdf51dec	-0.11968598
210	0xbdb0c510	-0.08631337
211	0x3c0c064c	0.008546423
212	0xbd8e3ab2	-0.06944789
213	0x3d9d109c	0.076691836
214	0x3de83990	0.11339104
215	0xbd0007e2	-0.031257518
216	0xbd0d6773	-0.034522485
217	0x3da0dbe3	0.0785444
218	0x3d9656d7	0.07340782
219	0x3e3a21d4	0.18176967
220	0x3d2041ea	0.03912536
221	0xbd3f6deb	-0.046735685
222	0x3d29f7d2	0.041496105
223	0xbdf2385e	-0.118271574
224	0xbe15929a	-0.14606705
225	0xbcd6b8db	-0.026211193
226	0xbe72aef2	-0.23699549
227	0x3d5719d0	0.05251485
228	0xbd7542fa	-0.059878327
229	0xbe51e7c5	-0.2049857
230	0xbcce18a6	-0.025158238
231	0x3d5e9760	0.05434358
232	0xbcbbfd1d	-0.022947842
233	0x3dd941d1	0.106082566
234	0xbe581ab3	-0.21103935
235	0xbd09d21f	-0.033647653
236	0x3e39be75	0.1813906
237	0x3dc5fbea	0.096671894
238	0xbe1b21a6	-0.15149555
239	0xbbfabbf6	-0.007651801
240	0x3dfcf1c2	0.12350799
241	0xbe3a244b	-0.18177907
242	0xbdf0154f	-0.11722814
243	0x3d853ddf	0.065059416
244	0x3df0438f	0.11731636
245	0xbdb86014	-0.090027004
246	0x3cd223eb	0.025651893
247	0x3e0ffc2b	0.14061038
248	0x3e59c5a6	0.21266803
249	0x3da38bc2	0.07985641
250	0x3d76c35d	0.060244907
251	0x3d9f6968	0.077837765
252	0x3c1a89c6	0.009432262
253	0xbd9d1b1d	-0.07671187
254	0x3cc1ef45	0.023673663
255	0xbe15e783	-0.14639096

critic.0.bias f4 [256]
0	0x3f3717af	0.71520513
1	0x3f431e66	0.7621826
2	0x3f1b07d3	0.60558814
3	0x3f46a080	0.77588654
4	0x3f45cea8	0.7726846
5	0x3f278803	0.6544191
6	0x3f22edd0	0.63644123
7	0x3f4e4d26	0.8058647
8	0x3f54a006	0.83056676
9	0x3f214d0b	0.63008183
10	0x3f48812e	0.7832211
11	0x3f4442cc	0.76664424
12	0x3ef897cd	0.48553315
13	0x3f7af885	0.9803546
14	0x3f661e32	0.89889824
15	0x3f29badb	0.66300744
16	0x3f7cc8a4	0.98743653
17	0x3f7cf616	0.98813
18	0x3f554e37	0.8332247
19	0x3f7209b7	0.94546074
20	0x3f83d5f2	1.0299666
21	0x3cac9cfa	0.021070946
22	0x3f4ac1db	0.7920205
23	0x3f555d6a	0.83345664
24	0x3f232dd5	0.6374181
25	0x3f50ade7	0.81515354
26	0x3f34fed3	0.7070133
27	0x3f258799	0.6466003
28	0x3f4761cb	0.77883595
29	0x3f361f52	0.7114154
30	0x3f3b230e	0.73100364
31	0x3f6b238d	0.9185112
32	0x3f59fca1	0.85151106
33	0x3f41adf0	0.7565603
34	0x3f48951f	0.7835254
35	0x3f33beb6	0.70212877
36	0x3e0f1024	0.13971001
37	0x3f7a4f03	0.9777681
38	0x3f5e83a9	0.8691965
39	0x3f864520	1.0489845
40	0xbd86c23a	-0.065800145
41	0x3f6cf786	0.9256519
42	0x3f85700f	1.0424823
43	0x3f3e9b02	0.74455273
44	0x3f541143	0.8283884
45	0x3f6d7942	0.9276315
46	0x3f17604c	0.5913131
47	0x3effe09c	0.4997605
48	0x3f6c7e0a	0.9237982
49	0x3f6cba74	0.92472005
50	0x3f6b21bc	0.9184835
51	0x3f5dc6a0	0.866312
52	0x3e047d6d	0.12938471
53	0x3f0fe09e	0.56202114
54	0x3f4de0cd	0.80421144
55	0x3f518108	0.8183751
56	0x3f095c39	0.53656346
57	0x3ed6b843	0.41937456
58	0x3f777dd1	0.96676356
59	0x3f02d12f	0.5110044
60	0x3f4f21fd	0.80911237
61	0x3f34080c	0.7032478
62	0x3f369faa	0.7133738
63	0x3f112783	0.56700915
64	0x3f54c3e9	0.83111435
65	0x3f71b039	0.9440952
66	0x3f3de543	0.7417795
67	0x3f2379d7	0.6385779
68	0x3f75cb71	0.9601355
69	0x3f18dbac	0.5971019
70	0x3f6b6ba2	0.9196111
71	0x3f7c5503	0.9856722
72	0x3f5e4fa4	0.8684027
73	0x3f27629d	0.65384847
74	0x3f8531e1	1.0405847
75	0x3f657979	0.8963848
76	0x3f5fa2fe	0.8735808
77	0x3f79fc21	0.97650343
78	0x3f481052	0.781499
79	0x3f5bd17a	0.8586651
80	0x3f0f65ac	0.56014514
81	0x3f0089eb	0.50210446
82	0x3f1a147e	0.6018752
83	0x3f297ced	0.66206247
84	0x3f567830	0.8377714
85	0x3f3cd0eb	0.73756284
86	0x3f30bbb4	0.6903641
87	0x3f8236e5	1.0173002
88	0x3f0254a8	0.50910425
89	0x3f408a0f	0.7521066
90	0x3f81dba1	1.014515
91	0x3f65e78e	0.8980645
92	0x3f3d745e	0.7400569
93	0x3f25884e	0.6466111
94	0x3f7206f8	0.94541883
95	0x3f74eeaa	0.9567667
96	0x3f62037f	0.88286585
97	0x3f00a4c7	0.5025143
98	0x3f3060f7	0.68897957
99	0x3f72b2af	0.948039
100	0x3f1d5544	0.6145823
101	0x3f54dc08	0.8314824
102	0x3f730f3c	0.9494512
103	0x3f010353	0.503957
104	0x3f5c254d	0.85994416
105	0x3f11cd04	0.56953454
106	0x3f5d625b	0.86478204
107	0x3f04fcde	0.51948345
108	0x3f2db159	0.67848736
109	0x3f62b91b	0.885637
110	0x3f2edd95	0.6830686
111	0x3f7aa5b6	0.97909105
112	0x3f75ccd1	0.9601565
113	0x3f73ade3	0.95187205
114	0x3f417479	0.7556835
115	0x3e759ad7	0.23984848
116	0x3f1ea376	0.6196817
117	0x3f3f816b	0.7480685
118	0x3e76c760	0.24099493
119	0x3f409ff6	0.7524408
120	0x3f3229cb	0.6959502
121	0x3f4d9aa8	0.8031411
122	0x3f0da9f0	0.5533743
123	0x3f6f2126	0.93409956
124	0x3f468e93	0.775613
125	0x3f52739d	0.8220766
126	0x3f4ae823	0.7926046
127	0x3f804d82	1.0023654
128	0x3e99e011	0.30053762
129	0x3f464779	0.7745281
130	0x3f1ca3a5	0.611872
131	0x3ec44558	0.38334155
132	0x3f38d093	0.7219326
133	0x3ef0feb1	0.47069314
134	0x3f561502	0.83625805
135	0x3f6aa93a	0.9166447
136	0x3f647cd0	0.8925295
137	0x3f6847de	0.9073466
138	0x3f1e6ae8	0.61881876
139	0x3f45ccfc	0.77265906
140	0x3f624f22	0.88402
141	0x3f4f2d2c	0.809283
142	0x3f243036	0.64136064
143	0x3f1bd1b2	0.60866845
144	0x3f31bdd4	0.6943028
145	0x3f403c6e	0.7509221
146	0x3f235d8e	0.6381463
147	0x3f5b892c	0.8575618
148	0x3efc7473	0.49307594
149	0x3f45c50d	0.772538
150	0x3f21d2e3	0.6321241
151	0x3f6616a8	0.8987832
152	0x3f5e2cf3	0.8678734
153	0x3f670993	0.90248984
154	0x3f4572e0	0.7712841
155	0x3f32279c	0.6959169
156	0x3f0eb231	0.5574065
157	0x3f0c8607	0.5489201
158	0x3ef427d8	0.47686648
159	0x3f18fd0d	0.59761125
160	0x3f6a87ad	0.91613275
161	0x3f0a3434	0.53985906
162	0x3f49d62a	0.78842413
163	0x3f6130de	0.8796519
164	0x3f00b57e	0.50276935
165	0x3f7b1427	0.98077625
166	0x3f662588	0.8990102
167	0x3f49d694	0.78843045
168	0x3f7e82ab	0.99418133
169	0x3ee556d6	0.44792813
170	0x3f5a8f92	0.8537532
171	0x3f228ff8	0.6350093
172	0x3f1f676d	0.6226719
173	0x3f2ad10a	0.6672522
174	0x3f7e048f	0.99225706
175	0x3f18d08f	0.59693235
176	0x3f760fbf	0.96117777
177	0x3f69cfd9	0.91332775
178	0x3f354d61	0.70821196
179	0x3f69529c	0.91141677
180	0x3f6ae9ec	0.91763186
181	0x3f253835	0.6453889
182	0x3f5131a3	0.81716365
183	0x3f6ce615	0.9253858
184	0x3f3e3f98	0.74315786
185	0x3f4d4fd6	0.80199945
186	0x3f0fc85f	0.5616512
187	0x3f2a9e80	0.666481
188	0x3f412e94	0.754617
189	0x3f68c378	0.9092326
190	0x3f246a28	0.6422448
191	0x3f51a566	0.81893003
192	0x3f4b6dfe	0.7946471
193	0x3ed9c858	0.42535663
194	0x3f7fc06d	0.99902993
195	0x3f40f341	0.75371176
196	0x3f67d3d3	0.90557593
197	0x3f82a0ff	1.0205382
198	0x3f466127	0.7749199
199	0x3f4b0683	0.7930681
200	0x3f737a4c	0.95108485
201	0x3f597526	0.8494438
202	0x3f5adc05	0.85491973
203	0x3f1af154	0.6052449
204	0x3f1d7fb7	0.61523
205	0x3f1eb87b	0.62000245
206	0x3f4dc039	0.80371433
207	0x3f26455d	0.6494959
208	0x3f1e8e49	0.6193586
209	0x3f3d2ba1	0.738947
210	0x3ee57bc9	0.44821003
211	0x3e975f92	0.29565102
212	0x3f7271dc	0.94704986
213	0x3f650634	0.8946259
214	0x3f1f872c	0.6231563
215	0x3f6c1582	0.9222032
216	0x3f6916e9	0.91050583
217	0x3f3b2773	0.7310707
218	0x3df0a117	0.117494754
219	0x3f51ae98	0.81907034
220	0x3f7b4e07	0.98165935
221	0x3f27d93e	0.6556586
222	0x3f25efca	0.64819014
223	0x3f8147ec	1.0100074
224	0x3f810d6c	1.0082221
225	0x3f71d1b6	0.9446062
226	0x3ee5d8d3	0.44891986
227	0x3f403ce5	0.7509292
228	0x3f5b1885	0.8558429
229	0x3f31d42f	0.6946439
230	0x3f6efea7	0.9335732
231	0x3f880b7a	1.0628502
232	0x3f2fdbc2	0.686947
233	0x3f59eb48	0.85124636
234	0x3f858732	1.0431883
235	0x3f10f754	0.5662739
236	0x3f40a2be	0.75248325
237	0x3f899660	1.0749016
238	0x3f364c30	0.7121
239	0x3f343982	0.7040025
240	0x3f12dc2c	0.57367206
241	0x3f4a82ef	0.7910604
242	0x3f41dca8	0.7572732
243	0x3f4e9c79	0.8070751
244	0x3f7042cc	0.93851924
245	0x3f57dc59	0.843206
246	0x3f224f24	0.6340201
247	0x3f546f5b	0.82982415
248	0x3f49da91	0.7884913
249	0x3f4a3ae2	0.789961
250	0x3f443c9c	0.7665498
251	0x3f1d7f6a	0.61522543
252	0x3f456e4d	0.7712143
253	0x3f630ab8	0.8868823
254	0x3f262427	0.64898914
255	0x3f508e0b	0.8146674

critic.2.weight f4 [256, 256]
0	0xbd451ef0	-0.048125207
1	0xbd05daca	-0.032679357
2	0x3c720e07	0.014773852
3	0x3c679194	0.01413383
4	0xbccbb2cc	-0.02486553
5	0x3d44716b	0.047959726
6	0x3ca7a771	0.020465584
7	0x3bd3904a	0.0064564096
8	0x3d2c4fa3	0.042068135
9	0x3d0a78bb	0.033806544
10	0x3c52688f	0.0128423115
11	0xbd82d74d	-0.063887216
12	0x3cf7af42	0.030234937
13	0xbc33cdf8	-0.0109744
14	0x3d473c49	0.048641477
15	0xbd048c01	-0.03236008
16	0xbc013835	-0.007886936
17	0xbcac9e34	-0.02107153
18	0x3cf8686b	0.030323228
19	0xbd1ff087	-0.039047744
20	0x3d241fc1	0.040069345
21	0x3d08ebe7	0.0334281
22	0xbcbf6300	-0.023362637
23	0xbcd26851	-0.025684508
24	0x3c3344d2	0.010941701
25	0xbd8015ef	-0.062541835
26	0xbd0d1207	-0.03444102
27	0x3d31e49c	0.04343091
28	0xbd969a5c	-0.073536605
29	0xbd2855e4	-0.041097537
30	0xbc490839	-0.012270027
31	0x3a0e66dd	0.0005432198
32	0xbd612550	-0.054967225
33	0xbd8c9c3e	-0.06865738
34	0xbd8e8e5d	-0.069607474
35	0xbc872eb8	-0.01650177
36	0xbd650d67	-0.055920985
37	0xbd51db46	-0.051234506
38	0xbc501839	-0.012701088
39	0xbd31e0e7	-0.043427374
40	0xbc814ccb	-0.015783688
41	0xbd506c4b	-0.050884526
42	0xbd848b92	-0.064719334
43	0x3d33a83c	0.043861613
44	0x3bd79c13	0.006579885
45	0x3cbf1238	0.023324117
46	0xbd071d18	-0.03298673
47	0xbd7606f2	-0.060065217
48	0x3d1365f0	0.035985887
49	0x3ce3b078	0.027794108
50	0xbd6be119	-0.057587717
51	0xbd5bdb31	-0.053675834
52	0xbd0ef814	-0.034904554
53	0x3d367858	0.044548362
54	0xbd20beb8	-0.039244384
55	0xbc8c8fdc	-0.017158441
56	0x3cf1d623	0.029521054
57	0x3d52885c	0.051399574
58	0xbd9581b8	-0.073001325
59	0xbc92d6d1	-0.017924698
60	0xbcba47af	-0.02273926
61	0xbd2b3611	-0.04179961
62	0x3d1a9654	0.03774102
63	0xbc072744	-0.008249108
64	0xbd8818c6	-0.0664535
65	0x3be36ecb	0.006940698
66	0x3cce0d72	0.025152896
67	0xbc8ceed2	-0.017203722
68	0xbd0bbc2f	-0.034115013
69	0xbd3ad9f6	-0.04561802
70	0xbc811ee8	-0.015761808
71	0xbd957cec	-0.072992176
72	0xbbc73542	-0.006079347
73	0xbc86eaa7	-0.016469313
74	0x3d3b5ce1	0.045742873
75	0x3cde844f	0.027162699
76	0xbd78eee2	-0.06077469
77	0x3ca5a2e5	0.020219276
78	0x3c2c3d4a	0.010512659
79	0x3bba032c	0.0056766476
80	0x3d0294a6	0.031880043
81	0xbd1c1385	-0.038104553
82	0xbd1da111	-0.038483683
83	0xbbfa1330	-0.007631682
84	0x3bd6e80c	0.006558424
85	0x3c4d4247	0.012528009
86	0x3cad118f	0.021126537
87	0xbb80a461	-0.0039258455
88	0x3c4c40e9	0.012466648
89	0xbbdbbd48	-0.0067059137
90	0x3d5fefff	0.054672237
91	0xbd62532c	-0.0552551
92	0x3d15825f	0.036501285
93	0x3bc463e3	0.0059933527
94	0xbbf4fb9e	-0.007476284
95	0xbbaa2ff9	-0.005193707
96	0x3c858ff5	0.016303996
97	0xbb9b10de	-0.0047322353
98	0xbd1bd22c	-0.038042232
99	0x3d26d193	0.04072721
100	0x3d3cdf53	0.046111416
101	0xbc944224	-0.018097945
102	0xbc252f9f	-0.010082155
103	0xbd8068ca	-0.06269987
104	0x3d381d61	0.044949893
105	0xbd56fe89	-0.052488837
106	0x3cb7080c	0.022342704
107	0x3d25742f	0.040394004
108	0xbd33a2df	-0.043856498
109	0x3bfcab28	0.007710833
110	0xbd358391	-0.044314925
111	0x3d25e8b0	0.04050511
112	0xbd81cd2b	-0.06337961
113	0xbb139b72	-0.0022523073
114	0x3d2ab2d8	0.041674465
115	0xbd53e0cc	-0.051728055
116	0x3c300f92	0.0107459
117	0xbd211c96	-0.039333902
118	0xbc9742b5	-0.018464426
119	0x3b06377e	0.0020479853
120	0x3d1c10a2	0.0381018
121	0x3c978bcc	0.018499278
122	0x3c61ae08	0.013774402
123	0xbc57f459	-0.013180816
124	0xbd8b70e0	-0.068086386
125	0xbd4c45ad	-0.049871136
126	0x3c27a70d	0.010232699
127	0xbd6717c4	-0.05641915
128	0x3d227c60	0.039669394
129	0x3bfd8a99	0.0077374694
130	0xbd57861e	-0.05261814
131	0xbd8e109a	-0.0693676
132	0xbcc149f4	-0.023594834
133	0x3cdbd283	0.026833778
134	0xbd3619b1	-0.044458095
135	0xbb582d5b	-0.0032986018
136	0x3c569cab	0.013098876
137	0xbca66f42	-0.020316724
138	0xbccc6351	-0.024949702
139	0x3d5c4077	0.053772416
140	0xbd65317a	-0.055955388
141	0xbd8936f9	-0.06699938
142	0x3d08312f	0.03325003
143	0x3c5fba23	0.013655218
144	0x3b84bb8c	0.0040506776
145	0x3aa181ff	0.0012322067
146	0x3cad0566	0.021120738
147	0xbd6a3d84	-0.057187572
148	0x3cb3a926	0.021931242
149	0xbb24e09a	-0.0025158287
150	0xbd8d0358	-0.068854034
151	0xbc8a55a4	-0.01688654
152	0x3d11cdf0	0.035596788
153	0xbd5c9697	-0.05385455
154	0xbd11569e	-0.035482995
155	0x3c9ae028	0.018905714
156	0x3c858450	0.016298443
157	0x3cf09218	0.029366538
158	0xbd159503	-0.03651906
159	0xbd378e47	-0.04481342
160	0xbd0962c9	-0.033541474
161	0x3c946039	0.018112289
162	0x3c03aa72	0.008036243
163	0xbd908963	-0.070574544
164	0xbc220eed	-0.009891254
165	0xbc6f8609	-0.014619359
166	0x3cbfeefb	0.023429384
167	0x3d20f117	0.03929242
168	0xba37ba5d	-0.0007008666
169	0xbd7d36d8	-0.06181988
170	0xbd2c51ce	-0.042070203
171	0x3b7d663f	0.003866568
172	0x3d310f90	0.043227732
173	0x3cdb2ca2	0.026754681
174	0x3c952064	0.018203922
175	0x3c86bc8a	0.016447324
176	0x3d1ff63d	0.03905319
177	0x3b8af83c	0.0042410176
178	0x3cfffd5d	0.031248743
179	0x3b0c0218	0.0021363553
180	0xbd1f5e23	-0.038908135
181	0x3cf11a6d	0.029431546
182	0x3cea736d	0.028619492
183	0x3a982969	0.0011609021
184	0xbd5904c5	-0.052983064
185	0xbd692584	-0.056920543
186	0xbd0777be	-0.03307318
187	0xbd5299eb	-0.05141632
188	0x3cf8ed11	0.03038648
189	0xbd89eb00	-0.06734276
190	0xbc92091c	-0.01782661
191	0x3d021b18	0.03176412
192	0x3d48e23c	0.04904388
193	0xbd2a7d88	-0.041623622
194	0x3cc2cb1a	0.023778487
195	0xbc0c4774	-0.008561958
196	0x3c281130	0.010258004
197	0x3d46e1f8	0.048555344
198	0x3d0ae94d	0.0339139
199	0xbd67e6ff	-0.05661678
200	0x3cd1d3ea	0.025613744
201	0xbc139d6f	-0.009009703
202	0x3ceacdd0	0.028662592
203	0xbd887ff1	-0.06665028
204	0xbd61e9d0	-0.05515462
205	0xbd01b12b	-0.0316631
206	0x3cef0c33	0.029180622
207	0x3d317475	0.043323953
208	0xbc9f322f	-0.01943311
209	0xbd8ba9a1	-0.068194635
210	0xbd14ceea	-0.03633014
211	0xbcbb34e7	-0.022852374
212	0xbd93e7f6	-0.072219774
213	0xbd98a183	-0.07452681
214	0xbd796f84	-0.060897365
215	0x3c692dce	0.014232112
216	0xbd2867d9	-0.04111466
217	0xbb838ec4	-0.0040148217
218	0xbd8efa87	-0.06981378
219	0xbce0ff95	-0.027465621
220	0xbd4ed7ee	-0.050498895
221	0x3c8e2d1c	0.017355494
222	0xbd20329c	-0.039110765
223	0x3d1b6931	0.037942115
224	0xbd009940	-0.03139615
225	0x3b689914	0.0035491632
226	0x3c26a1c5	0.010170405
227	0x3cc4fdeb	0.024046859
228	0xbb236a0c	-0.0024935035
229	0x3c4ca8fe	0.012491463
230	0x3d51548e	0.05110603
231	0xbcb9e352	-0.022691403
232	0xbd5a93d4	-0.053363636
233	0x3c56940d	0.0130968215
234	0xbb8f99a6	-0.00438233
235	0x3b5469e8	0.0032411758
236	0xbcf77f43	-0.03021205
237	0x3d300ad2	0.04297907
238	0x3c735685	0.014852171
239	0xbca1751b	-0.01970916
240	0x3cc11bbf	0.0235728
241	0x3c0265b7	0.007958821
242	0x3d2386fe	0.03992366
243	0x3d14f73a	0.036368586
244	0xbcff0b69	-0.03113337
245	0x3d2a4d73	0.041577768
246	0xbb05c750	-0.002041299
247	0xbd324ecc	-0.043532178
248	0x3d013bff	0.031551357
249	0xbd65490b	-0.055977862
250	0xbd59f616	-0.0532132
251	0x39c57f8b	0.00037669795
252	0xbd90a250	-0.07062209
253	0xbd85bae3	-0.065297864
254	0x3d58007f	0.052734848
255	0x3d35bff2	0.044372506

critic.2.bias f4 [256]
0	0xbd7c24b4	-0.06155844
1	0x3f8e3b94	1.1111932
2	0x3cd07357	0.025445623
3	0x3f8a2b6b	1.07945
4	0x3f8dbbc1	1.1072923
5	0x3f8d2796	1.1027706
6	0x3f850d68	1.0394716
7	0x3f842a00	1.0325317
8	0xbd7c0f6c	-0.061538145
9	0x3f8d8d68	1.1058779
10	0x3d11803d	0.03552269
11	0x3f8e3221	1.1109048
12	0xbd02ba4a	-0.03191594
13	0x3f8fc829	1.1232959
14	0x3f8d09f2	1.101866
15	0x3f843ef0	1.0331707
16	0x3ca41a07	0.020031942
17	0xbdc0646a	-0.093941525
18	0xbc9bcfd8	-0.019020006
19	0x3f892f09	1.0717479
20	0x3f7144ef	0.9424581
21	0xbccfae76	-0.025351744
22	0x3f8b7886	1.0896156
23	0x3f8749d4	1.0569406
24	0x3f8f8fb2	1.1215727
25	0x3b6f594a	0.0036521726
26	0x3f817084	1.0112462
27	0x3f8e87c7	1.1135186
28	0xbd0ad4c2	-0.033894308
29	0x3f84693f	1.0344619
30	0x3d01fd3e	0.03173565
31	0x3f90d2dd	1.131435
32	0x3f83fa8e	1.0310838
33	0xbd8349e3	-0.06410577
34	0x3f895be9	1.0731174
35	0x3f8d0f5d	1.1020314
36	0x3f9070f5	1.1284472
37	0xbd9e4c8b	-0.07729443
38	0x3f92ba3f	1.1463088
39	0x3f816b73	1.0110916
40	0xbd9901f5	-0.074710764
41	0xbc08231d	-0.008309153
42	0x3f7e3b50	0.99309254
43	0x3f8244ec	1.0177283
44	0x3f84689a	1.0344422
45	0x3f8df9df	1.109188
46	0xbd280323	-0.041018616
47	0x3f8aa89c	1.0832705
48	0xbd8a66f3	-0.06757917
49	0x3f8c9c66	1.0985229
50	0x3b1d85ea	0.0024036118
51	0x3f8218fb	1.0163873
52	0x3f84d3ef	1.0377177
53	0x3f91da1b	1.1394686
54	0x3f8b5987	1.0886697
55	0xbd738c7f	-0.05946016
56	0xbc9931a5	-0.01870043
57	0x3f8430de	1.0327413
58	0xb93d0526	-0.00018026363
59	0x3f81ddeb	1.0145849
60	0xbd5cd150	-0.053910553
61	0x3f863a71	1.0486585
62	0xbdb7f2f1	-0.08981884
63	0x3f879b3a	1.0594246
64	0x3f85be6f	1.0448741
65	0xbcc6f3b9	-0.024286138
66	0x3f85b261	1.0445062
67	0x3f864343	1.0489277
68	0x3f92dd10	1.1473713
69	0x3f7c90b6	0.9865831
70	0x3f87fbd1	1.0623723
71	0xbd7cd04d	-0.06172209
72	0x3f894cca	1.0726559
73	0x3f812524	1.008946
74	0x3f8e50e0	1.1118431
75	0xbd8e6cbd	-0.06954334
76	0x3f91763c	1.1364207
77	0x3f873cca	1.0565426
78	0x3f8cea59	1.1009017
79	0xbd41d221	-0.047319535
80	0x3f8d89f7	1.1057729
81	0x3f811573	1.0084671
82	0x3f8e41c0	1.1113815
83	0x3f8576b4	1.042685
84	0xbd61fb77	-0.055171456
85	0xbbfe2c0d	-0.007756716
86	0x3f8825ac	1.0636497
87	0x3f864232	1.0488951
88	0xbd117548	-0.03551224
89	0x3f8cf6c8	1.1012812
90	0xbcb53e86	-0.02212454
91	0xb9110396	-0.00013829613
92	0x3f82215d	1.0166432
93	0xbc06cafc	-0.008227106
94	0x3cddfaf0	0.027097195
95	0x3f830d2d	1.0238396
96	0x3f8759b8	1.0574255
97	0x3f8c1938	1.0945196
98	0x3c819114	0.015816249
99	0xbb8b3305	-0.0042480254
100	0x3f684a13	0.9073803
101	0xbd54e945	-0.051980276
102	0xbd1bab24	-0.03800501
103	0x3f9126b4	1.1339936
104	0x3f864b7c	1.0491786
105	0xbd98da26	-0.074634835
106	0x3f784f92	0.96996415
107	0x3f8202eb	1.015714
108	0x3f8493de	1.0357625
109	0xbc99be68	-0.01876755
110	0x3f82d721	1.0221902
111	0x3f8bbb66	1.0916564
112	0xbd86a16f	-0.0657376
113	0xbd80d896	-0.062913105
114	0xbcdb6091	-0.026779445
115	0xbd9456b9	-0.072431035
116	0x3f909148	1.1294336
117	0xbda5f880	-0.08104038
118	0x3f8930df	1.0718039
119	0xbc193fc4	-0.009353582
120	0xbc978ddc	-0.018500261
121	0x3f90c048	1.130868
122	0xbc9f7e0e	-0.019469287
123	0x3f896903	1.0735172
124	0x3f8c8bda	1.0980179
125	0x3f8aee46	1.0853965
126	0x3f962565	1.1730162
127	0x3f8a93d5	1.0826365
128	0x3c1ec0a1	0.009689481
129	0x3f8e3e73	1.1112808
130	0x3f92e215	1.1475245
131	0x3d25b65f	0.040457126
132	0x3f861eef	1.047819
133	0xbc0e8649	-0.008699008
134	0x3c48c545	0.012254064
135	0xbd892f38	-0.066984594
136	0xbd6ba86f	-0.057533678
137	0xbd21c6e0	-0.039496303
138	0x3f84fe83	1.0390171
139	0x3f8ea232	1.1143248
140	0x3f896a9e	1.0735662
141	0x3f8b2237	1.0869817
142	0x3d3fc622	0.046819814
143	0x3f8f6dde	1.1205404
144	0x3f8dc14f	1.1074618
145	0x3f8c986f	1.0984019
146	0x3f8da69a	1.1066468
147	0x3f91ea9f	1.1399726
148	0x3f8bc61b	1.0919832
149	0x3f8a6610	1.0812397
150	0xbd35603f	-0.04428124
151	0x3f8fad32	1.122473
152	0x3f8fa9e8	1.1223726
153	0xbd928374	-0.07153979
154	0x3cefa59f	0.029253779
155	0x3d09f52d	0.033681083
156	0xbd2e517e	-0.042558186
157	0x3ec9c69a	0.39409333
158	0xbd561313	-0.052264284
159	0x3f8adb04	1.0848088
160	0x3f8e66c0	1.1125107
161	0xbd158f6b	-0.036513727
162	0xbd072922	-0.03299821
163	0xbd73da13	-0.059534144
164	0xbd06e0c0	-0.032929182
165	0x3f930d82	1.1488497
166	0x3f7f2727	0.99669117
167	0x3bc39ee1	0.0059698676
168	0x3f8b7f93	1.0898308
169	0xbb2b07cf	-0.0026097184
170	0xbd5fb3fe	-0.054615013
171	0x3f83f339	1.0308601
172	0x3f9169e8	1.1360445
173	0xbd9f25f8	-0.07770914
174	0x3f9102c3	1.1328968
175	0xbd0f2838	-0.034950465
176	0x3f88c406	1.0684822
177	0xbd0097bc	-0.031394705
178	0x3f7febc3	0.9996912
179	0x3f8e53bf	1.1119307
180	0xbbb1d8bc	-0.005427448
181	0x3f883b04	1.064301
182	0x3f8fac92	1.1224539
183	0x3f84efa5	1.0385634
184	0xbd9d1740	-0.0767045
185	0xbc481386	-0.012211686
186	0x3f87fa0c	1.0623183
187	0x3cfc425e	0.030793365
188	0x3f897eae	1.0741785
189	0xbc129ae8	-0.008948065
190	0xbc8fbde7	-0.017546607
191	0x3f8c3215	1.0952784
192	0x3f86f440	1.0543289
193	0x3f8aad49	1.0834132
194	0x3f8336a4	1.025105
195	0x3f85f2df	1.0464743
196	0x3f8a12f3	1.0787033
197	0xbaba1681	-0.001419738
198	0x3f8737c6	1.0563896
199	0xbd862622	-0.06550242
200	0x3f8d744c	1.1051116
201	0x3d1fc1c9	0.039003167
202	0x3f8966f0	1.0734539
203	0x3f880d76	1.0629108
204	0xbcf5e849	-0.030017989
205	0xbc24f8b5	-0.010069062
206	0xbb852732	-0.0040635103
207	0xbd331075	-0.043716867
208	0x3f832c3c	1.0247874
209	0x3f865be1	1.0496789
210	0xbd707f11	-0.05871493
211	0x3f88a34e	1.0674837
212	0x3f8daa54	1.1067605
213	0xbbd936b8	-0.0066288374
214	0xbd870dfd	-0.06594465
215	0x3f8036d2	1.001673
216	0x3f8f9881	1.1218415
217	0x3f892934	1.0715699
218	0x3f89010d	1.0703446
219	0x3f86c674	1.0529313
220	0xbc907152	-0.01763216
221	0x3f85a745	1.0441672
222	0xbca8b8e5	-0.020595977
223	0xbd02c3a8	-0.031924874
224	0x3f8f18fd	1.1179501
225	0xbd026e24	-0.03184332
226	0xbd443be3	-0.047908675
227	0x3f87b85a	1.0603135
228	0x3cbc51a2	0.022988144
229	0xbd24baca	-0.0402172
230	0x3f86ecd4	1.0541024
231	0xbc602a48	-0.013681956
232	0xbd803068	-0.06259233
233	0x3cf1e162	0.029526416
234	0x3f85dc38	1.045783
235	0x3f8eca96	1.1155574
236	0x3bddec46	0.0067725508
237	0x3f8e4099	1.1113464
238	0xbd5032bc	-0.050829634
239	0x3c3386ad	0.010957402
240	0xbd888295	-0.066655315
241	0xbd402e14	-0.046918944
242	0xbd9f2d1b	-0.07772275
243	0x3f821208	1.0161753
244	0x3f8f2ef3	1.1186203
245	0x3c94d54f	0.01816812
246	0x3f85c721	1.0451394
247	0x3f888220	1.0664711
248	0xbd749e10	-0.059721053
249	0xbd9443d6	-0.07239501
250	0x3c895f14	0.01676897
251	0x3c730ce2	0.0148346145
252	0x3f8de95b	1.108684
253	0x3f89309c	1.071796
254	0x3becf524	0.0072313715
255	0x3f8a9557	1.0826825

critic.4.weight f4 [1, 256]
0	0x3d2317e6	0.039817713
1	0xbd9df307	-0.077123694
2	0x3d36d972	0.044640966
3	0xbde06daa	-0.10958417
4	0xbd8b5791	-0.06803811
5	0xbdb065d1	-0.0861317
6	0xbdd315e2	-0.10306908
7	0xbdae6a8f	-0.08516418
8	0x3ca195e5	0.019724796
9	0xbda30884	-0.079606086
10	0x3cba96fb	0.022777071
11	0xbd74854f	-0.059697445
12	0x3d1b42e6	0.037905596
13	0xbdcb8113	-0.09936728
14	0xbdb843a8	-0.089972794
15	0xbd8214a3	-0.063515924
16	0x3c852a88	0.016255632
17	0x3d9cb168	0.07651025
18	0x3c33d3c2	0.01097578
19	0xbdb5208d	-0.08844099
20	0xbd124cb0	-0.035717666
21	0x3ca7a7aa	0.02046569
22	0xbde69968	-0.11259729
23	0xbdb50a33	-0.08839836
24	0xbdde02bd	-0.10840366
25	0x3b8dc8e7	0.004326928
26	0xbd8c5a6b	-0.06853183
27	0xbdbc9125	-0.092073716
28	0x3d1fb592	0.03899152
29	0xbd531df5	-0.05154224
30	0x3ce223cb	0.027604958
31	0xbdcb49e6	-0.099262044
32	0xbd8ac5d8	-0.06776017
33	0x3b7bd709	0.0038427731
34	0xbdae81d2	-0.08520855
35	0xbdd76900	-0.10518074
36	0xbdcdb3e2	-0.100440755
37	0x3d371af6	0.044703446
38	0xbdcb6101	-0.099306114
39	0xbd776b3c	-0.060405
40	0x3c4d3723	0.012525353
41	0x3cb3c39e	0.021943863
42	0xbd5ec047	-0.05438259
43	0xbd97e75a	-0.07417174
44	0xbd95e5be	-0.073192105
45	0xbd5d6afb	-0.054057103
46	0xbbcab27a	-0.006185827
47	0xbdac9409	-0.08426673
48	0x3d3249f6	0.043527566
49	0xbdd71056	-0.10501163
50	0x3c807fe2	0.01568598
51	0xbd9988ae	-0.07496773
52	0xbd7dba3c	-0.061945185
53	0xbe35fb6f	-0.17771696
54	0xbdcddd3e	-0.10051964
55	0x3c16b55a	0.009198511
56	0x3d0d4720	0.03449166
57	0xbd9a71e5	-0.07541255
58	0x3b01f34f	0.001982886
59	0xbd9cab0a	-0.076498106
60	0x3d02f785	0.031974334
61	0xbddad55c	-0.10685226
62	0x3cbedbd7	0.023298187
63	0xbddfba61	-0.10924221
64	0xbd92e41f	-0.07172417
65	0x3c8f24a6	0.01747353
66	0xbd468f03	-0.04847623
67	0xbd01aca5	-0.031658787
68	0xbdf6bd8b	-0.12047871
69	0xbd514ad9	-0.05109677
70	0xbdc299ea	-0.09502013
71	0x3d3a39dc	0.045465335
72	0xbd8f2c29	-0.06990845
73	0xbd4fa8c7	-0.050698068
74	0xbda48760	-0.08033633
75	0x3bc32ecd	0.005956507
76	0xbe5d8e3d	-0.21636291
77	0xbdae5ee8	-0.08514196
78	0xbd545888	-0.051842242
79	0x3cc075ec	0.02349373
80	0xbd8910b3	-0.06692638
81	0xbd86b51b	-0.06577512
82	0xbd96e68e	-0.073681936
83	0xbdc29325	-0.09500722
84	0x3cd1ec46	0.02562536
85	0x3d095122	0.03352464
86	0xbd85eb30	-0.06538999
87	0xbdc027ac	-0.09382567
88	0x3cd5b83d	0.026088828
89	0xbdbc77ac	-0.09202513
90	0x3b9348de	0.0044947704
91	0x3bb01e13	0.005374679
92	0xbd82532c	-0.0636352
93	0x3d1c1dc4	0.038114324
94	0x3d3d4e82	0.04621745
95	0xbda97b08	-0.082754195
96	0xbdcc1c8e	-0.09966384
97	0xbdd51f7a	-0.10406394
98	0x3d0d7c64	0.034542456
99	0x3bca29f5	0.0061695524
100	0xbe2acc78	-0.16679561
101	0x3ca72a03	0.020405775
102	0xbbb5053a	-0.0055243047
103	0xbdbd256d	-0.09235654
104	0xbd59bd82	-0.053159244
105	0x3d215ca4	0.03939499
106	0xbcd6f710	-0.026240855
107	0xbd8ca625	-0.06867627
108	0xbd49e819	-0.04929361
109	0x3c07a08e	0.008278025
110	0xbd9ac1ef	-0.07556521
111	0xbd9a762d	-0.075420715
112	0x3cfe2875	0.03102515
113	0x3c077d9d	0.008269695
114	0x3d0cf5be	0.034414046
115	0x3c9b07fe	0.01892471
116	0xbdd60fc2	-0.10452224
117	0x3d091539	0.033467505
118	0xbd94f17d	-0.07272623
119	0x3d4ee6d8	0.05051312
120	0x3d3ad591	0.04561383
121	0xbddf78fc	-0.10911748
122	0x3d1382b0	0.036013305
123	0xbd2affaf	-0.041747745
124	0xbd8d3d78	-0.0689649
125	0xbd57c2cc	-0.052676007
126	0xbe83cb1c	-0.25740898
127	0xbddb12bd	-0.106969334
128	0x3c199037	0.009372762
129	0xbd8e29e2	-0.06941582
130	0xbdd890f4	-0.105745226
131	0x3ac44ed8	0.001497711
132	0xbd4f90d5	-0.050675232
133	0xbbdf6c62	-0.00681834
134	0x3c923830	0.017849058
135	0x3cf28bfc	0.029607765
136	0x3c436cd7	0.011927805
137	0x3bed9698	0.007250618
138	0xbdccce30	-0.10000265
139	0xbda76688	-0.08173853
140	0xbdb75fbc	-0.08953807
141	0xbdd551b1	-0.10415972
142	0x3c0c8d05	0.008578544
143	0xbd859a6f	-0.065235965
144	0xbd5b390e	-0.05352121
145	0xbda86598	-0.082225025
146	0xbd71d9ff	-0.059045788
147	0xbddf1c00	-0.108940125
148	0xbd925185	-0.07144455
149	0xbd71ca5a	-0.059030868
150	0xbba279d5	-0.004958371
151	0xbddcd337	-0.107824735
152	0xbdd666ad	-0.104688026
153	0x3d38467e	0.0449891
154	0x3d3acf67	0.04560795
155	0x3c47bbc3	0.012190762
156	0x3d1c4584	0.038152233
157	0x3a185fc8	0.00058126124
158	0x3b188d19	0.002327746
159	0xbd3f50fa	-0.046708085
160	0xbde277e2	-0.11058022
161	0xbc0c9ab9	-0.008581811
162	0x3c60aaa1	0.013712556
163	0x3cc9dcc7	0.024641408
164	0x3bdeb2b1	0.006796204
165	0xbe5d71a9	-0.21625389
166	0xbd42bed5	-0.047545273
167	0xbbb61e1d	-0.005557789
168	0xbde2b033	-0.110687636
169	0x3c6766de	0.014123647
170	0xbaf67ab6	-0.0018804881
171	0xbd3efdf8	-0.046628922
172	0xbdad97aa	-0.08476193
173	0x3cf58c74	0.0299742
174	0xbd9d13eb	-0.07669815
175	0x3c0149c6	0.007891124
176	0xbd418927	-0.04724994
177	0x3cebf474	0.028803088
178	0xbd71227b	-0.058870774
179	0xbdad1ffb	-0.084533654
180	0x3c59388a	0.013258109
181	0xbd5cb67c	-0.05388497
182	0xbdcd137d	-0.10013483
183	0xbdbda407	-0.09259801
184	0x3d56fa41	0.052484754
185	0x3b819ab5	0.00395521
186	0xbd8f0b61	-0.06984592
187	0x3cba97b2	0.022777412
188	0xbdb97dd8	-0.09057206
189	0x3d2a1b63	0.041530024
190	0x3cba02fc	0.022706501
191	0xbdb7114e	-0.089388475
192	0xbdcc4732	-0.09974517
193	0xbd534ea1	-0.05158866
194	0xbd496c92	-0.049175806
195	0xbd767b62	-0.06017626
196	0xbd99ce7a	-0.075100854
197	0x3c7c8e63	0.015414807
198	0xbd83c0c0	-0.064332485
199	0x3ce3c799	0.027805137
200	0xbdea941a	-0.114540294
201	0x3d3d58c3	0.046227228
202	0xbd3b31c2	-0.04570175
203	0xbdb54441	-0.08850909
204	0x3ccf2c23	0.0252896
205	0x3c58e500	0.013238192
206	0x3cbbb896	0.022915166
207	0x3be20ae0	0.006898269
208	0xbd6c65fa	-0.05771444
209	0xbd99bdaf	-0.075068824
210	0x3ce96233	0.028489208
211	0xbd989471	-0.07450188
212	0xbd8217cb	-0.063521944
213	0x3c9201ef	0.017823188
214	0xba1adb2a	-0.0005907292
215	0xbdf4960e	-0.11942683
216	0xbd8e6ea4	-0.06954697
217	0xbdb030d9	-0.08603067
218	0xbdd75434	-0.10514107
219	0xbdded24e	-0.10879956
220	0x3d42efdd	0.047592033
221	0xbd5d7640	-0.05406785
222	0x3b50f1ed	0.003188248
223	0x3d193e02	0.03741265
224	0xbd987617	-0.07444399
225	0x3d10f9f2	0.035394616
226	0x3d19b24d	0.037523557
227	0xbd765067	-0.06013527
228	0x3d4deb94	0.050273493
229	0x3c5dd396	0.013539216
230	0xbdde973b	-0.10868689
231	0x3d05ebb1	0.032695476
232	0x3c50659b	0.012719537
233	0x3d2c15f6	0.04201313
234	0xbd33eee2	-0.04392899
235	0xbdaff4da	-0.085916236
236	0x3c4ee759	0.0126284
237	0xbde3c911	-0.11122335
238	0x3d26f386	0.040759586
239	0x3cfa9dee	0.030592885
240	0x3cb5a420	0.022172987
241	0x3c62e0cf	0.013847544
242	0xbc052442	-0.00812632
243	0xbda2303f	-0.079193585
244	0xbd75dd24	-0.06002535
245	0xbb04f646	-0.0020288392
246	0xbdddfacd	-0.10838852
247	0xbdadb699	-0.08482093
248	0x3cb588b7	0.022159917
249	0x3c293b2c	0.010329049
250	0x3d094d76	0.033521138
251	0xbbbb09c2	-0.0057079503
252	0xbd9dbab2	-0.07701625
253	0xbdaf706c	-0.08566365
254	0x3cdaa319	0.0266891
255	0xbdb3f12b	-0.087862335
