agent1/ppo/critic/critic.pth (torch, 369615 bytes, 5 tensors)

critic.0.weight f4 [256, 100]
0.03391105 -0.013235705 -0.020266106 -0.16175506 -0.2276604 -0.52738947 -0.26482973 -0.054921146
-0.019241333 -0.30787572 -0.005831569 -0.054293312 -0.27141327 -0.30730322 -0.548642 0.33895987
0.30216366 -0.048185125 0.016753944 -0.026317345 -0.22827044 -0.071867086 -0.01463917 0.04684975
0.5317323 0.25195983 -0.28554723 -0.51961505 -0.63951206 0.19352894 -0.09299271 -0.01925609
-0.23345697 0.08096376 0.13715264 -0.1521561 -0.09291256 -0.57178366 0.0034118951 0.14708252
-0.05069549 -0.29640573 -0.113186 0.19377042 0.12280447 -0.30005765 0.31682435 0.28231442
-0.16316655 -0.3622387 -0.27778414 -0.08284082 0.1981386 -0.17853644 -0.22329761 -0.00033994275
0.052190933 -0.19977191 -0.24917082 -0.022891829 -0.22114694 -0.46396473 -0.014885165 -0.20929725
0.1253498 0.20582196 -0.029039467 -0.22554056 -0.1993083 -0.3083133 0.049444232 -0.22650355
-0.020084755 0.15269284 -0.21456423 -0.020839462 -0.03174157 -0.44908622 -0.07491373 -0.22284001
0.37437227 0.18473372 -0.0040283324 0.025815535 0.093237676 0.34135118 0.09606871 -0.08607046
-0.39042655 -0.7449453 -0.055238105 0.05778656 0.052910056 0.041413285 0.11217404 -0.00781847
0.32345092 0.29862446 -0.3114262 0.36716315 0.41512156 0.05861227 -0.1451125 -0.021322304
0.030074358 -0.050258264 0.17581795 -0.04905484 -0.13354263 0.1234628 -0.18425903 0.19891252
0.18538782 -0.122858636 -0.2945045 0.01042554 -0.266247 0.051457193 -0.17386243 0.16075298
-0.22243235 0.39536002 -0.17561027 -0.025694808 0.024238722 -0.14117502 -0.121770024 -0.25174263
0.101737574 -0.16587289 -0.13472645 0.21870266 -0.0814331 -0.19160803 -0.18609235 0.2060107
-0.29943734 0.17600986 0.26993906 -0.2643007 0.3122231 -0.43414643 -0.06885299 -0.08154558
-0.3315575 0.27708808 -0.050050944 -0.25701937 -0.3322845 -0.14143941 -0.0033543447 0.052298732
-0.5829643 0.21820228 -0.11303466 -0.05528423 0.2515715 -0.044555467 -0.11391096 -0.09528253
-0.039160218 -0.14447407 -0.42991877 0.18194267 -0.0887236 -0.4023959 -0.19947627 0.073160656
-0.054348364 0.03734871 0.13135268 -0.19714457 -0.1346416 0.23995633 0.15926912 -0.1745352
-0.25788146 0.10897899 -0.38902256 -0.1646357 0.37070438 0.017815942 -0.035609502 -0.13964292
-0.12697026 0.005321857 0.29399437 -0.25866598 -0.009458587 0.15133162 -0.28505775 0.38033876
-0.09555441 -0.45743516 -0.0803171 -0.32279336 0.06616315 -0.013906953 0.20121257 0.22510238
-0.22466502 -0.3006085 0.12375113 -0.10317213 -0.15648445 -0.3988224 -0.010081864 -0.2791988
-0.013970245 -0.15044144 -0.05912253 0.074778594 -0.15124182 -0.35549742 0.26403245 0.26668078
-0.11301116 -0.09172508 -0.25721708 0.117827296 -0.02261564 -0.36383742 -0.05739831 -0.25919193
0.41262424 -0.015233227 -0.62132543 -0.35492492 -0.06116952 0.014006163 -0.006792052 0.15219668
-0.33296 -0.035279058 0.26476935 -0.4333753 -0.16032961 0.10214449 0.33138797 0.025294824
-0.39168012 -0.05119558 -0.22349577 -0.020598594 -0.055318806 -0.11546259 0.03506927 -0.29336214
-0.013683933 -0.24267021 -0.1363761 0.5203459 0.44067484 0.49406755 0.36371994 0.045970216
00000000: 50e6 0a3d 92da 58bc 1b05 a6bc 1ea3 25be
00000010: cf1f 69be ff02 07bf c397 87be fff4 60bd
00000020: 00a0 9dbc e3a1 9dbe bf16 bfbb aa62 5ebd
00000030: aef6 8abe d956 9dbe cd73 0cbf 268c ad3e
00000040: 32b5 9a3e c45d 45bd 913f 893c 7997 d7bc
00000050: babf 69be 0d2f 93bd 21d9 6fbc 86e5 3f3d
00000060: 9c1f 083f e100 813e 3f33 92be 7e05 05bf
00000070: 10b7 23bf 732c 463e f672 bebd f3be 9dbc
00000080: 580f 6fbe 54d0 a53d be71 0c3e cfce 1bbe
00000090: f148 bebd 6a60 12bf 1a9a 5f3b cd9c 163e
000000a0: 13a6 4fbd 7ec2 97be 10ce e7bd c16b 463e
000000b0: e980 fb3d 28a1 99be cd36 a23e 848b 903e
000000c0: 2215 27be 5a77 b9be b939 8ebe 73a8 a9bd
000000d0: d8e4 4a3e 42d2 36be 21a8 64be 583a b2b9
000000e0: 29c6 553d 0291 4cbe a326 7fbe a587 bbbc
000000f0: 5874 62be c98c edbe e8e0 73bc 0552 56be
00000100: b35b 003e fec2 523e 2de4 edbc 1bf4 66be
00000110: 7a17 4cbe 3edb 9dbe 0986 4a3d 8cf0 67be
00000120: c988 a4bc 835b 1c3e bab6 5bbe 85b7 aabc
00000130: 7303 02bd a1ee e5be 5f6c 99bd 2c30 64be
00000140: b9ad bf3e d62a 3d3e 1a00 84bb 1a7b d33c
00000150: 65f3 be3d 95c5 ae3e acbf c43d b645 b0bd
00000160: fde5 c7be bcb4 3ebf 5a41 62bd 9ab1 6c3d
00000170: 37b8 583d faa0 293d 81bb e53d 0a19 00bc
00000180: 5c9b a53e 4ee5 983e 4173 9fbe cffc bb3e
00000190: d08a d43e 6b13 703d 5f98 14be 1dac aebc
000001a0: 805e f63c 9cdb 4dbd 9f09 343e baed 48bd
000001b0: 66bf 08be 11da fc3d 66ae 3cbe b9af 4b3e
000001c0: 4ed6 3d3e 4f9d fbbd 4bc9 96be e2cf 2a3c
000001d0: 8751 88be c7c4 523d fe08 32be 6e9c 243e
000001e0: 4ec5 63be a16c ca3e 2ed3 33be eb7d d2bc
000001f0: 4990 c63c 2f90 10be 9062 f9bd 69e4 80be
00000200: ca5b d03d 95da 29be bbf5 09be 97f3 5f3e
00000210: 66c6 a6bd e534 44be fe8e 3ebe 78f4 523e
00000220: da4f 99be ee3b 343e 7435 8a3e 6c52 87be
00000230: b5db 9f3e 7148 debe cc02 8dbd 5e01 a7bd
00000240: e8c1 a9be 7dde 8d3e 3802 4dbd 0b98 83be
00000250: 3221 aabe 7ed5 10be 91d4 5bbb 3237 563d
00000260: 263d 15bf 6b70 5f3e b77e e7bd b771 62bd
00000270: fbcd 803e cb7f 36bd 264a e9bd 7d23 c3bd
00000280: 7766 20bd 03f1 13be 501e dcbe 2e4f 3a3e
00000290: b8b4 b5bd d606 cebe 8243 4cbe 41d5 953d
000002a0: 649c 5ebd f6fa 183d 5181 063e 44e0 49be
000002b0: 7ddf 09be 1db7 753e 7217 233e 5bb9 32be
000002c0: 0a09 84be 6030 df3d f72d c7be 4396 28be
000002d0: f7cc bd3e bdf2 913c 45db 11bd 8efe 0ebe
000002e0: 7e04 02be f962 ae3b 6e86 963e de6f 84be
000002f0: 30f8 1abc adf6 1a3e 17f3 91be c3bb c23e
00000300: 08b2 c3bd f134 eabe 4b7d a4bd 2c45 a5be
00000310: 8c80 873d fdd9 63bc ab0a 4e3e 3d81 663e
00000320: 960e 66be 5be9 99be 3c71 fd3d e94b d3bd
00000330: 763d 20be 7332 ccbe 672e 25bc 25f3 8ebe
00000340: 74e3 64bc 520d 1abe 772a 72bd 8525 993d
00000350: 23df 1abe c203 b6be 432f 873e 628a 883e
00000360: 6572 e7bd 5cda bbbd f5b1 83be 704f f13d
00000370: 6f44 b9bc e648 babe 7e1a 6bbd ceb4 84be
00000380: 7c43 d33e c994 79bc 2f0f 1fbf b8b8 b5be
00000390: e48c 7abd 1b7a 653c dd8f debb 72d9 1b3e
000003a0: bc79 aabe c680 10bd d98f 873e 5ee3 ddbe
000003b0: 722d 24be 2131 d13d afab a93e 1737 cf3c
000003c0: 4c8a c8be 75b2 51bd 13dc 64be 62be a8bc
000003d0: f995 62bd a677 ecbd cba4 0f3d 9033 96be
000003e0: 9332 60bc 8a7e 78be 2da6 0bbe 6435 053f
000003f0: 22a0 e13e 6cf6 fc3e 8039 ba3e 444b 3c3d

critic.0.bias f4 [256]
1.0728537 0.79797494 0.04623477 0.37495646 0.011421448 0.64655125 0.7909571 -0.24064536
0.29717487 0.46475887 0.9269151 0.5270795 0.51691073 0.049178436 0.3255728 -0.03439809
0.3946335 0.9497218 -0.0746332 0.49865657 0.13726367 0.5362421 0.36342463 0.230049
-0.23702201 0.49514577 0.3219128 -0.048479695 0.2518047 0.07639703 0.8995567 0.41457534
0.2707789 0.44416735 0.2833511 -0.22333987 0.14557712 -0.061407067 0.24292338 1.0148398
0.109799005 0.5756121 -0.87926906 0.5007022 -0.08608852 -0.008817983 0.011905223 -0.18226106
0.7700833 0.14255165 -0.0859385 0.6859036 0.07867914 0.25696325 0.6195797 0.055566326
-0.098825656 0.7921417 0.8548799 0.31994897 -0.074745126 0.03996732 0.055715512 0.623215
0.39050964 -0.033792194 0.09753009 0.58438134 0.9693637 0.66856515 0.23002133 0.6065697
0.52454764 0.0385994 0.7701684 0.0361399 0.34966913 0.3696397 0.09467469 -0.070697226
0.70271134 0.06749794 0.229326 0.055662774 0.05679417 0.17055002 0.044516854 0.41632083
0.15047559 -0.09561683 0.25650367 0.31439996 0.48084888 0.32847068 0.5797806 0.14196692
0.29008812 0.96580493 0.7990319 0.22185577 -0.20164874 0.1421494 0.01618129 0.43802965
0.17885372 -0.08476589 0.76784843 0.13027154 0.66855305 0.009341254 0.07442362 0.8955134
0.3891451 0.29042968 0.40936312 1.0747637 -0.46199495 0.04599014 0.5798098 -0.07993922
0.20847149 -0.7737026 0.8317866 0.18838915 0.6736414 0.06899635 -0.06430029 -0.010669013
0.34379295 0.16471346 0.85216546 -0.003011624 0.20850602 -0.12246389 0.2932713 0.6746372
0.37314683 0.26591998 0.47347024 -0.47739005 0.21493484 0.11201085 0.29477718 0.3724387
0.42642698 -0.17428906 0.4981081 0.355211 0.47511464 0.6139042 0.1662875 0.8555543
0.67832947 0.1727915 0.31278 0.44948986 -0.06268487 0.478485 0.061132174 -0.04533879
-1.001188 0.7275335 0.3670335 0.56691086 0.30322188 0.8548071 0.21972223 0.32674882
-0.1282647 0.411193 0.43164054 0.7494202 0.2870148 0.34804478 0.336326 0.075145975
0.38200974 0.71947104 -0.11089438 0.90972584 0.19963393 -0.011138884 -0.46426 0.35760546
-0.12462283 -0.21273246 0.6613407 0.7050059 -0.14745839 0.6815704 -0.7653259 0.92897797
0.258231 0.45323285 0.5798616 0.6318039 0.012826609 0.43425527 -0.035350062 0.69492215
0.57725155 0.050995696 -0.0068742516 0.7821418 0.15058708 0.051799502 0.5702141 0.23214372
-0.2931085 0.50917035 0.61507314 0.68668103 0.3897962 0.14432603 0.8267256 0.25796065
0.64381474 0.4603398 0.014042866 0.77792823 0.4989782 0.17882133 0.7388297 0.700462
0.22650446 0.40262222 0.34892774 0.025580825 0.5626861 0.19263259 0.31858113 0.86631215
-0.02360635 0.2860411 0.4504816 0.6239051 -0.01529439 4.002501e-05 0.6621263 0.30738148
0.04359364 0.3364528 0.47103658 -0.076289475 0.74252695 -0.060183235 -0.14025986 0.04260671
0.80671316 -0.17882437 0.49476674 0.4989852 0.66028666 0.3557789 0.6873243 -0.12506872
00000000: 4553 893f 1648 4c3f ac60 3d3d 4bfa bf3e
00000010: 0621 3b3c 6284 253f 2a7c 4a3f bd6b 76be
00000020: 4e27 983e e0f4 ed3e 4f4a 6d3f afee 063f
00000030: 4354 043f 546f 493d 7ab1 a63e 03e5 0cbd
00000040: 670d ca3e f820 733f 4bd9 98bd ea4f ff3e
00000050: d98e 0c3e 2a47 093f cb12 ba3e f791 6b3e
00000060: e6b5 72be bf83 fd3e c1d1 a43e a592 46bd
00000070: 8cec 803e 0c76 9c3d 5949 663f 3843 d43e
00000080: 88a3 8a3e e769 e33e 6513 913e 35b3 64be
00000090: 2b12 153e fa85 7bbd e8c0 783e 45e6 813f
000000a0: 4dde e03d 515b 133f c717 61bf 052e 003f
000000b0: 2e4f b0bd 4d79 10bc 200e 433c a5a2 3abe
000000c0: 2e24 453f 0ff9 113e 8600 b0bd 6197 2f3f
000000d0: 8722 a13d b090 833e c69c 1e3f 8499 633d
000000e0: 1b65 cabd ccc9 4a3f 69d9 5a3f 5ad0 a33e
000000f0: f913 99bd c6b4 233d f335 643d 058b 1f3f
00000100: e1f0 c73e af69 0abd dbbd c73d 049a 153f
00000110: 3828 783f 1627 2b3f b68a 6b3e 2748 1b3f
00000120: c148 063f 681a 1e3d c229 453f 6f07 143d
00000130: d507 b33e 6a41 bd3e cee4 c13d b5c9 90bd
00000140: e4e4 333f 5c3c 8a3d 6fd4 6a3e a6fe 633d
00000150: 01a1 683d aaa4 2e3e 4e57 363d 0128 d53e
00000160: 4616 1a3e c2d2 c3bd 7354 833e 08f9 a03e
00000170: d331 f63e 4f2d a83e 806c 143f c75f 113e
00000180: 6e86 943e fe3e 773f 5b8d 4c3f 292e 633e
00000190: 027d 4ebe 9d8f 113e a08e 843c 6c45 e03e
000001a0: 6e25 373e bd99 adbd b791 443f e765 053e
000001b0: 4b26 2b3f 0f0c 193c 696b 983d 5e40 653f
000001c0: 073e c73e 33b3 943e 0b98 d13e db91 893f
000001d0: 9a8a ecbe 2860 3c3d 6a6e 143f 2cb7 a3bd
000001e0: 8d79 553e 6011 46bf f7ef 543f 16e9 403e
000001f0: c373 2c3f f54d 8d3d dfaf 83bd 15cd 2ebc
00000200: a105 b03e a5aa 283e 8427 5a3f ab5e 45bb
00000210: 9a82 553e 59ce fabd a827 963e 06b5 2c3f
00000220: 1a0d bf3e aa26 883e b16a f23e 786c f4be
00000230: e117 5c3e f265 e53d 09ed 963e 49b0 be3e
00000240: a354 da3e d578 32be 0608 ff3e 37de b53e
00000250: 3a42 f33e d328 1d3f 4547 2a3e 9b05 5b3f
00000260: 00a7 2d3f 41f0 303e b324 a03e 8923 e63e
00000270: ed60 80bd fcfb f43e bb65 7a3d 2bb5 39bd
00000280: ee26 80bf a33f 3a3f d1eb bb3e 1221 113f
00000290: e63f 9b3e a3d4 5a3f ddfe 603e 9f4b a73e
000002a0: d257 03be e487 d23e fdff dc3e 01da 3f3f
000002b0: 9bf3 923e ed32 b23e ec32 ac3e 22e6 993d
000002c0: c896 c33e 412f 383f 981c e3bd cbe3 683f
000002d0: d66c 4c3e de7f 36bc 7db3 edbe 1018 b73e
000002e0: 413a ffbd 8ad6 59be a04d 293f 447b 343f
000002f0: 55ff 16be 667b 2e3f 66ec 43bf 80d1 6d3f
00000300: db36 843e 230e e83e cf71 143f e6bd 213f
00000310: b326 523c b556 de3e 3acb 10bd 6be6 313f
00000320: c2c6 133f dde0 503d 6741 e1bb 723a 483f
00000330: 8033 1a3e b72b 543d 8df9 113f 15b7 6d3e
00000340: 5112 96be fd58 023f 6f75 1d3f 54ca 2f3f
00000350: 5e93 c73e 34ca 133e 4aa4 533f 6b13 843e
00000360: 0bd1 243f a9b1 eb3e 0d14 663c 4e26 473f
00000370: 127a ff3e f01c 373e f123 3d3f 7a51 333f
00000380: c9f0 673e 8024 ce3e a8a6 b23e e18e d13c
00000390: 320c 103f 7a41 453e 111d a33e a2c6 5d3f
000003a0: 1b62 c1bc fb73 923e 86a5 e63e 3fb8 1f3f
000003b0: 5295 7abc 87e0 2738 1c81 293f 1b61 9d3e
000003c0: 3f8f 323d 8b43 ac3e b52b f13e a83d 9cbd
000003d0: 3f16 3e3f b282 76bd 48a0 0fbe 6084 2e3d
000003e0: c184 4e3f bc1d 37be 1152 fd3e fd7a ff3e
000003f0: 8c08 293f a728 b63e 7cf4 2f3f 0412 00be

critic.2.weight f4 [256, 256]
0.05456215 0.202357 -0.017199766 0.061672125 -0.3339131 0.13970447 -0.0034212435 -0.20492841
-0.11739915 -0.025990758 0.14925498 0.28664407 0.082614355 -0.21765038 0.48224875 -0.22312422
0.43508807 0.5445838 0.24156538 0.037097327 0.29516467 0.3560891 0.30316198 0.1579877
0.06170566 -0.025882147 0.4041269 0.08721488 0.62488735 0.24772528 0.093421705 0.09551844
-0.13230458 0.5325981 0.29893187 -0.048191536 -0.39392504 -0.05118936 0.032878626 0.053336892
0.13819876 0.010819231 -0.42203665 0.36042318 -0.07276645 0.41001442 0.13587297 -0.16285372
0.10794274 -0.19128543 0.2991716 0.051745713 0.20941393 0.32565188 0.4033318 0.4865371
-0.25279024 0.24751005 0.116196744 0.33007315 0.16862105 0.6477498 0.051423237 0.33441207
0.4903449 0.30124408 -0.45421833 0.0108040925 -0.028367614 0.18071268 0.1302367 0.1247005
0.20388156 -0.16619273 0.27465466 0.25660935 -0.31974283 0.06535396 0.2261733 0.43605074
0.06870951 -0.07692677 -0.07455666 0.37027526 0.32925147 0.3557805 0.23570007 0.3642671
0.13346998 0.26562202 0.29681125 0.5100621 0.27233434 -0.14249097 -0.26896384 0.21893178
0.12783311 0.123630926 0.010419414 0.24742277 -0.5050859 0.7975754 0.41110682 0.23548777
0.42196527 0.23165613 0.14063479 0.44330674 0.17238735 0.040650297 0.15331124 0.080384165
0.43249804 0.3703403 0.39722204 -0.007274648 -0.3500308 -0.12311154 0.13303085 0.1954803
0.27322552 -0.3120659 0.18960464 0.3660233 0.36613837 -0.34380937 0.32245675 -0.25178936
0.11782237 0.07910334 -0.039524473 0.3977013 0.0027183199 -0.24386805 0.27508134 0.074198484
0.26976284 0.28830135 0.29043305 0.0019736115 0.2426159 0.24792026 0.37340152 0.087483585
0.061593093 -0.035531 0.10956583 0.15261708 0.16746329 0.040630028 0.21993923 0.024959918
-0.07818442 -0.014643654 -0.16017696 0.4882016 0.26511416 -0.014566301 0.2125453 0.07144915
-0.48693302 0.04249157 0.060123865 0.13788895 0.4973768 0.17446984 0.18245684 0.18316111
0.58616316 0.3578523 0.38230628 0.10069869 0.33526504 0.17536557 -0.17239322 0.60898083
0.113960475 0.18331386 -0.0026591269 0.21872856 0.34289154 0.3812125 0.54152983 0.10740863
-0.0097797355 0.508102 0.13861743 0.2827845 0.083693095 0.5476803 -0.32447514 -0.09218644
0.16855422 0.20749749 0.24762416 0.11848777 0.1652533 0.18224873 0.12888409 0.19873258
0.13203794 0.121237196 -0.10280927 -0.017468877 0.3103134 -0.11200079 0.22540818 0.2888534
-0.02552695 -0.34194446 0.1970598 -0.0057661063 0.33175844 0.18944985 0.18451227 -0.016906321
0.2031059 0.25020024 0.29538998 -0.22315642 -0.4048579 0.22100498 0.13937809 0.33595538
0.33082286 0.42192668 0.09028534 0.29889464 0.078780465 0.2432331 0.4212686 0.24654804
0.35014474 0.3688498 0.41682884 0.2839903 0.72640365 0.3814818 -0.07162072 0.38641044
0.021772608 0.004472744 0.25168648 0.37672135 0.5554232 0.64462036 -0.007982352 0.047155984
-0.01196759 0.3708861 -0.06506121 0.1940446 -0.021027364 -0.1185678 0.011766195 0.10605757
00000000: 907c 5f3d ac36 4f3e 86e6 8cbc e99b 7c3d
00000010: a8f6 aabe b00e 0f3e f136 60bb c1d8 51be
00000020: f76e f0bd 92ea d4bc 4cd6 183e 03c3 923e
00000030: b731 a93d bedf 5ebe 4fe9 f63e ad7a 64be
00000040: ddc3 de3e d869 0b3f ea5c 773e 5ef3 173d
00000050: d31f 973e 4f51 b63e 0c38 9b3e 87c7 213e
00000060: 13bf 7c3d cc06 d4bc b9e9 ce3e b79d b23d
00000070: 9ef8 1f3f b2ab 7d3e e153 bf3d 2c9f c33d
00000080: da7a 07be 5958 083f 990d 993e 7d64 45bd
00000090: 8bb0 c9be efab 51bd bdab 063d c977 5a3d
000000a0: fa83 0d3e 2543 313c 3015 d8be 6389 b83e
000000b0: 9406 95bd 69ed d13e 4922 0b3e 20c3 26be
000000c0: 1511 dd3d 54e0 43be 052d 993e 50f3 533d
000000d0: 9b70 563e d8bb a63e 8181 ce3e 641b f93e
000000e0: b96d 81be 4673 7d3e 8ff8 ed3d 59ff a83e
000000f0: ffaa 2c3e eed2 253f 2ca1 523d 0f38 ab3e
00000100: 7d0e fb3e aa3c 9a3e 4e8f e8be a603 313c
00000110: 3363 e8bc bf0c 393e c55c 053e fa62 ff3d
00000120: 54c6 503e 6d2e 2abe 899f 8c3e 4d62 833e
00000130: 55b5 a3be 4cd8 853d f999 673e 0b42 df3e
00000140: 92b7 8c3d c88b 9dbd 2ab1 98bd b894 bd3e
00000150: a693 a83e dd28 b63e 5c5b 713e 3881 ba3e
00000160: 5bac 083e 9cff 873e a5f7 973e 6e93 023f
00000170: 686f 8b3e 27e9 11be a1b5 89be a72f 603e
00000180: afe6 023e 3632 fd3d 31b6 2a3c 655c 7d3e
00000190: 4f4d 01bf e72d 4c3f 987c d23e b523 713e
000001a0: d50b d83e 4437 6d3e 9102 103e 1af9 e23e
000001b0: 4f86 303e ed80 263d 9ffd 1c3e 74a0 a43d
000001c0: 6270 dd3e 3e9d bd3e b060 cb3e 2c60 eebb
000001d0: 3d37 b3be e721 fcbd 3d39 083e fd2b 483e
000001e0: 37e4 8b3e 1ac7 9fbe b827 423e 6867 bb3e
000001f0: 7d76 bb3e c807 b0be 0d19 a53e 89ea 80be
00000200: db4c f13d ef00 a23d 6ae4 21bd 819f cb3e
00000210: d725 323b 8cb8 79be 76d7 8c3e 60f5 973d
00000220: 5b1e 8a3e 3c9c 933e a4b3 943e b557 013b
00000230: 4d70 783e cfde 7d3e 7c2e bf3e 982a b33d
00000240: 0a49 7c3d f488 11bd 0d64 e03d a747 1c3e
00000250: 7f7b 2b3e ac6b 263d c037 613e be78 cc3c
00000260: 271f a0bd f0eb 6fbc 6e05 24be 8ff5 f93e
00000270: 0bbd 873e 7fa7 6ebc 7aa5 593e ef53 923d
00000280: 494f f9be a40b 2e3d 7144 763d c332 0d3e
00000290: 2ca8 fe3e 39a8 323e f7d5 3a3e 968e 3b3e
000002a0: ca0e 163f 6b38 b73e a6bd c33e 1d3b ce3d
000002b0: dca7 ab3e 0893 333e d987 30be 2be6 1b3f
000002c0: 1c64 e93d a1b6 3b3e bf44 2ebb 61fa 5f3e
000002d0: 7b8f af3e 492e c33e b3a1 0a3f 0ef9 db3d
000002e0: 2f3b 20bc f912 023f baf1 0d3e 21c9 903e
000002f0: 4967 ab3d c734 0c3f 9b21 a6be 3fcc bcbd
00000300: 7a99 2c3e 397a 543e 3091 7d3e b7a9 f23d
00000310: 2938 293e 699f 3a3e 31fa 033e 8e80 4b3e
00000320: f434 073e 354b f83d ab8d d2bd e41a 8fbc
00000330: 66e1 9e3e ac60 e5bd 67d1 663e 98e4 933e
00000340: e51d d1bc 5813 afbe 0bca 493e 9bf1 bcbb
00000350: 3edc a93e 24ff 413e c9f0 3c3e 207f 8abc
00000360: fefa 4f3e 3f1a 803e 5b3d 973e 1e83 64be
00000370: 8949 cfbe 214f 623e 21b9 0e3e 5802 ac3e
00000380: 9d61 a93e c606 d83e 85e7 b83d b808 993e
00000390: a757 a13d 1912 793e 85b0 d73e 1777 7c3e
000003a0: 2c46 b33e e2d9 bc3e 976a d53e 2d67 913e
000003b0: 97f5 393f 9551 c33e e2ad 92bd 97d7 c53e
000003c0: 785c b23c 1990 923b 0ddd 803e 9fe1 c03e
000003d0: 3730 0e3f d705 253f 69c8 02bc a226 413d
000003e0: b613 44bc c8e4 bd3e d03e 85bd a1b3 463e
000003f0: 9441 acbc add3 f2bd 00c7 403c b634 d93d

critic.2.bias f4 [256]
1.0379666 1.1174941 -0.2257883 1.1133175 0.041146908 0.86677676 0.766848 1.1020111
0.8286341 0.8076177 -0.056793366 0.97975004 -0.098850496 0.9926877 1.0741162 0.53015476
1.1727874 0.3364949 0.5038362 1.0243376 0.4031648 0.8252838 0.7253321 -0.06528489
0.87406254 0.20992328 0.18968093 -0.07726582 0.80873233 0.12745078 0.26049924 0.9301584
1.1847934 1.2429067 0.74296105 1.0820369 -0.045721654 0.8996791 -0.0154590625 0.5527721
0.8311187 1.0043172 -0.02618573 0.32037768 0.78951484 0.10833826 0.8150568 0.98239714
-0.081762925 -0.09633693 0.15643328 -0.019676635 1.0456843 1.2492645 0.9722169 0.5063548
0.092921026 0.89707756 1.152114 1.1935496 0.7277586 0.25075498 0.04013532 1.1727494
0.3680319 1.0866472 1.2094955 0.9806529 0.4563554 -0.01836475 0.8268732 1.0552226
0.15122315 1.1057075 0.22792782 0.8848431 0.050517727 0.07789611 0.12817602 1.1076474
-6.210582e-05 -0.23870662 0.66493416 1.1604334 0.01813476 0.09015223 0.004675019 1.1313657
-0.07659514 1.1958383 -0.27217042 0.039736137 0.0011131335 0.08605538 0.87367404 0.84917486
0.9366626 -0.068870395 0.79605937 1.1197741 0.13406102 -0.04304198 -0.015457792 -0.038432043
1.1897516 1.1817956 0.96413976 0.07649962 0.7779025 0.03402233 0.10440731 1.0960969
0.8286048 0.021159772 0.8128228 0.14829883 0.26163915 0.89781064 -0.006425871 0.46964076
1.0307958 0.8250745 0.97606796 0.02798548 0.8017126 0.09653827 1.0642588 1.1613225
1.1157734 0.04887905 0.05332575 0.8276262 1.1731272 0.80453175 0.77499926 0.40022796
0.7070328 1.0557913 0.03289981 1.0801324 0.8771363 0.13799413 -0.17840749 0.0430576
0.08423101 0.8468169 0.9350535 0.8331757 1.2271128 0.20058884 1.1891162 0.1285088
0.8232397 0.2517759 1.1019312 0.9002135 1.1090703 1.0245149 -0.08640217 -0.17189558
0.19711213 0.0872815 0.034331117 0.7220254 0.92881507 1.0929677 0.0073707993 0.7907463
0.3337469 -0.03139641 0.9195456 0.80267215 0.46979943 1.0694554 0.1476101 0.0981948
0.31035805 -0.084130645 1.0892655 0.112156 0.794406 1.0499731 0.8610922 -0.08229394
1.1515772 -0.10624061 1.1385623 0.8429895 1.1363058 0.9989058 1.0121062 0.6227749
0.18517473 0.054816127 -0.040994138 0.1326086 0.05467663 1.0482461 1.1418935 1.0617052
-0.057146996 1.1524663 1.0257994 0.09116244 -0.08435878 1.1246799 -0.02883045 0.8250276
0.810412 0.37872982 0.18314748 -0.113790005 0.8380803 0.8654316 0.6112313 1.1739358
-0.0457552 1.0134276 0.23609261 1.1800503 0.11597415 0.016871767 1.0286324 0.9806377
0.043170474 0.9626209 1.1409397 0.14527655 0.0059208875 0.88218015 0.71728534 -0.024292896
0.7586022 0.2531787 0.60846597 0.8935702 -0.054420825 0.53127545 0.32916 0.8197208
0.84423095 0.07378698 0.9154002 0.2544396 1.1511432 -0.07324215 0.07315807 -0.112911984
-0.040634803 1.1981694 0.88351816 0.85713494 0.0077659567 -0.015647694 0.0069460706 1.1929662
00000000: 17dc 843f 0c0a 8f3f 0c35 67be 3081 8e3f
00000010: a989 283d 15e5 5d3f 2750 443f b30e 8d3f
00000020: 5d21 543f 09c0 4e3f 29a0 68bd e6d0 7a3f
00000030: 2172 cabd c820 7e3f a47c 893f 39b8 073f
00000040: e61d 963f 0f49 ac3e 69fb 003f 7f1d 833f
00000050: 9e6b ce3e cd45 533f 5daf 393f 16b4 85bd
00000060: 90c2 5f3f 21f6 563e b83b 423e 8b3d 9ebd
00000070: 1509 4f3f 7582 023e 2860 853e dc1e 6e3f
00000080: 4fa7 973f 9117 9f3f b232 3e3f 2f80 8a3f
00000090: a146 3bbd 5f51 663f 0248 7dbc 7982 0d3f
000000a0: 32c4 543f 778d 803f 7583 d6bc 8b08 a43e
000000b0: a51d 4a3f 73e0 dd3d 90a7 503f 617e 7b3f
000000c0: 5273 a7bd 4c4c c5bd 0c30 203e e530 a1bc
000000d0: fcd8 853f e6e7 9f3f 35e3 783f 78a0 013f
000000e0: 614d be3d e0a6 653f 7978 933f 3cc6 983f
000000f0: 634e 3a3f f562 803e ef64 243d a71c 963f
00000100: ad6e bc3e 4117 8b3f c0d0 9a3f 120c 7b3f
00000110: 6aa7 e93e ac71 96bc f6ad 533f 8911 873f
00000120: 3eda 1a3e d387 8d3f e965 693e 1485 623f
00000130: adeb 4e3d ff87 9f3d 9340 033e 64c7 8d3f
00000140: cf3e 82b8 826f 74be 2039 2a3f 1589 943f
00000150: 598f 943c bba1 b83d e730 993b 97d0 903f
00000160: eadd 9cbd 3b11 993f ec59 8bbe 5cc2 223d
00000170: 90e6 913a ce3d b03d 1aa9 5f3f 8663 593f
00000180: 1fc9 6f3f ec0b 8dbd 8cca 4b3f c254 8f3f
00000190: 4b47 093e ca4c 30bd ae42 7dbc eb6a 1dbd
000001a0: c849 983f 1445 973f ddd1 763f d5ab 9c3d
000001b0: 9e24 473f 005b 0b3d 80d3 d53d e74c 8c3f
000001c0: 721f 543f 4257 ad3c 2815 503f a6db 173e
000001d0: 91f5 853e ebd6 653f 1d90 d2bb c174 f03e
000001e0: 1ef1 833f 1538 533f 97df 793f ce41 e53c
000001f0: 093d 4d3f dbb5 c53d a239 883f 37a6 943f
00000200: aad1 8e3f 6635 483d 1a6c 5a3d 50df 533f
00000210: 0829 963f cbf5 4d3f 5a66 463f aeea cc3e
00000220: 1a00 353f 2b24 873f f3c1 063d c741 8a3f
00000230: 018c 603f 554e 0d3e 74b0 36be 2a5d 303d
00000240: 4f81 ac3d fec8 583f ab5f 6f3f 014b 553f
00000250: 0812 9d3f 2967 4d3e f634 983f d097 033e
00000260: d6bf 523f c5e8 803e 150c 8d3f 6474 663f
00000270: 04f6 8d3f 4e23 833f 9ff3 b0bd 6505 30be
00000280: c3d7 493e a5c0 b23d c99e 0c3d a8d6 383f
00000290: d3c6 6d3f 5ee6 8b3f bf86 f13b 596e 4a3f
000002a0: e0e0 aa3e 8699 00bd 5767 6b3f ec7b 4d3f
000002b0: 8d89 f03e eae3 883f 1a27 173e 5b1a c93d
000002c0: 40e7 9e3e b04c acbd 0d6d 8b3f 0cb2 e53d
000002d0: 315e 4b3f 8565 863f 8a70 5c3f ba89 a8bd
000002e0: e266 933f ad94 d9bd 69bc 913f 29ce 573f
000002f0: 7872 913f 4ab8 7f3f b28c 813f 2d6e 1f3f
00000300: 729e 3d3e e086 603d 78e9 27bd 8dca 073e
00000310: 9af4 5f3d ee2c 863f 9129 923f f5e5 873f
00000320: f812 6abd 0484 933f 654d 833f 60b3 ba3d
00000330: 4cc4 acbd 83f5 8f3f d62d ecbc 0235 533f
00000340: 2977 4f3f e0e8 c13e 038b 3b3e bc0a e9bd
00000350: 6e8c 563f ed8c 5d3f a879 1c3f 8743 963f
00000360: ce69 3bbd ffb7 813f 43c2 713e e30b 973f
00000370: db83 ed3d a936 8a3c 3aaa 833f 130b 7b3f
00000380: 86d3 303d 536e 763f 500a 923f 60c3 143e
00000390: 0104 c23b 8fd6 613f 03a0 373f e501 c7bc
000003a0: c133 423f a3a0 813e 6dc4 1b3f 04c1 643f
000003b0: 5fe8 5ebd ab01 083f a987 a83e 39d9 513f
000003c0: 851f 583f a11d 973d ab57 6a3f e845 823e
000003d0: a958 933f fbff 95bd e6d3 953d 663e e7bd
000003e0: ae70 26bd 9d5d 993f 3f2e 623f 326d 5b3f
000003f0: 9179 fe3b 982f 80bc dd9b e33b 1eb3 983f

critic.4.weight f4 [1, 256]
-0.03950639 -0.071884274 0.24724929 -0.11863547 0.35244432 0.0015643842 0.24326842 -0.123997584
0.20402622 0.413256 0.11353218 0.0021656847 0.20397946 -0.069751985 -0.06010215 0.55152124
-0.1010105 0.6280022 0.4260293 -0.015117103 0.7019742 0.048647102 0.21637844 0.046460997
0.060717817 0.48113993 0.60096586 0.04673372 0.20953801 0.3145073 0.47305164 -0.0050835293
-0.107861474 -0.19506794 0.21664496 -0.09758959 0.48923442 0.033884037 0.56285393 0.5282585
0.23065476 -0.024845887 0.5354063 0.8619973 0.19847895 0.31333828 -0.07335519 -0.013088568
0.2436573 0.0019694667 0.43582046 0.087170325 -0.06853768 -0.22848314 0.056653555 0.8246168
0.36190027 0.47175387 -0.116748974 -0.11057974 0.12016158 0.43204555 0.03725901 -0.121121384
0.6334426 -0.09289585 -0.13845026 -0.04215867 0.46833134 0.39839622 0.30233374 -0.03710239
0.64703566 -0.112767294 0.4505556 0.3286486 0.42426413 0.315226 0.48981574 -0.053521074
0.46792716 0.12407454 0.3992176 -0.08471365 0.15309992 0.4986293 0.46383166 -0.0754546
-0.011751228 -0.14008217 0.117072165 0.08805074 0.049799476 0.47436365 0.021374771 0.021855868
-0.0011764388 0.27492714 0.22333954 -0.10813064 0.48967347 0.026391676 0.109066196 0.04800746
-0.10717529 -0.13981193 -0.032708902 0.4294503 0.24155909 0.3203046 0.29632315 -0.1080837
0.4214793 0.38081288 0.05340457 0.4280888 0.3916971 -0.019587744 0.09080168 0.4166783
-0.02207602 0.03529742 -0.0054180673 0.23909673 0.029936984 0.15166959 -0.05570572 -0.11459555
-0.08324852 0.02426967 0.06910675 0.35982788 -0.11836311 0.20237857 0.22285149 0.6208995
0.18530197 -0.08887602 0.42917243 -0.043380048 0.3762086 0.48363608 0.31107458 0.34646854
0.5093808 0.33691642 -0.00035068826 0.44942024 -0.14378689 0.7917094 -0.11142275 0.5460686
0.16090229 0.64155555 -0.07140916 0.28429386 -0.074553564 -0.01435309 0.39932942 0.15467456
0.58577377 0.15476792 0.2616996 0.20422561 0.00093479664 -0.11238446 0.010023414 0.09356332
0.04814279 0.29152495 0.2652399 0.17675905 0.623666 -0.062622584 0.49485874 0.52620465
0.642098 0.25366327 -0.121336855 0.4985531 0.19798952 -0.085215464 0.07093744 0.0065414542
-0.14142497 0.323377 -0.09700811 0.21761586 -0.11145157 -0.0433834 -0.06250005 0.537625
0.41269222 0.4576006 -0.0047129816 0.32166734 0.057021808 -0.08609389 -0.12536497 -0.047605567
0.0047483966 -0.08943527 -0.07114815 0.5326178 -0.0039061634 -0.061732434 -0.0032807947 0.28302887
0.24570976 0.4254749 0.39394668 0.4229269 0.4673333 0.2998589 0.50817794 -0.09906619
0.10151025 -0.027233811 0.5409067 -0.1261674 0.539333 0.047025565 -0.060620397 -0.0054520955
0.029473374 -0.009308354 -0.12216389 0.508312 0.43904135 0.07716213 0.25796983 0.24897
0.23112008 0.5696615 0.52479255 0.2060021 0.014043337 0.49063137 0.61452425 0.22319812
0.45398083 0.44938824 0.3771687 0.4821871 -0.1089406 0.25375634 0.4397141 0.16921838
0.04040781 -0.13452554 0.10095742 0.21430208 0.0389714 0.07356623 0.04292768 -0.1325387
00000000: 74d1 21bd 1038 93bd eb2e 7d3e 27f7 f2bd
00000010: 9573 b43e 060c cd3a 5b1b 793e 72f2 fdbd
00000020: 40ec 503e 4a96 d33e 8f83 e83d 29ee 0d3b
00000030: fedf 503e 21da 8ebd ac2d 76bd 7f30 0d3f
00000040: 98de cebd c1c4 203f 8320 da3e baad 77bc
00000050: 95b4 333f 2f42 473d 4f92 5d3e e34d 3e3d
00000060: 3fb3 783d f957 f63e e6d8 193f db6b 3f3d
00000070: 2291 563e 1a07 a13e d333 f23e bc93 a6bb
00000080: 7ae6 dcbd e4bf 47be 2dd8 5d3e 0ddd c7bd
00000090: ef7c fa3e fdc9 0a3d 3217 103f f33b 073f
000000a0: c330 6c3e 9a89 cbbc 6310 093f dbab 5c3f
000000b0: 113e 4b3e e06d a03e 3f3b 96bd 6f71 56bc
000000c0: 4d81 793e 2b12 013b dc23 df3e 5b86 b23d
000000d0: 7c5d 8cbd 7cf7 69be 8f0d 683d 161a 533f
000000e0: fe4a b93e b989 f13e 161a efbd a177 e2bd
000000f0: 4617 f63d 1335 dd3e e79c 183d 7d0e f8bd
00000100: 4b29 223f 2e40 bebd e8c5 0dbe 92ae 2cbd
00000110: 20c9 ef3e 97fa cb3e 7dcb 9a3e adf8 17bd
00000120: 21a4 253f 8af2 e6bd 39af e63e a144 a83e
00000130: 2639 d93e 4d65 a13e 21c9 fa3e ea38 5bbd
00000140: 2694 ef3e cb1a fe3d 4066 cc3e 5a7e adbd
00000150: 3ac6 1c3e 574c ff3e 587b ed3e f187 9abd
00000160: 3988 40bc b371 0fbe 88c3 ef3d f253 b43d
00000170: 89fa 4b3d cbdf f23e 251a af3c 140b b33c
00000180: bc32 9aba 40c3 8c3e 1fb3 643e 9973 ddbd
00000190: 7bb6 fa3e 5b33 d83c 195e df3d 78a3 443d
000001a0: b87e dbbd dc2a 0fbe c5f9 05bd e9e0 db3e
000001b0: 445b 773e f7fe a33e abb7 973e fd5a ddbd
000001c0: 23cc d73e e8f9 c23e c0be 5a3d 752e db3e
000001d0: 868c c83e 7a76 a0bc 3bf6 b93d dc56 d53e
000001e0: c5d8 b4bc 0794 103d 0b8a b1bb c6d5 743e
000001f0: 683e f53c 464f 1b3e ae2b 64bd 12b1 eabd
00000200: 337e aabd 30d1 c63c d787 8d3d 5c3b b83e
00000210: 5c68 f2bd 543c 4f3e 2e33 643e 45f3 1e3f
00000220: cdbf 3d3e a104 b6bd 7dbc db3e 47af 31bd
00000230: 6a9e c03e 269f f73e 2b45 9f3e 5364 b13e
00000240: c866 023f 4f80 ac3e 95dc b7b9 691a e63e
00000250: df3c 13be 78ad 4a3f 9c31 e4bd 27cb 0b3f
00000260: 92c3 243e fc3c 243f f73e 92bd f78e 913e
00000270: 8aaf 98bd 3929 6bbc e874 cc3e 0263 1e3e
00000280: 45f5 153f 7b7b 1e3e 7dfd 853e 8520 513e
00000290: 240d 753a d329 e6bd 3f39 243c 209e bf3d
000002a0: 6031 453d c242 953e 86cd 873e 5300 353e
000002b0: 93a8 1f3f 4540 80bd 205e fd3e 59b5 063f
000002c0: 8960 243f 27e0 813e 757f f8bd 5a42 ff3e
000002d0: c4bd 4a3e 7285 aebd a647 913d b259 d63b
000002e0: b5d1 10be ac91 a53e 30ac c6bd b1d6 5e3e
000002f0: b940 e4bd cbb2 31bd 0700 80bd cba1 093f
00000300: 654c d33e a04a ea3e 5b6f 9abb 95b1 a43e
00000310: b38f 693d fe51 b0bd ad5f 00be 0efe 42bd
00000320: 7098 9b3b d729 b7bd 1fb6 91bd a459 083f
00000330: 8cfe 7fbb 26db 7cbd 9a02 57bb 29e9 903e
00000340: 579b 7b3e d9d7 d93e 61b3 c93e e089 d83e
00000350: 4f46 ef3e 1b87 993e f317 023f 37e3 cabd
00000360: 9be4 cf3d 7119 dfbc dd78 0a3f 0732 01be
00000370: ba11 0a3f e19d 403d 184d 78bd 7ea7 b2bb
00000380: 2572 f13c 1182 18bc 1031 fabd bc20 023f
00000390: 07ca e03e 2e07 9e3d 9f14 843e fef1 7e3e
000003a0: beaa 6c3e 56d5 113f ce58 063f 37f2 523e
000003b0: 0616 663c 0934 fb3e 7651 1d3f 0c8e 643e
000003c0: 2d70 e83e 3716 e63e 411c c13e 3ae1 f63e
000003d0: 401c dfbd 5aec 813e 3522 e13e 9547 2d3e
000003e0: a982 253d 10c1 09be c4c2 ce3d 0172 5b3e
000003f0: 7aa0 1f3d e4a9 963d efd4 2f3d 3ab8 07be
