Khai/actor/actor.pth (torch, 27859 bytes, 4 tensors)

fc1.weight f4 [32, 100]
000000 50 7d 57 3c e0 fd c5 3b e8 b2 ef bc 3d 63 60 bd
       0.013152435 0.006042227 -0.029260114 -0.05478214
000010 91 29 b9 3d d8 15 9d bc c0 de 72 3c f4 cf 97 3c
       0.09041131 -0.019175455 0.014823616 0.018531777
000020 9d c0 87 bd 77 52 c8 bd e0 50 b3 bb b3 0e 91 bd
       -0.06628535 -0.09781354 -0.0054722875 -0.07082882
000030 14 e6 a3 3c 02 d7 c7 bd 80 9f 65 3c 80 d2 70 bc
       0.02000717 -0.09757806 0.014015079 -0.014698625
000040 8c 29 c5 bc 00 f4 65 3c ec 2f 0a bd f3 be 63 bd
       -0.024067663 0.014035225 -0.033737108 -0.055602025
000050 ea 09 c0 bd 78 89 c2 bc 6c c9 84 bc 4d 45 80 bd
       -0.09376891 -0.02374719 -0.016209327 -0.06263218
000060 20 cd f0 3b 4d f4 95 3d e1 e0 a9 3d e3 1e 36 bd
       0.0073486716 0.07321987 0.08294845 -0.04446305
000070 14 fe b6 bc cd 72 4f bd 3d 12 b7 bd ad 5b a2 3d
       -0.02233795 -0.050646592 -0.089390256 0.07927642
000080 90 08 46 3c 98 05 cc bd df 0a b8 3d 00 b8 6e bb
       0.012087002 -0.099620044 0.089864485 -0.003642559
000090 ed f1 b5 bd 6c ef c9 3c 6b 23 91 3d f0 b2 ac bd
       -0.08884034 0.024650298 0.070868336 -0.08432567
0000a0 23 22 c7 bd 1d d9 56 bd 00 fa 12 39 00 42 0e 3c
       -0.09723308 -0.05245315 0.00014016777 0.008682728
0000b0 f6 5a 0b 3d cd 83 96 3d 3e 08 5f 3d 70 73 ae bd
       0.034022294 0.07349358 0.05445122 -0.08518112
0000c0 20 21 a7 3c 51 5f 9f 3d 5a f5 5b bd e4 84 87 bd
       0.020401537 0.07781852 -0.053700782 -0.06617144
0000d0 58 f0 34 bc ae 16 1c 3d 8f 2f a0 3d 28 04 c1 bd
       -0.011043631 0.038107567 0.07821571 -0.09424621
0000e0 0c 6d 82 bd 37 9f c7 bd 31 54 ba 3d cd b1 4b bd
       -0.06368455 -0.09747165 0.090980895 -0.04973011
0000f0 f4 e1 b5 bc 00 84 c3 3b 18 d2 51 bc ec 9d da bc
       -0.02220247 0.0059666634 -0.012806438 -0.026686631
000100 b1 02 90 3d 5b 25 a0 3d 28 79 c8 3c ce 9a 2f 3d
       0.07031763 0.07819625 0.024471834 0.042872243
000110 00 25 14 3a 13 3d 88 3d 2a 97 07 bd 73 73 8f 3d
       0.00056512654 0.06652274 -0.033103146 0.07004442
000120 ff f3 8a 3d 3d e2 30 bd 73 6a 62 bd 30 fb 83 bd
       0.0678482 -0.043184508 -0.0552773 -0.064443946
000130 e8 3e af 3c d8 ad b7 3c d8 ef ad 3c 7d 99 2e bd
       0.0213923 0.022421762 0.02123253 -0.042626847
000140 d4 80 b4 bc 4c 36 e0 3c 7e 7e 33 3d a2 ab 65 3d
       -0.022034086 0.02736964 0.043821804 0.056071885
000150 2a 78 4a 3d b8 91 bf 3c 0c 83 9c bc 3d 6a 37 bd
       0.049431004 0.023384914 -0.019105457 -0.04477905
000160 60 c9 74 bb b5 0b 88 3d d0 5b 16 bc f0 9e 55 3c
       -0.0037351474 0.06642858 -0.009177163 0.013038382
000170 64 5d e9 3c de 98 29 3d aa dd 47 bd ac c2 05 bd
       0.028486915 0.04140555 -0.04879538 -0.032656357
000180 d1 6d 87 3d 96 cb 53 3d d9 ad b9 3d 2c 3b 88 bd
       0.06612743 0.051707827 0.09066362 -0.06651911
000190 4a d9 1b 3d ef a2 bb 3d 8c ab c2 3c ae 99 60 3d
       0.03804902 0.091619365 0.02376344 0.05483406
0001a0 e0 92 e4 bc 65 b6 a3 bd b8 ef ba bc 00 44 9d bb
       -0.027902067 -0.07993773 -0.022819385 -0.004799366
0001b0 c1 b0 8a 3d d9 1e 9d 3d ff 41 bf bd 3d fe 96 bd
       0.067719944 0.07671899 -0.0933876 -0.07372711
0001c0 f4 10 d5 3c 36 eb 58 3d 23 6c c8 3d f8 56 a0 bd
       0.02600906 0.05295869 0.097862504 -0.07829088
0001d0 e0 f4 d1 3b 6f de c5 bd 9d 22 5f bd 80 50 13 bd
       0.006407365 -0.096615665 -0.05447637 -0.035965443
0001e0 65 19 9d bd d7 8b bc 3d 13 0f 6a bd ac c6 07 bd
       -0.07670859 0.0920636 -0.057143282 -0.033148453
0001f0 00 d4 31 bd 70 d1 bc bd 76 b3 1a 3d 4e 29 1c 3d
       -0.04341507 -0.092196345 0.037768804 0.03812533
000200 20 39 e2 bb a2 8e 36 3d a0 3c 23 bb d3 e7 8e bd
       -0.0069037825 0.04456962 -0.0024907961 -0.06977811
000210 a0 10 1b 3b ab 54 cb 3d 00 1d 95 b9 ce 96 01 3d
       0.0023661032 0.099282585 -0.000284411 0.03163796
000220 90 fe 49 bc 80 41 9f bc 05 8d 83 3d ec ee f3 bc
       -0.012328759 -0.019440413 0.06423382 -0.029777013
000230 4d 74 7a bd 51 65 8d 3d 0a 0a 18 bd d8 cf 72 bc
       -0.06114607 0.0690409 -0.03711895 -0.014820062
000240 98 32 c0 3c 29 21 c2 3d 67 c6 83 3d cc 1c ef 3c
       0.023461625 0.09478981 0.064343266 0.029188536
000250 b1 24 a2 3d a0 c0 d2 3b 2e 90 7d 3d 8c ca aa 3c
       0.079171546 0.006431654 0.06190508 0.020848535
000260 d1 35 93 3d ee 2b 95 bd 54 26 88 bd cb 60 85 3d
       0.07187999 -0.072837695 -0.066479355 0.065126024
000270 62 8f 22 3d 68 1b 17 3c f0 fa 6e bc 78 87 b2 bc
       0.03968752 0.009222843 -0.014586195 -0.021793112
000280 02 50 40 3d 30 7b c9 bb 3e 90 69 3d 0e ac 4c 3d
       0.0469513 -0.0061487183 0.057022326 0.04996877
000290 00 c6 4c bb a3 67 5f bd 51 1a b6 3d 90 3b 31 3c
       -0.0031245947 -0.054542195 0.08891738 0.010817423
0002a0 1b dc 81 3d a0 d9 19 bb ec f3 da bc d3 91 a5 3d
       0.0634081 -0.0023475662 -0.02672764 0.080844544
0002b0 dd 26 65 bd 4a 59 2d bd 33 13 5b bd 53 93 76 bd
       -0.055945266 -0.04232148 -0.053485107 -0.060199093
0002c0 78 b1 ae bc 3b e8 c1 3d d2 97 68 3d 1e cf 24 3d
       -0.021324858 0.094681226 0.056785412 0.040236585
0002d0 40 99 1b bb 90 c9 5c bc dd 09 82 bd b0 57 cd 3b
       -0.0023742467 -0.013475791 -0.063495375 0.0062665567
0002e0 ac 38 98 bc b9 b4 83 3d 0f 33 bf 3d b0 17 f3 bb
       -0.01858171 0.064309545 0.093359105 -0.0074185953
0002f0 db d6 b4 bd e8 36 d7 bc 27 cb b9 3d a8 5d 2b bc
       -0.08830043 -0.026271299 0.09071951 -0.010459341
000300 74 63 b9 bc 51 47 8d 3d 04 e7 e1 3c 58 8f 9e 3c
       -0.02263043 0.06898368 0.027575977 0.019355461
000310 82 56 18 3d ce 11 34 3d 6b e7 a2 3d e7 7c 54 bd
       0.037191875 0.043962292 0.07954296 -0.05187693
000320 42 6c 75 3d 22 8e 9d bd 88 db 8e bc 7f 1e b0 bd
       0.059917696 -0.07693125 -0.017438665 -0.08599567
000330 5d 66 6c bd ea 8d 5b bd 62 fd 92 bd 1a 63 77 bd
       -0.05771481 -0.053602137 -0.07177235 -0.060397245
000340 e3 d0 55 bd 00 b7 5e 3a 90 d0 20 bc e8 39 b8 bd
       -0.052201163 0.0008495897 -0.00981535 -0.0899542
000350 eb f8 8e 3d c0 3a d3 3a 29 42 88 3d e0 f1 81 3c
       0.06981071 0.0016115531 0.06653244 0.015862405
000360 9b 3d 92 bd d1 65 b5 3d 80 4e d6 ba e2 ec 7d 3d
       -0.071406566 0.088573106 -0.0016350299 0.061993487
000370 64 59 de 3c 6f 7b a2 3d 50 ba 00 bd b2 4c 69 3d
       0.027142234 0.07933699 -0.03142768 0.056957908
000380 a2 83 7f 3d 67 f1 4b bd 0a 2a 5d bd 77 ee bd bd
       0.062381394 -0.049790766 -0.05399517 -0.09273999
000390 c6 65 15 bd 4b ea c2 bd ae 0a 7c 3d 23 aa 39 bd
       -0.03647401 -0.09517344 0.061533622 -0.04532827
0003a0 a3 df 98 3d 63 67 c1 3d 7d 16 84 3d 37 ce 7c bd
       0.0746453 0.094435476 0.06449602 -0.0617201
0003b0 8e 87 4c 3d ac 8a c2 3c d8 c9 0e bc c7 92 77 bd
       0.049933963 0.023747765 -0.0087151155 -0.060442712
0003c0 c4 74 fd 3c 00 4c cb 3a 17 38 c3 bd aa f0 04 3d
       0.030939467 0.0015510321 -0.09532183 0.032456078
0003d0 02 89 c4 bd 60 7f 6c 3b b0 a9 3b bd 1d a8 a9 3d
       -0.09596445 0.0036086664 -0.045816123 0.08284018
0003e0 23 4f 59 bd a0 42 21 bb aa 87 c9 bd e8 71 a5 3c
       -0.053053986 -0.0024606362 -0.09840329 0.020195916
0003f0 c0 9d cf bc 1c 72 80 bd 17 9f 5a bd 34 c0 db bc
       -0.025343776 -0.06271765 -0.053374376 -0.026825048

fc1.bias f4 [32]
000000 89 c2 98 3d 98 de a6 bd 02 8c 15 3d 54 5c c9 bc
       0.0745898 -0.08147925 0.036510475 -0.024580158
000010 8d b7 ab bd 64 94 d2 3c bb 53 af bd f5 57 c2 bd
       -0.08384619 0.025705524 -0.08560892 -0.09489433
000020 77 f8 ad 3d a6 bc 0f 3d d9 06 c2 3d 0c b9 ed 3c
       0.084946565 0.03509202 0.09473962 0.029018901
000030 ac 36 99 bc 6e de 6c 3d 30 17 b3 bd 21 8f c3 3d
       -0.018702827 0.057829313 -0.08744657 0.09548784
000040 be a5 71 3d 00 58 8b 3a 93 26 aa 3d 83 70 89 3d
       0.058995955 0.0010631084 0.08308139 0.06710913
000050 34 4b fb 3c 0b 5a c8 bd 0c 6a dc 3c e0 6b e7 3b
       0.030675508 -0.09782799 0.026906036 0.0070624202
000060 9a 7d 00 3d 00 9e a4 ba 00 4e 80 3a b8 e8 fa bc
       0.031369783 -0.0012559295 0.0009788871 -0.030628547
000070 aa 55 a7 bd a8 c2 9a bc a0 21 c3 bb 93 24 b5 3d
       -0.08170636 -0.018891647 -0.005954936 0.088448666

fc2.weight f4 [100, 32]
000000 90 9f 02 3d 48 0e 55 bd 84 87 4b 3d a0 fb 59 3d
       0.031890452 -0.052015573 0.049689785 0.053218484
000010 fa 72 fe bd bc d9 a2 bd 84 c7 56 3d 20 0c 20 bc
       -0.12424274 -0.07951686 0.052436367 -0.009768516
000020 80 17 a4 3b 80 20 b6 3c 8a fa 9d 3d de 50 1d be
       0.005007684 0.022232294 0.07713802 -0.1536288
000030 40 79 c5 bd 80 82 41 3c 74 16 95 3d f8 36 01 bd
       -0.09642267 0.011810899 0.07279673 -0.031546563
000040 e6 dc ed bd 7e 12 f0 3d 60 cf 68 3d 8e 8f 91 bd
       -0.11614399 0.11722277 0.056838393 -0.07107459
000050 ce 70 d0 3d 00 be 68 3b 43 99 1a 3e 79 19 b8 bd
       0.10177766 0.003551364 0.15097527 -0.089892335
000060 4c 5b 05 be db 8c 0a 3e 96 7f af 3d da ca e6 3d
       -0.13023108 0.13530295 0.08569257 0.112691596
000070 17 0a 26 be 64 4c 1a bd e6 96 83 3d 40 ca 4e bd
       -0.16214786 -0.037670508 0.06425266 -0.05048585
000080 96 fa a4 3d d9 d4 28 3e d6 9c fc 3d 39 af 2a 3e
       0.08055608 0.16487445 0.123346016 0.16668405
000090 ce d5 d2 3d 3c ca 8f bd 5a 6d da bd f0 ab 77 3c
       0.10294686 -0.07020995 -0.106653884 0.015116677
0000a0 25 2d 00 3e ef 29 31 3e 30 ec 0b bc f0 1d 66 3c
       0.12517221 0.17301153 -0.008540198 0.014045224
0000b0 00 d8 20 3c 10 77 66 bc a2 fb bc 3d 5b 07 14 be
       0.009817123 -0.014066473 0.09227683 -0.14455931
0000c0 67 69 b1 bd f0 10 87 bc 62 80 22 be 90 0d 26 3c
       -0.08662682 -0.016487569 -0.15869287 0.0101350695
0000d0 60 43 e3 bc c6 08 10 be 47 88 1f 3e 60 37 f6 bc
       -0.027742088 -0.14065847 0.1557933 -0.030055702
0000e0 00 c0 b5 bb 00 bd 82 3b a4 86 92 3d 42 4e a6 bd
       -0.00554657 0.0039898157 0.07154587 -0.08120395
0000f0 56 22 cf 3d 85 af e9 bd 88 74 bf bd 60 97 8d bd
       0.10113971 -0.11410431 -0.093483984 -0.06913638
000100 50 97 6a bc 9d f1 22 3e 76 cd 24 be 96 86 2f be
       -0.014318302 0.1591248 -0.16094002 -0.17141184
000110 ac 7c 36 3d 6b 07 2e 3e 5f 24 13 3e 82 d2 db bd
       0.04455249 0.16995017 0.14369343 -0.107335106
000120 80 5b fd 3a 6a d8 79 bd ae c2 86 3d 81 8d 0c be
       0.0019329637 -0.060997404 0.06580101 -0.13725854
000130 ce ce d2 3d 20 82 15 3c 70 91 2d 3c d3 f8 06 3e
       0.10293351 0.0091252625 0.010593757 0.13180856
000140 a2 1c d4 3d cd ba 82 bd 74 d4 3a 3d d0 6d 06 be
       0.10357024 -0.06383286 0.045612767 -0.13127828
000150 51 2b b8 bd 6f f9 9b bd 1a f6 d7 3d 26 9c 11 be
       -0.08992637 -0.07615935 0.10544987 -0.14219722
000160 28 45 d2 bc cd 8a c4 bd 0c 58 0c 3d a5 fb 9f bd
       -0.025667742 -0.09596787 0.034263656 -0.07811669
000170 94 b3 43 3d b4 2e 48 3d ee b2 97 3d d7 b3 9d bd
       0.04777868 0.048872665 0.07407175 -0.07700317
000180 12 73 dc 3d ee 24 c6 3d 6e 87 b1 bd bf 11 29 3e
       0.107641354 0.096750125 -0.08668409 0.16510676
000190 62 54 33 be 02 02 b5 3d 3c 81 f0 bd 79 40 86 bd
       -0.17512658 0.088382736 -0.117433995 -0.06555266
0001a0 be 35 a3 3d f0 84 93 3c e6 de fb 3d 80 5e bb ba
       0.07969235 0.018007725 0.12298374 -0.0014295131
0001b0 ec c1 49 3d 19 66 11 3e e8 39 7d 3d 24 71 2d bd
       0.049257204 0.14199103 0.0618228 -0.042344227
0001c0 9a d4 cc 3d 70 43 2b 3c 2b bc df bd 5b 8d 16 be
       0.10001488 0.01045309 -0.10924562 -0.1470236
0001d0 19 c8 2f be ec cd 20 be 10 52 72 bc 80 8a 59 3c
       -0.17166175 -0.15703553 -0.014790073 0.01327765
0001e0 be 11 87 bd 80 be 6b 3c 30 ee cb 3c 39 09 15 3e
       -0.06595181 0.01438868 0.02489385 0.145543
0001f0 c0 69 01 3c c4 da b0 bd 43 88 06 3e 4e 55 b5 3d
       0.007898748 -0.08635476 0.13137917 0.08854161
000200 83 99 02 3e 00 09 0f bd e4 83 99 bd f2 62 e5 3d
       0.12753873 -0.034920692 -0.07495859 0.11200513
000210 a8 83 05 be 68 6d a6 bc 3b 1c 1d 3e 85 76 17 be
       -0.13038504 -0.02031584 0.153428 -0.14791305
000220 28 bf d0 3c 18 f0 ee bd c6 4e d0 3d fe c7 fa 3d
       0.025481775 -0.11666888 0.10171275 0.12245177
000230 92 3e fc 3d dd 0a 84 bd 58 77 a7 bc 25 7e c3 bd
       0.12316622 -0.064473845 -0.02044265 -0.095455445
000240 50 6b cb bc 70 60 76 3c d3 4c 08 3e fe 36 97 3d
       -0.024831444 0.015037641 0.13310556 0.07383536
000250 10 c2 b3 bc 77 65 e6 bd 52 49 e3 3d 00 c6 c0 bc
       -0.021943122 -0.11249822 0.11097969 -0.023531914
000260 c5 9f 09 3e fe d8 f0 3d ea b0 25 be 17 a5 16 3e
       0.13439853 0.11760138 -0.16180769 0.14711414
000270 1e 15 bf 3d 87 8f 2e be 50 e8 e0 bc 18 31 7d 3d
       0.093302 -0.17046939 -0.027454525 0.061814398
000280 0d 7a 09 3e 7a 75 94 3d 86 bb 81 3d bc 4f 3f 3d
       0.13425465 0.072489694 0.063345954 0.0467069
000290 95 4a 0d be 7b 56 de bd 82 22 84 bd 90 e2 e5 bd
       -0.13797982 -0.108563386 -0.06451894 -0.11224854
0002a0 f0 ac 2f 3d ea 7d 31 be 4c df bc bd c8 bc 27 3d
       0.042889535 -0.17333189 -0.09222278 0.04095152
0002b0 80 91 1d 3c 11 c0 2a 3e 70 f4 ea 3c 2a c0 ba bd
       0.009617209 0.1667483 0.02868101 -0.09118684
0002c0 c4 d9 3f 3d f6 de f4 bd 80 95 3b 3d 0e be bb 3d
       0.046838537 -0.11956589 0.04579687 0.091671094
0002d0 20 3f 71 bc 2e 13 c2 bd 42 92 dc 3d 76 47 1e be
       -0.014724523 -0.094763145 0.10770084 -0.15456948
0002e0 40 64 0c be ce 93 9b 3d 6c 7c dc bd 09 98 24 3e
       -0.13710117 0.07596551 -0.10765919 0.16073622
0002f0 94 dd 85 3d 5c 66 00 be 5a 7d cc 3d 0f 38 02 3e
       0.06536403 -0.12539047 0.099848464 0.12716697
000300 02 87 00 be d1 df 06 3e 18 a2 f9 3c e3 c0 82 bd
       -0.12551501 0.13171317 0.0304728 -0.063844465
000310 c0 a9 7e 3c 6c 9e 41 3d 4c 1e 70 bd ee bc c7 3d
       0.015543401 0.047270223 -0.058622643 0.09752832
000320 b1 a9 be bd b5 72 0b 3e 5f 89 cd bd 28 e7 8a 3c
       -0.0930971 0.13617976 -0.10035967 0.016955927
000330 29 0f 2e 3e 84 ad 21 bd f2 73 d2 bd 17 dc 0a 3e
       0.1699797 -0.039472118 -0.10276021 0.1356052
000340 2c 44 03 3d fa df 8b 3d 70 92 36 bd 2f f0 19 3e
       0.032047436 0.068298295 -0.044573247 0.15033029
000350 cd 7a 28 be 63 0f cb bd 68 5e 34 3d c1 0d c4 bd
       -0.16453095 -0.09915044 0.044035345 -0.09572936
000360 53 1a 2c be 98 c7 84 bd 7f 02 09 be 12 07 78 bd
       -0.16806917 -0.06483382 -0.13379858 -0.060553618
000370 c0 4a 54 bb 50 89 17 be dc 77 1b be 90 42 b8 bd
       -0.0032393187 -0.14798474 -0.15182441 -0.08997071
000380 87 10 03 3e ec 72 08 3d 84 bf 62 3d d7 4c 12 3e
       0.12799273 0.033312723 0.055358425 0.14287125
000390 ac bb 41 bd cb 6c 16 be 4c 80 84 bd 36 2f f9 3d
       -0.04729812 -0.14689939 -0.06469783 0.12167208
0003a0 2a 21 b3 3d 2f 94 e7 bd b8 47 d2 bd 8a af c6 bd
       0.0874656 -0.11307561 -0.102675855 -0.0970145
0003b0 f9 f6 0b be 36 6a 26 be 14 24 2f be 20 e9 85 3d
       -0.13668431 -0.16251454 -0.17103606 0.06538606
0003c0 b0 d3 d2 bc 80 82 af 3b 28 0c 25 3d 5b d7 13 3e
       -0.025735706 0.005356133 0.040294796 0.1443762
0003d0 ba 89 c9 3d 35 83 12 3e c0 49 93 3c 18 b4 ce bd
       0.098407224 0.14307864 0.017979503 -0.10092944
0003e0 00 87 a5 3b 84 da 52 3d a8 10 9e 3c de 9a 12 be
       0.0050514936 0.051477924 0.019295052 -0.1431689
0003f0 40 61 5d 3b c0 1d 83 3c 10 ee 91 bd 88 cb c9 bc
       0.003377989 0.016005397 -0.07125485 -0.024633184

fc2.bias f4 [100]
000000 68 c3 5f 3d 78 39 be bc c0 fb a9 bd 70 c4 63 3d
       0.054629713 -0.023220763 -0.082999706 0.05560726
000010 a9 e4 af bd 28 ff e5 bc 5c 68 9d bd e0 88 09 be
       -0.08588535 -0.02807577 -0.076859206 -0.1343112
000020 9d 10 30 be da 50 8d bd 80 cb eb 3a 4a 4b e4 3d
       -0.17193837 -0.06900187 0.0017989725 0.11147173
000030 18 30 c3 3c 1c 02 5a 3d 00 45 9b 3c 8a bc 98 3d
       0.023826644 0.053224668 0.0189538 0.07457836
000040 46 99 77 bd ab 82 31 be fe a1 de 3d 1a b5 bb 3d
       -0.060448907 -0.17335002 0.10870741 0.09165402
000050 00 ff 81 3c 8a cc 7b bd 88 cc 16 bd 34 85 05 be
       0.015868664 -0.06147436 -0.03681615 -0.13039094
000060 40 82 2f 3b fd 92 34 3e 92 20 f9 3d 06 5b d6 3d
       0.0026780516 0.17634197 0.121644154 0.1046658
000070 f6 17 b0 3d 65 ca 34 3e c0 7e 99 bd a2 b3 da bd
       0.0859832 0.17655332 -0.07494879 -0.106787935
000080 28 60 93 bc 6c ed 54 3d dc e4 7d bd ed 65 b4 bd
       -0.017990187 0.051984236 -0.061985835 -0.08808503
000090 22 4f fa 3d 20 c2 ba bc a5 92 83 bd c2 d2 c2 bd
       0.12222125 -0.022797644 -0.064244546 -0.09512855
0000a0 aa c0 27 be 4c 35 13 3d 05 af 33 3e 17 2b 32 3e
       -0.1638209 0.0359395 0.17547233 0.1739925
0000b0 e1 b6 14 3e 40 47 48 3b 15 51 bc bd b8 7c 3e bd
       0.14522888 0.0030560046 -0.09195153 -0.04650566
0000c0 cd 8e 04 be cf c6 31 3e 0d bb a0 bd 0d 16 d9 bd
       -0.12945099 0.17360996 -0.07848177 -0.10599909
0000d0 be 44 f3 3d 77 d2 01 be 60 6b ce bb 6a a6 8b 3d
       0.11878346 -0.12677942 -0.006299421 0.0681885
0000e0 e2 a0 b9 3d 30 c1 02 bc d0 89 a8 3c 85 af 12 3e
       0.09063889 -0.00798063 0.020573527 0.14324768
0000f0 40 47 c2 3b 92 09 8a 3d 80 00 4f 3d a5 2e 1c 3e
       0.005928904 0.06740107 0.050537586 0.15252168
000100 00 9e 33 bb 20 90 ff bb 66 eb c3 3d 1b 7c 9a bd
       -0.0027407408 -0.0077991635 0.09566383 -0.075432025
000110 78 82 90 bd 38 04 eb bc 06 0e ce 3d ac 6e 33 bd
       -0.07056135 -0.028688535 0.100612685 -0.043806717
000120 c6 68 9c bd 80 4d c5 3a b3 7b 0c be 6e 19 cf bd
       -0.076371714 0.0015053004 -0.13719063 -0.10112272
000130 c8 8d 8b bc 7e c4 af 3d e8 51 9c 3c cd 6f 8f bd
       -0.01703538 0.085824 0.019082025 -0.07003746
000140 2a 62 be 3d 8a 23 d5 3d 4c f8 29 3d b8 5a e1 bc
       0.09296067 0.10407169 0.04149656 -0.027509078
000150 7d 20 05 3e 30 e1 5d 3c cb 6a 06 be 5b 47 1d be
       0.13000675 0.013542458 -0.13126676 -0.15359251
000160 ca e5 2e be 1e de c3 3d 2d c4 02 3e c6 6e e3 3d
       -0.17079845 0.0956385 0.12770148 0.11105113
000170 20 c7 18 bc ac 9e 03 bd 30 95 46 bc fc 73 3d 3d
       -0.009324819 -0.032133743 -0.01212053 0.04625319
000180 f0 fc 03 be 62 68 5f bd 43 72 24 3e c9 b0 09 be
       -0.12889457 -0.054542907 0.16059212 -0.13446344
