Quan/actor/actor.pth (torch, 471367 bytes, 6 tensors)

actor.0.weight f4 [256, 100]
00000000: 0e49 82be 80dc f5bd 192f 2fbc 4b10 3abe
00000010: dee7 38be 4f5c 723e 8357 bd3d b1d8 0d3e
00000020: 863b 88bd 50ca 753e 1d60 c93c d762 013e
00000030: 4bd2 49bd 8f2e 513d 0aac f03c dfc2 663e
00000040: 4639 813e b4c1 acbd 5c32 493e 7c0a 0e3d
00000050: 5ed3 1bbe f6c2 0d3e 6aec 7abe 7c88 4e3e
00000060: 70c6 7b3e 38d0 3fbe 22cd 3abe 8481 243e
00000070: 1b98 513e 6a5e 2abe ba70 cc3d 2300 143d
00000080: 6a5f b8ba 3fb1 4f3d c9b8 e0bd 7dcb 5c3e
00000090: 2173 c3bc 8d83 9bbd 4ae6 5c3d bf20 443e
000000a0: b64d aa3d 509d 2bbe 916f 323e a926 b43d
000000b0: 2899 023d 19cb c2bd b771 5f3c 360a 2ebe
000000c0: 7a1d 41be 3fb8 12be 5095 003e d449 6f3d
000000d0: 68a1 02be 4cfe 26bc f812 88bd ec71 65bb
000000e0: 07c6 523c 6df8 ff3d a0bc 48bc d20f 6b3e
000000f0: c766 85bd 89ea a0bd fe63 31be a0ae 0e3c
00000100: 1f76 f23c 9071 393d b56d 7b3e b570 05be
00000110: ae3d 09be 2c99 0c3e ca63 863d c4b7 a03d
00000120: 11ae 3d3e cbb7 383a 427a 9b3d cc63 42be
00000130: d3aa 36be abe2 a83e 18de 59be 895d e33d
00000140: 8bc1 8ebe 833b 143e c692 89be dd3c 89bd
00000150: 6888 0a3e dea4 65bc 6c40 8abd ea71 7e3e
00000160: 14cf d8bd 9dd8 e4bd 5f79 c0bd 567b 2c3d
00000170: 243f d0bc 4272 093e 68df 5abe d170 f8bd
00000180: 95c6 933b f634 8dbd 1a31 553d 2174 2bbd
00000190: e230 d63c 6e69 ee3c 8e67 36be 82f0 fdbd
000001a0: 419a 56be a172 65be 5225 c63b bdde a8bd
000001b0: 22dc 80bc 93ca 87be 4358 2e3d 2ae9 01be
000001c0: 36d7 d8bd 81e7 b7bd 3833 d4bd 37f9 cc3a
000001d0: d757 f4bd f91c 7ebe e3a3 dc3d 4c68 533d
000001e0: 635e 4dbe fa61 653e b46c 77bd 2ad2 20bd
000001f0: 4670 7abc c0f8 6f3c 2df0 343d eaff 0abe
00000200: 66f6 d83d 2ea2 a1bd 78c0 1c3e 85f0 8b3d
00000210: 0c54 3e3e e4fb 70bd 220f 533c a348 743e
00000220: 3cd0 cd3d 6d41 43bc 404d a33c 4e3d d13c
00000230: 75a4 84be cf96 b53e 4a6e 6b3d c23e fdbd
00000240: e402 5b3d 82f8 693e 5874 6f3d f866 f43d
00000250: 0652 b73d 8ef1 023c 1978 ddbb f5a6 82bd
00000260: cb20 d23c 62c3 293d ae67 2ebe c2fe 60be
00000270: ae2b a63c 8f9d db3d cc16 1abe 82fd 82bd
00000280: 8275 013e 31f6 ccbd f240 16be d0d3 28be
00000290: ae39 58bd 8aac 653e 4085 623d 91fc 143e
000002a0: 3f2b 15be 78f7 5f3e b142 173e dc42 b83d
000002b0: 08dd 5fbd ecb8 4abd 07a8 ab3d 1a1c 673b
000002c0: e6f7 9d3d d949 773d b545 083c 2552 3b3e
000002d0: b75c 0c3e 7ca9 4bbd 8de6 143d 785e 37be
000002e0: 045a 483d 3965 2abe 06d5 92bd 67bd 063e
000002f0: fb2c 60be c89c a6bc bf6d 5e3d 3182 b43d
00000300: b274 a0bd 5150 343e 01e4 8a3d 0954 1fbe
00000310: f008 86be c374 b23d 6e90 fa3d cf19 c5bd
00000320: 2698 45bb c859 873d b6db 703e da05 93bd
00000330: f761 b3bd 3ebf 2dbe 32fd e9bd 2f54 cabd
00000340: 2f0e 313d 23a5 78be 0e67 da3d 59e4 f6bd
00000350: 8094 b33d 18ab 853e fb36 ccbd c6d8 263e
00000360: 233b 75bd ecd2 c73d e3ab 3f3e 5e0a 26bd
00000370: 82f4 eebc 0411 a63d fad4 37be 0243 093e
00000380: f639 e3bd 3102 9a3d 5016 023d debc bebd
00000390: e96d 413b c493 683d c5db 9bbd 49f3 adbd
000003a0: e007 99bc 148f 253d 09a2 503e deae 53be
000003b0: 5a24 6f3c be43 e6bd 96a7 f9bd f130 b43d
000003c0: 37f9 99be 8044 283d 2bc8 e4bb 8111 743e
000003d0: c8c9 c0bd cfaf 11bd d67c 14bd 831a 11bc
000003e0: fe50 c43d 11da a33e d4e7 b73d 8e4f 3ebd
000003f0: 6420 c33e 0642 123e 94be 513e 73b7 9dbe
-0.2544636 -0.12004948 -0.010692381 -0.18170278 -0.180572 0.23668025 0.09245207 0.13852192
-0.06651978 0.24002957 0.024581963 0.1263536 -0.049272817 0.051069792 0.02937891 0.22535275
0.2523901 -0.084353834 0.19648117 0.034677967 -0.15217349 0.13843903 -0.24504247 0.20169252
0.24587417 -0.18731773 -0.18242314 0.16065031 0.2046818 -0.16637579 0.099824384 0.036132943
-0.0014066522 0.050706144 -0.10972745 0.21562 -0.023858609 -0.07593451 0.05393056 0.19153117
0.083156034 -0.16759229 0.17425372 0.08796436 0.031884342 -0.09511394 0.013637952 -0.16996083
-0.188589 -0.14328097 0.12556958 0.058420017 -0.12756884 -0.010192465 -0.06644243 -0.003501053
0.012864596 0.12498555 -0.012252003 0.22955254 -0.06513744 -0.07857234 -0.173233 0.008708626
0.02959734 0.045274317 0.24553569 -0.13031276 -0.13402435 0.13730305 0.06562002 0.078475505
0.18523432 0.000704643 0.07591678 -0.18983382 -0.17838602 0.32985434 -0.21276128 0.11101825
-0.27882037 0.14475827 -0.26869792 -0.06701062 0.13528597 -0.014016358 -0.06750569 0.24848142
-0.10586372 -0.11174128 -0.0939815 0.04210981 -0.025420733 0.13422492 -0.21374285 -0.12130893
0.004509757 -0.06894867 0.05204878 -0.041858796 0.026146356 0.029103007 -0.1781294 -0.12399389
-0.2095728 -0.22407009 0.0060469294 -0.08245609 -0.015729968 -0.2652174 0.04256464 -0.12686601
-0.10587923 -0.08979703 -0.10361332 0.0015638237 -0.119308166 -0.2481574 0.107734464 0.051613137
-0.20055537 0.22400656 -0.0604064 -0.039262928 -0.015285557 0.014646709 0.044174362 -0.13574186
0.10593872 -0.078922614 0.15307796 0.06832985 0.18586749 -0.05883397 0.012882026 0.23855834
0.10049483 -0.011917454 0.019934297 0.025541928 -0.2590672 0.3546662 0.057478227 -0.12365486
0.053469554 0.22848704 0.058460563 0.11933702 0.089511916 0.007992161 -0.0067587015 -0.06379501
0.025650403 0.041446097 -0.17031738 -0.21972182 0.0202845 0.10723411 -0.15047759 -0.06396009
0.12642482 -0.10007895 -0.14673212 -0.1648705 -0.052789383 0.224291 0.05530286 0.14549471
-0.14567278 0.21871746 0.14771535 0.089971274 -0.05465415 -0.04949276 0.08381658 0.0035264553
0.077132985 0.06037316 0.008317401 0.18293054 0.13707243 -0.04972218 0.036352683 -0.1790713
0.04891397 -0.16640176 -0.07169537 0.13158189 -0.21892159 -0.020338431 0.05430388 0.088138945
-0.07834758 0.17608763 0.067817695 -0.155594 -0.26178694 0.08713677 0.12234579 -0.09624063
-0.0030150502 0.06608921 0.23521313 -0.071788505 -0.0875892 -0.16967484 -0.11425246 -0.09879338
0.043226417 -0.24281745 0.10664187 -0.120552726 0.087685585 0.26107097 -0.09971424 0.1629363
-0.05987085 0.09757027 0.18717913 -0.04053723 -0.029169325 0.08108714 -0.17952338 0.13404468
-0.110950395 0.07519949 0.03175956 -0.09313367 0.0029514974 0.056781545 -0.07610277 -0.084936686
-0.018680513 0.040419653 0.20374312 -0.20672175 0.014596069 -0.112433895 -0.121901676 0.08798397
-0.30072948 0.04108095 -0.0069818697 0.23834802 -0.09413487 -0.035568055 -0.036251865 -0.008856419
0.095857605 0.3200231 0.089797646 -0.046462588 0.3811065 0.14282998 0.20482856 -0.30804023

actor.0.bias f4 [256]
00000000: ba2c e03c bc33 48bd 025f 4fbe 8efc 303d
00000010: deae be3d 5c7f 413e a404 92bc b1ce 2ebe
00000020: 1585 afbd dde0 fb3d 9a06 72bd 39a6 003e
00000030: ae16 dfbd 3630 29be 7a2f 56bd 89d9 cebd
00000040: 76bd 21bd 317c 91bc 653f aebd bccd 353e
00000050: a9de bb3c cbb7 11be d908 22be 390e 67be
00000060: 06d2 703e e59b d93d 9942 a63b 29fc 03bd
00000070: ed3f f2bd 010a 2e3e 5a44 2fbe 8be1 3cbe
00000080: 0ee8 5cbc 689e c53a 49e6 2abe 1b78 d6bd
00000090: e7ee 153e 91f3 bcbc 9851 61bd 5898 7cbd
000000a0: 69d0 0bbe b186 5dbd 2f90 5bbd 79fd 4c3e
000000b0: 8925 e63d 9b9d 053e e2c9 e8bd 15f6 9cbe
000000c0: 8055 3abe 55b3 b3bd 94ff 03bd e73a 6cbd
000000d0: 2f90 0fbe c0e3 f7bd f77e f7bd 1b69 883d
000000e0: 8f54 8abd 2ec3 93bd c3e9 a0bc 0f0a 43be
000000f0: b227 d0bd f393 eebd 064d 70be fc89 97be
00000100: 5cee 683e f503 c8bc ced9 1dbe 8d85 863c
00000110: d9f4 86bd da82 5fbd 4d49 e3bc aed6 4ebe
00000120: 93c4 a13d 4ea1 c2bd 61fd 0dbe 0986 ec3d
00000130: 6605 75be 95b3 103e 88f2 acbd 06a6 a4bd
00000140: 408d 5fbe 47c1 d1bc b874 11bd f302 d5bc
00000150: 0bb1 09bd ad67 92bd 67f5 69be 5c04 11bd
00000160: 8d9c f2bd c394 17bd 496a bbbd 4949 3a3b
00000170: 84a9 2c3e 1c99 c4bd c4cf 183e 642b f7bd
00000180: 3517 04bc db9b 2a3e 59d7 1b3c d59e 883d
00000190: c617 dbbd c908 54bd 7676 2ebe 3125 48be
000001a0: 1c02 203e 8e14 d63b 3059 a83d 5240 2fbd
000001b0: d2c8 e6bd 2ef0 3dbd 0e24 b4bd d897 37bd
000001c0: 95ed 35be 31b5 91be 963f 00be ad3a bc3d
000001d0: 0b24 1dbe 6602 7abd c170 3e3e 1bd6 bd3a
000001e0: 204f 403e ff45 aabe 4cf5 49bd bcff 8b3d
000001f0: 62e8 1dbe 7e2d f03b 2ac9 f5bd 41bb f83d
00000200: 9edc c2bd 9d39 38be abba 84bc 032b a6bd
00000210: 875d 623d 541c c0bc 86e3 ffbd d342 fd3a
00000220: 6e85 eabd 1431 8abd b5b7 1abe 1286 42bd
00000230: 5cd7 87bd 48b3 3cbc 2154 79bd 07ed 18be
00000240: 824d 9d3e 1401 c7bd 35a4 8ebd 483c 06be
00000250: 1f72 c83e 833e f5bd bff1 2fbd 0471 2bbe
00000260: 4f05 0f3e f402 bfbb 2db4 703e dfe1 54bc
00000270: a227 ddbd 5ba4 0abe 6857 e8bb 26c7 513d
00000280: 203a 57bc 3436 1bbd abe9 1fbe 8472 433d
00000290: 403c e9bd dbe7 003d 30af d83d 9ada a0bc
000002a0: 738e 9bbc 7b09 5e3d cf2d 85bd a0a6 90ba
000002b0: af66 9fbd ec22 98be 3abf f6bd 6bae 25bd
000002c0: 8adc 723d 773e b8bd 27c7 bb3c 5736 38bd
000002d0: 3c1d 13be 8d7a 963c fc33 883c 7a79 d8bd
000002e0: 21cc 2cbe dc5f 8ebd 71bc 38be a3d3 77be
000002f0: e225 3ebe 2aa5 633e 2d58 78bd 0cb6 49be
00000300: 0321 193d a507 24be 3c59 ab3d 6fe1 a6bd
00000310: d733 7cbe 20a6 6e3d 06a9 11be 0dce 16bd
00000320: 81cf f0bd 3744 12be 8f7c f93d 1f71 3dbd
00000330: eaea 573e 548e a63d 1eb8 8ebe e77c 29bd
00000340: bec3 233e c480 0a3e 38ae f5bd 0e53 b23a
00000350: 1aa5 f9bc 7dc0 bb3d dd38 dbbd 7d74 0a3e
00000360: e125 29be 1b8d 30be 0cd4 c63c 7bec 9bbd
00000370: fde4 853e d164 0bbe c178 b2bd bf0c 4a3d
00000380: 67d9 b5bd 6ce2 ff3d 47c0 113e f37e 46bd
00000390: 186a a63c 7e9c 10bd 1403 18be 4d81 823d
000003a0: cafb 22be 024b 52bd 4997 d7bd bf22 a53d
000003b0: 8bb7 99bd dabd 98bd d0aa 2fbe 00ad e0bd
000003c0: 5ad2 97bc 448a e1bd b534 d6bd 24ba b7bd
000003d0: 3817 b1bd f14a 61be 7f99 efbc c331 32be
000003e0: b72c 3e3e 2e97 ce3c 08bc eabd 58fa b7bd
000003f0: d1ef 04be 1d39 98bd d942 d73d da26 b4bd
0.027365077 -0.048877463 -0.20251086 0.043209605 0.09310697 0.1889624 -0.017824478 -0.17071034
-0.08570305 0.12298749 -0.059088327 0.12563409 -0.10892998 -0.16522297 -0.05229137 -0.10100085
-0.039487325 -0.017759414 -0.08508185 0.17754263 0.022933321 -0.14230268 -0.15823688 -0.2256402
0.23517618 0.10625438 0.005073857 -0.0322229 -0.11828599 0.16996004 -0.17115918 -0.18445413
-0.0134830605 0.0015077116 -0.1668941 -0.10472127 0.14641915 -0.02306536 -0.055009454 -0.061668724
-0.13653721 -0.05408353 -0.0536043 0.20018567 0.11237628 0.13048403 -0.11366631 -0.30656496
-0.18196678 -0.08774439 -0.03222616 -0.05767336 -0.14019845 -0.12103987 -0.120847635 0.06660672
-0.067544095 -0.07214962 -0.019642716 -0.19046806 -0.10163821 -0.11649313 -0.23466882 -0.2959746
0.22747177 -0.02441595 -0.15415117 0.016421104 -0.0658967 -0.05456815 -0.027744913 -0.20199081
0.07898822 -0.09503423 -0.13866188 0.11549003 -0.2392784 0.14131005 -0.08444697 -0.08039479
-0.21831226 -0.025604857 -0.035511702 -0.026002383 -0.033616107 -0.07148681 -0.2284752 -0.035404548
-0.11846266 -0.037007105 -0.09151132 0.002842503 0.1686154 -0.09599516 0.14923006 -0.12068823
-0.008062174 0.16661017 0.009511792 0.0667092 -0.10697894 -0.05176619 -0.17037377 -0.19545437
0.15625805 0.006533212 0.08220136 -0.04278595 -0.11268772 -0.04637163 -0.087959394 -0.044822544
-0.17766412 -0.2845855 -0.12524256 0.09190879 -0.1534578 -0.061037444 0.185977 0.0014483364
0.18780184 -0.33256528 -0.0493062 0.06835887 -0.15420678 0.007329642 -0.120012596 0.12145091
-0.09514736 -0.17990728 -0.016202291 -0.081136726 0.055264976 -0.023451008 -0.124945685 0.0019322283
-0.11451231 -0.06747642 -0.15109141 -0.04749114 -0.066328734 -0.011517353 -0.060871247 -0.14934169
0.30723196 -0.097170025 -0.06964914 -0.13108933 0.39149567 -0.11974814 -0.042955156 -0.16742331
0.13966869 -0.0058292095 0.23506232 -0.012993305 -0.10798575 -0.13539259 -0.0070904978 0.051215313
-0.013136417 -0.03789349 -0.15616481 0.047716632 -0.11388445 0.031471115 0.10580289 -0.019635487
-0.018988824 0.05420826 -0.06502878 -0.0011035986 -0.07783257 -0.29714143 -0.12048192 -0.04044954
0.059292354 -0.08996289 0.022922112 -0.044973698 -0.14366621 0.018368984 0.01662635 -0.10570045
-0.16874744 -0.069518775 -0.18040635 -0.24201827 -0.18569139 0.22230974 -0.060630966 -0.19698352
0.037384998 -0.16018541 0.083666295 -0.08148467 -0.2462915 0.058263898 -0.14224634 -0.0368176
-0.11758328 -0.14283834 0.12181961 -0.04625046 0.21085706 0.08132616 -0.27874845 -0.04137888
0.15992638 0.13525683 -0.1199612 0.0013605074 -0.030474234 0.091675736 -0.10704205 0.13520999
-0.16518356 -0.17241327 0.024271034 -0.076134644 0.26151267 -0.13612677 -0.08714438 0.049328562
-0.08879357 0.124943584 0.14233504 -0.048460912 0.020314261 -0.035305493 -0.14844924 0.063723184
-0.15916362 -0.051341064 -0.10526902 0.08063268 -0.07505711 -0.07458086 -0.17155004 -0.10970497
-0.01853292 -0.110127 -0.10459272 -0.089710504 -0.08647007 -0.22001244 -0.029247997 -0.17401795
0.18571745 0.025218572 -0.11461645 -0.08983296 -0.12982108 -0.074327685 0.10510797 -0.08796473

actor.2.weight f4 [256, 256]
00000000: 1fd0 1cbe 81fa 46be a114 80bd 3695 d0bd
00000010: b767 a23d b3ac 403e f150 e9bc 8b23 07be
00000020: 13b7 aebe f3d4 173d d637 3bbd fd63 35be
00000030: 87c9 23be b7ba fbbd 8d78 b63d cb65 903a
00000040: 153c 45be e912 cdbd afdd 4fbd 3178 183e
00000050: 9f87 c1bd 5c3e 2bbd bb74 d6bd 5e32 9bbd
00000060: f219 dd3d 1ff1 2d3e 59f0 68be cc0c 86be
00000070: 4da8 94bd 9fc4 afbd ebd0 1bbe 403e 6d3d
00000080: ec0e b2bd ebf0 3fbd 377a b0bd 73b4 19be
00000090: 2b18 f03d 4bbe 0ebe c799 5abd 26a9 82bc
000000a0: 03ea 8abd f6d9 883b 0088 c83c b983 b8bd
000000b0: 8575 23be f945 bfbc 4e34 d53d 80ca 6e3e
000000c0: b159 dc3c 3bb3 003e fcbf 37bd 45c9 8f3d
000000d0: ca48 5ebe c724 d13c 2fc4 c33b fcc5 a53d
000000e0: 0c2f 45bc 6c78 50be 7edf 93be 5089 bcbd
000000f0: 436e 6c3b fdef 583d 606d a7bd e772 973d
00000100: 0942 c4bd be08 e7be 04c6 bc3d 2737 7f3d
00000110: d8c3 ccbc 10aa a3bb 72f6 88be f38a f83d
00000120: 664a e7bd 708c 823d 22a7 77bd 0a75 6d3e
00000130: bc41 f8bd 57f8 aa3d 3473 dbbd 1561 e7bd
00000140: ca3b 74bd 60b9 97bd 3d4b 0f3d d5f7 8f3c
00000150: 7caa c9bd f98e 10bd dd5b edbd 7154 5dbd
00000160: f56e 45be 3518 eebd 1858 acbd e653 cabc
00000170: 8fc8 89be 855f 11be 1f04 42be 1827 673d
00000180: 84bd cfbd 5d83 7fbd 1e6e c8be d2af 7ebe
00000190: 1f59 b63d 133c 2cbe 8bbf 1dbe d6d7 b6bd
000001a0: 01e1 86bd 368a c93d 84ca a53d 821c ddbd
000001b0: 1b0f 43bd 7f1a 413c 456e debd 41da cebd
000001c0: 613a c53d 42fc 71bb d347 01be 08a6 94be
000001d0: 5660 93be 0cbe c4bd 8977 c73b 5b5f 84be
000001e0: 14b3 843d fea3 8e3d 45ae 24be 54ac bf3d
000001f0: 8613 a23d f7cd 5abe 08d7 b6bd 850d 9bbd
00000200: 352a bdbd 7998 f6bd f122 9d3d a983 383e
00000210: 5649 0fbc 4f29 b83d 5f32 cfbb 20c0 02be
00000220: 9790 603d 38c7 a2be 0b7f a43b f3d6 653d
00000230: 5e7e 843d 3e2d 89bd 0af7 20bd 0070 75bc
00000240: 589b 1abe 5d24 73bb bf02 0b3d bacd 233e
00000250: a0df c9bc 7f1f 323e ef1f d0bc 3c30 8dbe
00000260: f3cb e23d 7468 c5bd b2e7 1cbe 4adc 85bd
00000270: 0da7 cbbd c0ce d73d 6b8a f13d 713f 373d
00000280: fcf5 32be 6fc2 7b3c fde5 41be d41c f1bd
00000290: 0ccd c13d 3417 b3be a678 b23c 5705 a8bd
000002a0: ef57 663e 8b3f 053d 2936 07be 3024 3abe
000002b0: 41e1 7fbc 96cd b2bd ef4a 05be 499b ea3d
000002c0: 5eb0 1dbe aa8f 62bb 97d2 a6bd 90ef 22be
000002d0: 24f6 35be 5665 59ba b0b5 193e 924e 41be
000002e0: 8c32 39bd 7619 ecbc 38d9 dbbb 88d1 c3bd
000002f0: 3235 98bd 1ddf a93d 55c3 25be ee37 123d
00000300: 6be3 34be 77e8 963d bc1f 3fbe 6def 91bd
00000310: 4e4e a2bd 6017 0abe 18ed 11be 4831 51bb
00000320: 9500 02be 974d 5f3d 9353 3ebd 52d0 ba3d
00000330: 3b10 443e 880d 84bd d3e2 55be e946 abbd
00000340: 0d4b 8ebd 41e6 c13d a4c2 adbd 173b 943d
00000350: f5c4 8eba b919 28bd c65d f33c 5e43 c4bd
00000360: b387 45bd b595 9bbd 54a2 9cbd 50f9 e2bc
00000370: 4bb7 5cbd 3d07 0cbe 4b03 bc3c 49b6 edbc
00000380: 2713 98bd c46a b63d 4bdf 6bbd 2091 d9bd
00000390: e5fd 24bd 9ea0 87bc 42ed d3bd 0dbf 603d
000003a0: 6fb0 36be a928 383d 3a3c debd d56f a4bd
000003b0: b111 42be 5ed1 843d c5b1 1fbe d1d5 62be
000003c0: 6e1a 133d 3c35 abbc ae8f 443d d080 1b3e
000003d0: 4af3 3cbe 051b 3a3e 2e20 63be 44a5 db3c
000003e0: 9671 b0bc 2bdb c33a d89c 3ebe 8a53 7f3d
000003f0: db53 e6bc fa8c c3bd 2b12 89bc aa50 55bd
-0.15313767 -0.19431497 -0.06253935 -0.1018471 0.07929938 0.1881588 -0.028480979 -0.13197152
-0.3412405 0.03706832 -0.045707546 -0.17713924 -0.15994845 -0.122914724 0.08909712 0.0011016665
-0.192612 -0.100133725 -0.050748523 0.148896 -0.09449696 -0.041807517 -0.10471483 -0.07577966
0.10795964 0.16986512 -0.22747935 -0.26181638 -0.07258663 -0.08582424 -0.15216415 0.057920694
-0.08694252 -0.046860617 -0.08617061 -0.15010242 0.1172336 -0.13939779 -0.05336931 -0.015949797
-0.067829154 0.0041763736 0.024478912 -0.09009499 -0.15962799 -0.023348795 0.10410367 0.23319435
0.026898237 0.12568371 -0.044860825 0.07020811 -0.21707454 0.025530232 0.0059743146 0.08094403
-0.012035143 -0.20358437 -0.28881449 -0.09205878 0.0036076463 0.052963246 -0.081751585 0.07394963
-0.09582908 -0.45123857 0.09217456 0.062308457 -0.02499573 -0.0049946383 -0.26750523 0.121358775
-0.11293487 0.063744426 -0.060462125 0.23189178 -0.12121913 0.08348148 -0.107153326 -0.11297814
-0.05962733 -0.07408404 0.034983862 0.01757423 -0.098469704 -0.0352926 -0.11589787 -0.054035608
-0.19280608 -0.11625711 -0.0841524 -0.024698209 -0.26910827 -0.14196594 -0.18946885 0.056433767
-0.10143569 -0.062381137 -0.39146513 -0.24871758 0.08903717 -0.16819791 -0.15405099 -0.08927886
-0.06585885 0.09840815 0.080952674 -0.10796453 -0.047621828 0.011786102 -0.10860876 -0.101002224
0.096302755 -0.003692404 -0.12625055 -0.29032922 -0.28784436 -0.09606561 0.0060872477 -0.25854
0.06479469 0.06964873 -0.16082104 0.09359041 0.0791388 -0.21367632 -0.08927733 -0.07570938
-0.09236566 -0.120408006 0.0767268 0.18018974 -0.008745512 0.08992254 -0.0063231434 -0.12768602
0.05482539 -0.31792617 0.0050200275 0.056113195 0.06469415 -0.066980824 -0.039298095 -0.014980316
-0.15098321 -0.0037100532 0.033938166 0.15996447 -0.024642766 0.17394827 -0.025405852 -0.27575862
0.110740565 -0.096390635 -0.1532276 -0.065361574 -0.09943972 0.10537481 0.11793979 0.044738237
-0.17476648 0.015366181 -0.1893539 -0.11773077 0.09462938 -0.3497864 0.021786045 -0.082041435
0.22494482 0.032531302 -0.13204254 -0.18177867 -0.01561767 -0.08730619 -0.13016866 0.114553995
-0.1539931 -0.0034570494 -0.081456356 -0.15911698 -0.17769676 -0.00082929933 0.15010715 -0.18877628
-0.04521422 -0.028820734 -0.006709244 -0.09561449 -0.07432021 0.082945086 -0.16187795 0.03569787
-0.17664878 0.07368558 -0.1866445 -0.07125745 -0.07925092 -0.1348548 -0.142506 -0.0031920243
-0.12695535 0.054517355 -0.04646642 0.09121765 0.19146816 -0.064478934 -0.20887308 -0.083631344
-0.069479086 0.094677456 -0.084843904 0.07237833 -0.0010892438 -0.041040156 0.0297078 -0.09583162
-0.048225116 -0.07596914 -0.07648149 -0.027706772 -0.05388574 -0.13674636 0.022950789 -0.029017584
-0.07425528 0.08907083 -0.057585996 -0.106233835 -0.040281195 -0.01655608 -0.10347988 0.0548697
-0.17840742 0.04496065 -0.10851331 -0.08029143 -0.18952061 0.06485246 -0.15595157 -0.22151877
0.035913877 -0.020899408 0.047988586 0.15185857 -0.18452182 0.1817437 -0.22180244 0.026812203
-0.021538537 0.0014942636 -0.18614519 0.06233553 -0.028116157 -0.095483735 -0.016732296 -0.05207888

actor.2.bias f4 [256]
00000000: 5d0c e139 35ab 683e c067 5a3d 2b02 0d3e
00000010: 7aee 8a3e c311 42bd 4966 10bc 0de7 efbc
00000020: 6b0c 2c3e 97af 95bd 1342 373a bdfb 173e
00000030: 38c5 8b3d f8e8 1a3d e0d5 393d 98b2 b43d
00000040: 55e3 403d 16e4 c9bc 2277 803d e6ae e5bc
00000050: 81b3 833e 7b76 48bd 1724 b9bd 4d63 963d
00000060: 0c9c e73c e4c2 1dbc 255e 463e 8196 a9bc
00000070: a01d c73c 2ec0 39bd d07c 5f3e 0139 053e
00000080: dfe5 703d 9466 a8bc 408d 983c c676 c03d
00000090: cac9 063e 20f6 083e cb6d 7f3c 59d8 01be
000000a0: 400f 463e d9be 8ebb 31d5 8b3d c63b f13d
000000b0: 05f8 c9bd 811c 3d3e f608 9b3d 1516 1c3e
000000c0: 8970 bc3e 43f9 e03d 29d3 aebc ce33 c5bd
000000d0: 2c03 863d 549b 38bc fdf1 853d ed33 a1bd
000000e0: 8758 4cbd c9b3 f3ba 2265 c8bd 7ee6 fdbd
000000f0: a604 33bc 9bf8 d03c 9fe2 dc3e 006d 85bc
00000100: 621a 873b f29e a63c 390f 8d3c 805f f6bd
00000110: c3b1 a23d 6f62 ab3d 8be0 d13c fcbf fbbc
00000120: 16a5 713d 6857 123d 0c5a 733b 4d2e a2bc
00000130: 6ada b2bd 526c 1dbd 1a06 3abd 2bd4 9a3d
00000140: 5344 7a3d 2226 1f3e 2691 32bd 7d4e 80bd
00000150: a45e cf3d 3ba4 303d b4ca 033d c95f c1bd
00000160: dd81 82bd 9011 763e 9c8a 193c 410d a13d
00000170: 7d2c 07bc 8c63 68bc 4bf0 403e 2566 55bc
00000180: 27e6 72bd 14d9 023e 900e 38bc d006 b73d
00000190: 3dc2 763e bef8 b6bc 2155 59bd 9799 583c
000001a0: bb70 11bd ec09 8e3b 5019 453e b9a6 963c
000001b0: 24e6 3dbd cff1 0e3f 8dc6 4ebd 05ba 913c
000001c0: b8b8 473d c043 96bd 1170 e23c cc8c 0e3c
000001d0: 32de c0bd ce96 f7bd c842 e2bd bf7c e43d
000001e0: 4e6c d9bc 7527 c23c 11dc cc3d 990b fabc
000001f0: 8bbe a13c f225 5dbd 2616 90bd 522a ee3a
00000200: cded aebd 82c5 19bc 2b6e 61bb 91b0 063e
00000210: 94ce 1a3e 2b74 0c3e 4e5a a43c b215 c73d
00000220: 9470 b0bd 06d6 1cbd 5bb6 693e ddba d33d
00000230: 6f1d afbd 8273 f73b c0aa 443d 0f9a e6bc
00000240: 6892 da3d e1ac 8a3d 93ac a9bc 7efe bd3c
00000250: 6813 08be f18f 433e aa50 6e3d ba12 a43e
00000260: 83c9 8c3e c0ea cabd 3a7c 93bc 53c2 01bd
00000270: 4edb bc3d 1baf d53b f79c 9cbd f625 053c
00000280: 6133 8d3d 099e e5bc 964b 45bd a7bb aebd
00000290: d1cd f13d 26eb b63d 68bb 693d 0250 81bd
000002a0: b9c2 00bd 61c4 893e 7c34 023a 05c0 783d
000002b0: 3305 5d3a a8f0 f63b 9d64 ffbd da52 0f3e
000002c0: f129 4f3e 69e6 d0bc 08c5 153d 8ba9 723e
000002d0: 562b 6c3e d18b 0c3b 8886 263e eb48 1dbe
000002e0: 2f1f 333c 953b aa3e c35f 083d a067 123e
000002f0: a053 2e3e 8014 473e d0f1 313e 6062 6b3e
00000300: bc01 c3bc 0361 a6bc c9ba 95bd e189 8fbc
00000310: 3306 833d 3039 45bd 668e 58bd 668f 433d
00000320: c66d 4f3c 0713 1f3e ab9f 4a3e 5ae1 053e
00000330: a56e 383d 96d4 84bd 0367 273d 1d68 8a3d
00000340: c26d abbd 9416 7f3e a503 9dbd aa93 493e
00000350: ad5c b03d 1e33 503b acb5 c6ba 27df 693e
00000360: a5b5 5d3d 228b 743d 818e 1f3d 49fc d0bd
00000370: 86c4 a03d e506 f43c a6bf e4bc 0f8b ecbc
00000380: b678 e8b9 ec6e 0fbd 7a3c b7bc ac27 6a3c
00000390: da82 d9bc e831 603e f666 a5bc 2226 0ebd
000003a0: 5214 73bd d5e4 cb3d c2eb eebd 64b3 3bba
000003b0: b59a c53e caf4 003c 92e3 e0bd 698c b3bd
000003c0: af7e 223e 2521 8f3d f7ba b6bd 4f5e c3bd
000003d0: e8a9 9b3b 7e55 863e 3c65 333e 174b bcbd
000003e0: 00cd 483e 0804 43bd d056 51bd 1f94 5d3d
000003f0: d3e4 ac3d b236 c93c eba4 27bd 52fc 4e3e
0.00042924556 0.2272156 0.0533216 0.13770358 0.27135068 -0.04738022 -0.008813449 -0.029284978
0.16801612 -0.07308882 0.0006990742 0.14842124 0.06824726 0.037819833 0.045369983 0.088231266
0.0470918 -0.024644893 0.06272723 -0.0280375 0.25722888 -0.048941117 -0.09040087 0.07343159
0.028272651 -0.009628985 0.19371851 -0.020701649 0.024306118 -0.045349292 0.21824956 0.13010027
0.058812972 -0.020556726 0.01862204 0.09397654 0.13162914 0.13375139 0.0155901415 -0.12680186
0.19341755 -0.004356247 0.068277724 0.11778979 -0.09861759 0.18467905 0.075700685 0.15242799
0.36804608 0.10985043 -0.021340923 -0.096290216 0.06543574 -0.011267502 0.06540296 -0.07871232
-0.049889114 -0.0018593009 -0.097849146 -0.123974785 -0.010926401 0.02550917 0.43141648 -0.016287327
0.004123018 0.020339463 0.017219173 -0.12029934 0.079440616 0.08368384 0.025619766 -0.030731194
0.05899533 0.03572789 0.003713253 -0.019797469 -0.087330654 -0.03843338 -0.045415975 0.07559999
0.061100315 0.1554189 -0.043595456 -0.062649705 0.10125473 0.043125372 0.032175735 -0.09442098
-0.06372426 0.24030137 0.009371426 0.07863856 -0.008250353 -0.01418389 0.18841664 -0.013024841
-0.05930152 0.12778121 -0.011233941 0.08936846 0.24097534 -0.022335406 -0.0530597 0.013220212
-0.0355079 0.004334679 0.19247937 0.018390046 -0.046362057 0.5583772 -0.05048232 0.017788896
0.048760146 -0.07337141 0.027641328 0.008700561 -0.094173804 -0.120893106 -0.11047894 0.11156606
-0.026540902 0.023700455 0.10002912 -0.030523108 0.019744178 -0.053991266 -0.070354745 0.0018170571
-0.08541451 -0.009385468 -0.003439794 0.13153292 0.15117866 0.1371619 0.020062592 0.09720935
-0.086152226 -0.038290046 0.2282347 0.10338376 -0.08550536 0.0075516114 0.048014402 -0.028149633
0.10672456 0.06771255 -0.020712173 0.02319264 -0.13288653 0.19097878 0.058182396 0.32045537
0.2749749 -0.09908056 -0.018003572 -0.031679463 0.092215165 0.0065211183 -0.07647126 0.008126726
0.068945654 -0.028029459 -0.048167787 -0.085318856 0.118068345 0.0893157 0.05706349 -0.063140884
-0.031435702 0.26907638 0.0004966927 0.06073 0.00084312557 0.0075360127 -0.12470362 0.13996449
0.20230843 -0.025500493 0.036564857 0.23697488 0.23063406 0.0021445642 0.16262257 -0.15359847
0.010932728 0.33248582 0.03329445 0.14297342 0.17024088 0.19441414 0.173774 0.22986746
-0.023804538 -0.02030993 -0.07311017 -0.0175218 0.06397667 -0.04815024 -0.052870177 0.047744177
0.012660449 0.15534602 0.19787471 0.13074246 0.045027394 -0.0648586 0.040869724 0.06758139
-0.08370544 0.24910957 -0.07666711 0.19685236 0.086114265 0.003176875 -0.0015160344 0.22839032
0.054128308 0.059703 0.03895426 -0.102043696 0.07849984 0.029788444 -0.027923416 -0.028874902
-0.00044340425 -0.035017893 -0.022367705 0.014291685 -0.026551653 0.21894038 -0.020190697 -0.034704335
-0.05934555 0.099557556 -0.11666061 -0.0007160215 0.38594595 0.007870862 -0.109809056 -0.087670155
0.15868638 0.06988744 -0.089223795 -0.09539472 0.004750479 0.262371 0.17519087 -0.0919401
0.19609451 -0.047611266 -0.05110818 0.054096337 0.08442082 0.024562214 -0.040928762 0.2021344

actor.4.weight f4 [100, 256]
00000000: cd7d 9a3f da72 623d 9ac1 273d dd22 a93f
00000010: 41f3 d93f e59e 5abc fc80 97bd 55f5 7a3d
00000020: c1ae 793f 273e 3b3f a519 6b3f 53b6 503f
00000030: 4af9 b23f 3920 823f bcf4 9e3f e174 9a3f
00000040: 5e0b 853f 221a a53d bb3f b23f 9099 903d
00000050: 63b1 a83f 5149 1e3e ce18 193d de52 3e3f
00000060: d12f 993f 9487 653f 8962 963f dc82 463f
00000070: 60b7 9b3f 03ed 8d3f 964c 8b3f 1add b43f
00000080: 153d 983f 3924 943f 113c 623f 7649 823f
00000090: bcbe ba3f 5353 7b3f bdd3 173d eda7 663f
000000a0: 21bd 613f 2be7 e83e 8a34 813f 4182 833f
000000b0: 4ce9 e93e e34f 8f3f 6548 193f 2f3e 423f
000000c0: 5fb3 bb3f e3fe 8c3f f90a 313f 4342 343e
000000d0: ff34 5d3f 83af 5a3f e2ce ac3f 40e7 733f
000000e0: cffa 0a3f 44ee 5b3e a5df 983f ce7a 183f
000000f0: 3120 dc3c 3bb5 923f 666c 9d3f 88e6 ac3c
00000100: 87ff 3f3f 801e 043f b034 943f e9d8 893f
00000110: 30e8 9e3f 32ab ca3f cdeb a83f e5f7 083f
00000120: 9e98 623f e971 b63f 71f0 b93d c003 8a3f
00000130: 7831 9f3f 2490 8e3f b91a 38bc 8e80 393f
00000140: cd6f 8b3f d202 613f 71c5 763f a707 153f
00000150: 6b85 483f 4a29 553f 9c15 af3f 7ca3 a73e
00000160: 787b 863d c4ff bd3f ce81 1c3f 3578 853f
00000170: c205 693f ba72 8c3f 01d6 b83f 0955 c73f
00000180: c771 d83e 1d0a 223f 2514 a73f beb4 6b3f
00000190: 24a0 553d 9bcb 63bd ee4e 203f 7425 543f
000001a0: f170 153f d69c 963f e0ae 673f fcb3 8b3f
000001b0: 1a77 c03f 5128 f23e 208b 1c3f 0588 8f3f
000001c0: 0194 233f a888 f23e f538 0e3f 7e2f a03f
000001d0: 5616 ae3e d93f 363e 5f24 923e 966d 923f
000001e0: b3d3 8f3d 5c83 8f3f 90e2 e83f 03b8 fd3e
000001f0: d8c1 863e 17d3 a03f 05c7 183e 2c6d 813f
00000200: e758 813d 16cb ad3f 8140 423d a036 0b3f
00000210: 8e96 c23f f84f 993f 8f61 3e3f 4687 983f
00000220: 82c7 123f 6198 1a3f 97fd 943f 0f8a 803e
00000230: 7b37 023f 12e4 7c3f 05ae 3f3f 1376 8b3e
00000240: cbe8 633f 619c ca3e ebfa bb3f 48ae 243d
00000250: 8880 43bc 7f06 a43f f9a9 653f 49ef 7c3f
00000260: 02b2 1f3f fdf2 353f 030a 853f 0ed2 823e
00000270: fb0c 843e 6731 513f f21b ba3e 6e19 343e
00000280: 993c 183f f2be a53e e033 c7bd 3e5e 943f
00000290: 2101 353f 0a1a a23f bab0 a03f e3d5 173f
000002a0: c4c7 3b3f 3395 773f 85a5 863f 50e5 803f
000002b0: b9fc 01bd 5cd1 f3bc 4f55 573f bf6c 573f
000002c0: 1891 9b3f 935e 833f 7407 4ebe ed8a 6b3f
000002d0: 4fd2 3b3f 4d23 88bd 787b d03e 095c c53d
000002e0: 9a20 b2bd 4da4 3e3f 1ee8 a73f 81cf 8f3f
000002f0: 1cb2 c73e 1312 d73e 5e23 483f 2b55 db3f
00000300: 5a99 133c a4dc a13e e169 a23f 2c3f a03e
00000310: 7294 c93e 4071 5f3f cfd7 1a3e 1c22 413f
00000320: 7b7f 2dbd f5b1 ae3f cc91 5f3f 5357 323f
00000330: 4ddf 893f 3474 073e 5890 1d3f 3e38 283f
00000340: 9ffc 7d3f 85fc 8a3f f371 3e3f e359 353f
00000350: 573f 803f 0590 2f3e c182 713f fff4 733f
00000360: 3d73 773f d8ac ba3f ef35 b23f 80d2 763f
00000370: 3b92 873f f9cd 573f 3785 a93f 0118 2b3e
00000380: 21e0 8d3f fa59 65bd 4840 813f 174d a63f
00000390: 2b09 c8bc 6611 9b3f 0762 983e 6bd3 823f
000003a0: fd39 253f e897 5f3f a579 5f3e 4fba c53f
000003b0: f4a2 803f 3581 eb3e f89d 253f 57b1 a3bc
000003c0: 6b32 3d3f 4004 403f a57a e23b d3ac ce3f
000003d0: 1d4b 0a3f ed23 8e3f 3024 8f3f fe2f 583d
000003e0: 7a34 7d3e f311 6f3f 1e8e 7d3e 7aad 8f3e
000003f0: 4e84 233f 4326 a33e 4281 e63e 6a30 5f3f
1.2069641 0.055285312 0.040956117 1.3213764 1.702736 -0.0133435475 -0.07397649 0.061269123
0.9753228 0.7314171 0.91836005 0.81528205 1.3982327 1.0166084 1.2418437 1.2066919
1.0394094 0.08061625 1.3925699 0.0706054 1.3179134 0.15457655 0.03737717 0.74345195
1.1967717 0.8966 1.174882 0.77543426 1.2165337 1.1087955 1.0882747 1.4129975
1.1893641 1.1573554 0.88372904 1.0178668 1.4589458 0.9817402 0.037067164 0.90099984
0.8817921 0.45488867 1.0094159 1.0274125 0.45685804 1.1196254 0.5987609 0.75876135
1.4664115 1.1015285 0.6915737 0.17603402 0.8640899 0.8542406 1.3500636 0.95274734
0.54288954 0.2147761 1.1943251 0.59562385 0.026870819 1.1461557 1.2298706 0.02110602
0.7499928 0.5160904 1.1578579 1.0769321 1.2414608 1.5833495 1.3196961 0.5350326
0.88514125 1.4253513 0.09079064 1.0782394 1.2436972 1.1137738 -0.01123684 0.72461784
1.0893494 0.8789493 0.9639502 0.582148 0.7832858 0.8326613 1.367847 0.32741916
0.065665185 1.4843678 0.61135566 1.0427309 0.9102441 1.0972512 1.4440309 1.5572826
0.42274305 0.6329668 1.3053023 0.92072666 0.052154675 -0.055614095 0.6262044 0.8286965
0.5837546 1.1766613 0.90501213 1.0914302 1.5036347 0.47296384 0.6114979 1.1213385
0.6389771 0.47369885 0.5555566 1.2514493 0.34001416 0.17797793 0.28543374 1.1439693
0.070228 1.1211963 1.8194141 0.49554452 0.26319766 1.256442 0.1491967 1.0111442
0.06315785 1.3577602 0.047424797 0.54380226 1.5202196 1.197753 0.7436761 1.1916282
0.57335675 0.6038876 1.163989 0.2510533 0.50865906 0.9878551 0.7487491 0.2723852
0.8902709 0.39572433 1.4685949 0.04020527 -0.0119325 1.2814482 0.8971248 0.9880262
0.62380993 0.71073896 1.039368 0.25550884 0.25791153 0.81716007 0.36349446 0.17587826
0.59467465 0.32372242 -0.09726691 1.159126 0.7070485 1.2664196 1.2553933 0.5931074
0.73351693 0.96712035 1.0519263 1.0069981 -0.031735156 -0.029762916 0.84114546 0.8415031
1.2153654 1.0263237 -0.2012003 0.9200886 0.7336778 -0.06647358 0.407192 0.09636695
-0.086976245 0.74469453 1.3117712 1.12352 0.39003074 0.42005977 0.78178966 1.7135366
0.00900873 0.31613648 1.2688562 0.31298196 0.39371067 0.8728218 0.15121387 0.7544267
-0.042357903 1.3648058 0.87331843 0.69664496 1.0771271 0.13227922 0.61548376 0.6571082
0.99213594 1.0858313 0.7439262 0.7084028 1.001933 0.17144783 0.9434014 0.9529571
0.96660215 1.4583998 1.3922709 0.9641495 1.0591501 0.84298664 1.3243779 0.16708376
1.1084024 -0.05599401 1.0097742 1.2992276 -0.024418434 1.2114685 0.2976229 1.022077
0.6454161 0.87341166 0.21823747 1.5447482 1.0049729 0.45997015 0.64694166 -0.019982023
0.73905057 0.75006485 0.006911593 1.6146492 0.54020864 1.1104714 1.1182919 0.052780144
0.2472705 0.93386763 0.24761245 0.2806204 0.63873756 0.3186513 0.4502049 0.8718325

actor.4.bias f4 [100]
00000000: d13f 963f 45af 933f af30 873f 89cb 863f
00000010: f220 8c3f 5eea 8c3f 725f 813f 10d6 8b3f
00000020: ce43 783f 6490 633f 32ab 713f 3c50 9b3f
00000030: fc10 693f 7daf 9f3f c6d3 aa3f 0f08 933f
00000040: 4156 903f f9f5 7f3f c0bb 953f 6208 823f
00000050: 9789 7e3f 4f9e a53f 7a75 ae3f 63de 9d3f
00000060: a6e3 ab3f ac65 9f3f 7355 9a3f ea87 663f
00000070: 98e8 803f 3922 8d3f 10d2 7e3f 5888 8a3f
00000080: f81a 8e3f b23a a73f fdb5 803f 3d9d b23f
00000090: 5f7a 7f3f 24be 953f a293 863f 7f53 893f
000000a0: f22c 7a3f 09e1 793f 448d 833f 65c0 743f
000000b0: c0bd 8a3f e6c1 b43f 58d8 b43f aa81 983f
000000c0: 5efc 833f bd64 8e3f 5dc2 8a3f 15f0 5e3f
000000d0: 0487 773f 58e8 8d3f 23d6 873f 6438 ac3f
000000e0: e498 853f 22f6 883f 8ad0 a33f d05a 853f
000000f0: b481 833f f367 9b3f 0e27 823f 1c1c 8e3f
00000100: f782 913f 6fc2 b23f f3bf 823f 8c82 883f
00000110: 0a65 8a3f b3be a33f e8ff 8c3f 68e3 803f
00000120: 4293 9d3f 0dc1 913f 9d26 8b3f 1468 9b3f
00000130: 0696 9a3f 28f3 7e3f 42ce 8f3f 02bc 703f
00000140: 22bb 7e3f 8a5b 703f 3ba2 933f 9ef9 843f
00000150: 3819 7e3f 9ab9 933f 6543 6e3f 51b6 7f3f
00000160: e673 943f 4abc 853f 1276 833f 4878 493f
00000170: 2938 833f 66cb 843f d5d4 783f 6871 843f
00000180: b466 a53f 6233 943f 340d 8e3f 9b0a 6c3f
1.1738225 1.1537863 1.0561732 1.0530864 1.0947554 1.1009023 1.0107253 1.0924702
0.9697846 0.888922 0.9440185 1.213386 0.9104154 1.247543 1.3345878 1.1486834
1.1276323 0.999847 1.1697922 1.0158808 0.99428695 1.2938937 1.3629601 1.2333492
1.3428848 1.2452903 1.2057327 0.9005114 1.0070982 1.1026069 0.9953928 1.0822859
1.110198 1.3064787 1.0055538 1.3954235 0.997961 1.1698651 1.0513804 1.0728606
0.9772483 0.97609 1.0277486 0.9560607 1.0839157 1.4121673 1.4128523 1.191457
1.0311391 1.1124493 1.0840565 0.87085086 0.9669039 1.1086531 1.0612224 1.3454709
1.0437284 1.0700114 1.2798016 1.0418339 1.0273957 1.2141098 1.0168169 1.1102328
1.1368092 1.3965586 1.0214828 1.066484 1.0812085 1.2792572 1.1015596 1.0069399
1.2310565 1.138704 1.0871159 1.2141137 1.2077034 0.99589777 1.123482 0.9403688
0.9950429 0.9388968 1.1533884 1.0388677 0.9925723 1.1541016 0.93071586 0.9988757
1.1597869 1.0448086 1.0270407 0.7869916 1.0251514 1.0374572 0.97199756 1.0347109
1.2921968 1.1578181 1.1097779 0.9220368
