Quan/critic/critic.pth (torch, 369615 bytes, 5 tensors)

critic.0.weight f4 [256, 100]
00000000: c8d0 bdbe c7fa d6be f608 56bd 4159 65be
00000010: a6ae 823e 3dc4 dbbe 029e b5be ef4f ce3e
00000020: 62e3 ecbd 39dd 21be 7af3 f4be c597 b9bd
00000030: 2c85 2f3e bbf3 663e 6f6d 0fbe 5ab8 01bc
00000040: e885 a4bd 90cf cfbd e608 96be 6f9e ed3b
00000050: 5f55 c6bd 1fbf 3a3e 5485 da3e 65bf 79bc
00000060: 01b5 193e 15eb f1be 377a 2e3f b864 2e3e
00000070: 2e53 e43d f1a5 923e 7354 debe 51af 333e
00000080: 44de ea3d 14bf 3ebd e4cb 33be c76b 863d
00000090: e820 fbbe 6bc9 783d 81dc 60be 5124 22be
000000a0: c6a9 a8b9 30e9 203e 121a a2bd 32d2 4abe
000000b0: 5cb1 973e 301c 663d 433c b2be 0691 83be
000000c0: fb02 3abe ea09 2fbe 1b7f fbbe 0571 833e
000000d0: aab3 dcbd 9068 473e c20b ab3e fc49 fbbd
000000e0: 0bb0 12bf 81e0 aa3e 89f0 91be e121 053c
000000f0: 3b96 b93d 32eb 92bd 41d9 903b dde9 9c3e
00000100: 82c1 41be 5f06 913e 8ddf ddbd 25bc 29be
00000110: d305 6cbe b802 36be 4aee a9bd 2406 acbe
00000120: 4e46 9dbe 0b1e 473d 1f49 b7bc 8903 c9bc
00000130: b3e6 8b3e 7c85 d3be 9cba 40be 96d9 233d
00000140: 2869 b7be 8f8f 2e3e c70b 0fbd d911 d3be
00000150: 31a3 a13d d9cc bf3c 0f5e 2fbe b33a 913e
00000160: 198c 43be b902 53be 3af4 3bbe c0d0 f63d
00000170: 4e75 9e3e f05b fe3d a406 72bd f6e4 d63d
00000180: 0e39 dfbc 6437 13bd ca90 c0be ce71 65be
00000190: b28b 283d 1138 54be f15e aebe 1388 6b3e
000001a0: 7f49 f63e ac72 14be 511a 2b3e d4ed e43e
000001b0: ac89 083e 3558 58be 22d3 c8bb 4bc3 533e
000001c0: 199a c9bd 7706 a4bd fc1c 3e3d 71bd 84be
000001d0: c7a5 2ebd 4a22 873e 7bfb 9f3e 0df6 69be
000001e0: fa9a 163e b8dc bfbe de20 d73d 4db3 acbe
000001f0: ceda 72bd 0834 c9be a8b6 dcbe 1292 eb3e
00000200: ce67 24be 13a5 b9be 35b1 09bf ade1 8a3d
00000210: d6d7 8abc 1c7a 0fbf 1608 c1be c3ea 10be
00000220: e779 6a3e b17a 383f b6dc 9ebe 725e 373e
00000230: 1eda adbd 6c22 2cbd 4b08 a1bd dedd 923d
00000240: f284 ddbe 684d 1cbf 802d 0ebd 95a7 f03d
00000250: 98cc 573e c1d1 af3d 6073 393e 1c23 7f3d
00000260: dee9 81be a9cb fc3d d6b6 673e 9490 8f3e
00000270: 5f43 0a3e e962 a8be 68a0 c43e 7fda 38bd
00000280: dcf7 3b3e ea29 efbc c9b5 20be 94db bebd
00000290: 30f3 3f3f 7ee1 01be 9a4e 973d 6214 88be
000002a0: 5b05 7e3e 74dd 51be 0c89 b63d 4b43 cf3e
000002b0: c8d5 c0bd e2d3 f23d 3ffc 813d ca84 c2bb
000002c0: 886f c23e bda7 ac3e e6c5 25be 5d34 b03e
000002d0: 953f 2d3d 7000 693c f532 7e3e 7994 01be
000002e0: 648d b4be 4411 093c 8392 2cbe ad77 f73d
000002f0: 8ef8 cebd 725e 23be 3c6a fd3d eba5 4f3e
00000300: d990 a4be 2c67 313e 11e9 cc3e 64f1 fdbc
00000310: 4140 5bbe 1527 d03e a5f1 6c3e af03 a83d
00000320: 0c4e 883e e7c9 363e 6a29 a5be b6d8 a3bd
00000330: 4d18 7a3e 48e0 7bbd 7d7b fbbc 9004 a3bc
00000340: c562 913e 0206 b13e 0747 1fbe 4060 4d3f
00000350: bc17 84bd 1e2b 65be fda3 81be 37c2 93bd
00000360: 31ad 643e 10ef 743e 8b17 a23d affa 783e
00000370: 292a 593d 3472 b0bd 89dc babd 7c48 9cbe
00000380: d3e1 e9bd 3590 34bd c1fc 44be d683 48bd
00000390: 57ce e8bd 3b75 5d3e dd5e e1bc 2773 b2be
000003a0: 8ea2 d4bc 005a c4be 1d00 a9be 3d04 f9bd
000003b0: 0827 073b 17ae 313e c2f0 333e cc3a 25be
000003c0: c603 69bd b59d cc3d 346b b7bd 69a7 4c3e
000003d0: 1b01 143e 2d05 20bf 2a91 e3bd 606f ae3e
000003e0: fbeb 63be 44dc 18be 78d9 3ebe ad62 76bc
000003f0: 3f99 7abe 57e7 d93b 065b 95be 04bc 57bd
-0.3707335 -0.41988203 -0.05225464 -0.22397329 0.2552387 -0.42923155 -0.35472113 0.4029536
-0.11566807 -0.15807046 -0.47842008 -0.09062151 0.17140645 0.22553913 -0.1400659 -0.007917488
-0.08033353 -0.10147011 -0.29303664 0.007251553 -0.09684252 0.1823697 0.42679846 -0.015243386
0.15010454 -0.47249666 0.68155235 0.17030609 0.11148678 0.28642228 -0.43423805 0.17547347
0.11468175 -0.046568945 -0.17558247 0.06563526 -0.49048543 0.060738962 -0.21959116 -0.15834166
-0.00032169948 0.15713954 -0.07915129 -0.19806746 0.29627502 0.056179225 -0.348116 -0.25696582
-0.181652 -0.17093626 -0.4912041 0.25672165 -0.10776456 0.19473481 0.33407408 -0.12269971
-0.5729987 0.33374408 -0.28503826 0.008125753 0.09061857 -0.07173766 0.00442043 0.30647174
-0.18921474 0.28325173 -0.108336546 -0.16575678 -0.23049097 -0.17774475 -0.08297403 -0.33598435
-0.307177 0.048612636 -0.022373734 -0.024537819 0.27324447 -0.41312778 -0.18821186 0.040002428
-0.35822415 0.17046951 -0.03492334 -0.41224554 0.078924544 0.023413109 -0.17125724 0.28365096
-0.19096412 -0.20606507 -0.18354884 0.12051535 0.3094887 0.124198794 -0.059088364 0.104928896
-0.027248885 -0.035941496 -0.37610465 -0.22406694 0.04114885 -0.20724513 -0.3405681 0.23001127
0.48102948 -0.14496869 0.16709258 0.44712698 0.13333768 -0.21127398 -0.0061286846 0.20679967
-0.09843845 -0.080090456 0.04641436 -0.25925782 -0.042638566 0.26393348 0.31246552 -0.22847767
0.14707556 -0.37473083 0.10504316 -0.33730546 -0.0592907 -0.3929751 -0.43108106 0.4600988
-0.16055223 -0.36258754 -0.5378602 0.067813255 -0.016948622 -0.560457 -0.37701482 -0.14152054
0.22898065 0.7206221 -0.31027764 0.17907122 -0.08488868 -0.042025015 -0.0786291 0.07171224
-0.43265492 -0.6105561 -0.03471136 0.11750714 0.2107414 0.08584929 0.18110418 0.062289342
-0.2537374 0.123435326 0.2262834 0.28039992 0.13502263 -0.32887962 0.3840363 -0.04513025
0.1835627 -0.02919479 -0.15694346 -0.09319225 0.7498045 -0.12683675 0.07388039 -0.2657805
0.2480673 -0.20494634 0.08912858 0.40481028 -0.094157755 0.1185682 0.0634694 -0.00593624
0.37975717 0.33721724 -0.16188774 0.3441495 0.042296965 0.014221296 0.24824126 -0.12654294
-0.35264122 0.008365933 -0.16852765 0.12083373 -0.10106002 -0.15953997 0.12373778 0.20278136
-0.3214176 0.17324513 0.40021566 -0.030998893 -0.2141123 0.40654817 0.23139055 0.082038276
0.26622045 0.17850457 -0.3225816 -0.08000319 0.24423333 -0.06149319 -0.030698532 -0.019899637
0.28395668 0.34574896 -0.15554439 0.8022499 -0.064498395 -0.22379729 -0.25320426 -0.07214778
0.22331692 0.2391932 0.07914647 0.24314378 0.053018723 -0.086155325 -0.09124095 -0.3052405
-0.11420026 -0.04408284 -0.19237043 -0.048953854 -0.11367481 0.21626751 -0.027511055 -0.3485348
-0.025956418 -0.38349915 -0.330079 -0.121590115 0.002062263 0.17351566 0.1757231 -0.1613571
-0.056888364 0.09991018 -0.08955994 0.19985737 0.14453547 -0.625079 -0.11111672 0.34069347
-0.22257988 -0.14927775 -0.18637645 -0.015038175 -0.24472521 0.0066498923 -0.29171008 -0.05266954

critic.0.bias f4 [256]
00000000: ce7d 9a3f a21f 7e3e 0c15 3f3f f5da 8c3f
00000010: a961 e63e 98e8 6f3f 6b74 393f 703f 9b3f
00000020: e1e8 563f 13cb 013c 21bb bfbe 166e 803f
00000030: 6858 133f ad12 7b3f 5a16 5b3f cab5 1c3f
00000040: 275d 5c3f cb4e 84be 7521 ba3e c3d2 173f
00000050: 5b7d 4f3f 00f8 533f cef4 523f c707 0b3f
00000060: b52e 9f3f 08df 323e 54fa 83be 31fb 673f
00000070: 494f 3f3f 775c f63e f567 a73f 2a1e 0fbf
00000080: 9e05 fd3e eddc b03f 80fb d23e 27c4 963f
00000090: fde4 bb3e 9bdb b83e 6657 7d3f 44c2 943f
000000a0: 50b6 37be 8968 9f3e 19ce 123f 0ba5 863f
000000b0: 23e5 923f 2d15 893d 394d 613e 26c8 873f
000000c0: d4e1 463f dfbb 5c3f 287a 3d3f f616 ff3e
000000d0: 43d0 2bbf 0038 853f 3cc8 233f 203d 0c3e
000000e0: 7582 193f 643b 8c3f f5ff 5e3f 6950 843f
000000f0: fb0e 9e3f 1bff 9d3f cee8 2fbe cb7c ed3e
00000100: f561 2f3f f390 6f3f f243 393f d265 9b3f
00000110: ffd0 573f 345e 413f 623c e63e a419 ad3f
00000120: c327 1e3f e8e6 a83f 6db6 a93e 83e5 2b3d
00000130: 3a8d 95bd ada2 3d3f fb48 5b3f b8fb 833f
00000140: a73a 5e3f 6ac9 493f 54cb 413f f158 aa3f
00000150: f091 983f 999b 9f3e 802a 373f 6229 d43e
00000160: 8212 833f a027 a63e cd5d c23e bcc0 9e3f
00000170: 5721 18bd b270 7a3f 3dca a13e 6a06 553f
00000180: 6b13 3e3f aaac a83f 8f84 e83e c90b 2d3f
00000190: c118 603f cf95 4a3f db95 b83f 93b9 f73e
000001a0: 1ff1 ea3e 78e7 8c3e 708a 673f 1e69 cb3e
000001b0: 9ad3 2d3f cac7 493f 9d0f 48bf 3ae5 613f
000001c0: 725b 363f 11db 083f 4a1c 0d3f 09fe 363f
000001d0: 0ba7 693f d646 6a3f 3d38 243f 1d6e 7e3f
000001e0: 0ca8 8b3f 812f a83f 8ca1 8d3f 9428 673f
000001f0: 277e 3e3f db3d 883e 4a0d 3a3e b32d 963f
00000200: 52bf 853f 4374 393f b2c8 853f 13f8 b53e
00000210: 40d6 3a3f 7834 a53f 3fb3 8c3f dc68 173f
00000220: 2005 9f3f 435d 8c3f 2288 833f 14ba dc3e
00000230: f666 fb3d 28f1 873f 3b62 9d3f 9ff1 553f
00000240: 8b04 c23e 8e1c 303f 1e59 7c3f 7fab 993f
00000250: 6d7a 1e3f 0ef2 9c3f 106f 4d3d 4471 953f
00000260: bd72 d73d fe7b 853f d772 5b3f 6fa9 813f
00000270: 385c 65be cd74 c73e 7ba6 f8be 7c6e 883e
00000280: ca60 5a3f bb8b 29be 3ae2 0a3e 9049 853f
00000290: 3609 6a3f a62f 813f 0585 0b3f 7158 02bf
000002a0: f1c4 363f 2915 573f a85a 383f 32b5 df3e
000002b0: d913 6e3f f3b7 3e3f 19c0 373f e691 473f
000002c0: ccbb 0c3d d6cc 773f c16a 7f3f b581 393f
000002d0: e74b 1f3f d12d 533f c6be 963f e861 5a3f
000002e0: ff40 6e3f 9107 3a3f 8cfc 413f 4e54 a73f
000002f0: 54a9 e1be 5d34 1b3f bf73 163f 780a 9f3f
00000300: 4ccd 733f 3d39 ddbe 3fa5 c63e d485 ab3e
00000310: 2181 523f a325 853f ba1e 7f3f 7ffd 263f
00000320: 7660 de3e fd1f 9bbc 8ec0 453f 9ec0 2d3d
00000330: f010 723f a334 94bc 6d36 933f 4aa7 e33e
00000340: eef6 833f 21f9 863f 2d03 293f 8749 953f
00000350: af62 58be 43a2 423f 4b0a 643f 7531 343f
00000360: 163f 2b3f 1613 913e 6a5f 963f 5a47 a53f
00000370: 228c a43e 905e 703f 0d8f 8c3f a65a 0b3f
00000380: f74d 833f d4ad fe3e 90a5 8f3f 29bc ae3e
00000390: fe4d a03f ad41 5c3f 382c d13e da43 a23f
000003a0: 7909 813f f957 473f c16f 183f 65e7 603f
000003b0: d60f 2b3f 9ec6 5c3f 327f cdbe d633 8d3f
000003c0: 54cc 343f 23d4 ef3e 6d22 8b3f 644c fa3e
000003d0: feb5 303f ba42 f3bd 4724 183f 4830 3e3f
000003e0: 7197 7b3f f64f 5c3f adbe 513f 96e6 173f
000003f0: f207 563e d618 023f 35bb da3d cdfe 7e3f
1.2069643 0.24816754 0.7464149 1.100432 0.44996384 0.93714285 0.72443265 1.2128735
0.83949095 0.007921952 -0.37447456 1.0033596 0.5755677 0.9807537 0.8558098 0.6121489
0.8607964 -0.25841364 0.3635365 0.5930597 0.8105065 0.8280029 0.8240479 0.5430874
1.2436129 0.17467892 -0.25776923 0.9061766 0.74730355 0.4811742 1.30786 -0.559054
0.49418348 1.3817421 0.41207504 1.1778611 0.36698142 0.36105046 0.98961484 1.1621785
-0.1794064 0.31134441 0.5734573 1.0519117 1.1476177 0.06693492 0.22002114 1.0607955
0.77688336 0.8622417 0.7401452 0.49822205 -0.6711466 1.0407715 0.6397741 0.13695192
0.59964687 1.0955625 0.8710931 1.0337039 1.2348322 1.2343477 -0.17178652 0.46384272
0.68508846 0.9358055 0.723693 1.2140448 0.8430328 0.7553437 0.44967943 1.352345
0.6177942 1.3195467 0.33146992 0.041966926 -0.073023275 0.7407635 0.85658234 1.0311193
0.86808246 0.7882296 0.7570088 1.3308393 1.1919537 0.311734 0.71549225 0.41437823
1.0240023 0.32452106 0.3796219 1.2402568 -0.03714117 0.9782821 0.31599608 0.8321291
0.7424838 1.3177693 0.45413634 0.6759611 0.8753777 0.7913484 1.4420732 0.4838377
0.45887086 0.27520347 0.90445614 0.39728636 0.67901003 0.7882048 -0.78148824 0.88240397
0.71233284 0.5345927 0.5512129 0.71481377 0.9127051 0.9151434 0.6414831 0.9938677
1.0910659 1.3139497 1.1064925 0.9029629 0.74411243 0.26609692 0.18169132 1.1732696
1.0449011 0.72443026 1.0451872 0.35540828 0.7298317 1.2906637 1.0992202 0.5914438
1.2423439 1.0965961 1.027592 0.43110716 0.122754976 1.062047 1.2295603 0.8357181
0.3789409 0.6879357 0.9857348 1.2005461 0.61905557 1.2261369 0.050154746 1.1675191
0.105199315 1.0428464 0.85722107 1.0129832 -0.2239846 0.389563 -0.48564515 0.26646793
0.8530394 -0.16557209 0.13562861 1.0413074 0.91420305 1.0092666 0.54499847 -0.509162
0.7139426 0.8401666 0.7201333 0.4369293 0.92999035 0.74499434 0.7177749 0.77957
0.034358785 0.9679693 0.9977227 0.7246354 0.6222519 0.82491785 1.177697 0.85305643
0.93067926 0.72667795 0.7577598 1.3072603 -0.440745 0.60626775 0.58770365 1.242507
0.95235133 -0.43207732 0.38797948 0.3350054 0.82228285 1.0402111 0.9965626 0.65230554
0.4343297 -0.018936152 0.7724694 0.042420022 0.94557095 -0.018091505 1.1500984 0.4446357
1.0309732 1.0544778 0.6602047 1.1663064 -0.21131395 0.7602884 0.89078206 0.70387965
0.66893137 0.28334874 1.1747868 1.29124 0.32138163 0.9389429 1.0981156 0.54435194
1.0258168 0.49741995 1.1222401 0.3412793 1.2523801 0.86037713 0.4085405 1.2676957
1.0081016 0.7786861 0.5954552 0.8785308 0.6682104 0.86240566 -0.40136105 1.1031444
0.7062428 0.46841535 1.0869881 0.48886406 0.690277 -0.118779615 0.59430355 0.7429242
0.98277956 0.8605951 0.81931573 0.5933622 0.20901468 0.50819147 0.10680238 0.99607545

critic.2.weight f4 [256, 256]
00000000: 8adc d8bd d05e c9bd ac65 2abe b40d a83e
00000010: 8365 fabe 7bf7 e43d 115c bfbe b978 2c3e
00000020: 52b4 5a3e 04d4 16be 9ae7 df3d bf97 4d3c
00000030: 547c dfbe 0038 a93d cb24 d3be d50f 06bd
00000040: 2749 cfbe 6dcf 13be 18be c5be d889 8cbd
00000050: 5b95 263e 5903 2dbe 5478 4cbc a707 91be
00000060: cfa4 4eba 5428 52be 4b56 18bd b2f4 b2bc
00000070: c6fa 04bf 3b35 3dbd 26ba 1fbd e894 203e
00000080: 9e3d 66be 18a9 bc3d a321 08bf f467 d7bd
00000090: 1a0b b5be 60cf 08bf 32b0 f3be d606 1fbd
000000a0: ff66 95bd 1583 a1be 9590 7f3d 4d71 533d
000000b0: 7106 d03d 622c d6be 9e3f 8c3a da47 773e
000000c0: 12b6 aebe 7ff5 1bbd c165 21bf 6157 8bbe
000000d0: f460 4f3e a50a 57be c316 273e 49fd 92be
000000e0: bc27 febe b072 dbbd bed4 2c3e 74cc 903c
000000f0: 3797 90bc d911 8f3c 3459 3a3e cf4e 2ebe
00000100: c6aa 19bd 56fc 3abe 10a7 37be 3638 0d3e
00000110: 0fdd 2abf 9c21 95be 658a 54be 0a8d 3d3d
00000120: 9232 39be f83f e33c 096d 1bbf b389 cfbe
00000130: cc61 03be ff6d 85be d53a cfbe a6c0 afbc
00000140: ed38 4dbe 3865 82bd d569 213e d5a1 46be
00000150: cf3b 8dbe f849 a13e 2c7f 95bd b7b0 ddbe
00000160: ad26 82be adba febe b649 1dbf dbd5 31bd
00000170: fe0c aabe 4dea b93d ff81 1abe 7b06 c23d
00000180: fa35 e73d 3f64 ac3d fba5 343d fa76 9ebe
00000190: 4ddd bfbe c7e1 b8bd 9474 b6bd 7808 0a3e
000001a0: d2d3 a5be 780e 1a3e 80ff f0bd 8b10 6fbe
000001b0: d2d8 da3b 799d 153f 958e 82be e1d5 9f3e
000001c0: a050 81be 49bc 00be a756 0abf 6613 99be
000001d0: aca5 bc3d 6053 6bbd 4f9d fcbe baaa eb3d
000001e0: 595d 6f3c fe2d acbd f840 4abd 47ee 5fbd
000001f0: 9a48 a3be bd83 9cbe c959 b5be 3d57 6cbe
00000200: d01f ebbd b049 90bd 380b acbe 60d8 02bf
00000210: 6322 a8be d4c0 75be 9a2a d3be b77a 8dbe
00000220: d569 823e 4733 06be cb56 d53e 901f 0ebf
00000230: e7b3 acbd c5f8 1bbe a164 54bd 7db1 73be
00000240: 11b8 78be 49c7 e3be ab82 5d3d a704 d6bd
00000250: eab6 dcbe eebe 93be 43e9 e8bd 2261 813e
00000260: f9c3 8bbe c2e4 f73d 1dfa d5bc e9ff bbbd
00000270: 0b25 cebc 7ad9 90be 9e2f 27be 790e 6cbe
00000280: 65d0 7dbd b91a 49bd ff72 7abe 8f75 8d3d
00000290: 8ce1 18be 830c f2bd c44e a4be 7469 0fbf
000002a0: ffd2 e6bd a3cf d1be 1b93 463e 38ed 853c
000002b0: d84a 8cbb c360 34be 49ff 05bf 9b09 75bd
000002c0: c72f 0abe db32 cabe 87d5 50be fb36 27be
000002d0: 55e0 babe 86bc 3c3e c772 963e 412f 3f3c
000002e0: 0fcc 233e 6415 eb3d 4cf3 96be 7c06 f3bd
000002f0: e6f7 70be 412d c4be d6b0 85be 328b 93be
00000300: f566 fbbe 2a67 03be a185 c7be 6662 03bf
00000310: 8302 75be 751b 623e 817d 29bd db86 6ebe
00000320: 6704 a1be 31b5 4bbd 32d0 44be a8d1 a43c
00000330: 1049 12be 5115 50be b7ab 9b3e da59 1cbf
00000340: 05a4 bcbe 5aa0 af3d 03d0 623e 9688 0bbf
00000350: fb34 a13d 151e 9dbe 0da0 d5be 8f51 fb3b
00000360: f1bf 48bd 1a73 cfbe 886f 4d3d 3537 d83d
00000370: 08c0 42bd b00e c43d 56e8 133c 3e55 7ebe
00000380: cdb4 63be 96c9 abbe b632 6b3d df2b a5be
00000390: 178e f9bd a1bc 51be 20ee 1cbe 1e55 ba3d
000003a0: 5c1d 09be 2b09 d3bd 2e63 c9be 1313 50be
000003b0: 1864 45be 7533 24be 5e61 83bc da58 3dbe
000003c0: 868b abbd 86b8 e8bc f4b0 6c3d da5b 9ebe
000003d0: 372f 2dbc 8207 193d d294 18be a071 6c3e
000003e0: b430 64be 60c3 c3be f49f 7c3d 66b4 07be
000003f0: b5d8 01bd 685c 48bf 4e98 bbbe ef4f d03c
-0.105889395 -0.09832537 -0.16640347 0.32822955 -0.48905572 0.11180016 -0.3737493 0.16842927
0.21357849 -0.14729315 0.10932846 0.012548386 -0.43649542 0.08262634 -0.41239008 -0.032729942
-0.40485498 -0.14434595 -0.38621593 -0.06862229 0.16267912 -0.16895808 -0.01247986 -0.2832615
-0.0007882835 -0.20523196 -0.03719167 -0.021845195 -0.5194515 -0.046193343 -0.038995884 0.15681803
-0.22484443 0.092119396 -0.53176326 -0.10517874 -0.35360032 -0.5344143 -0.47595364 -0.03882488
-0.072950356 -0.3154532 0.062393744 0.051621724 0.101574786 -0.41830736 0.0010700112 0.24148503
-0.34123284 -0.03807592 -0.6304589 -0.27215102 0.20251828 -0.21000154 0.16317277 -0.28708866
-0.4963969 -0.10715234 0.1687803 0.017675616 -0.01765023 0.017464565 0.18198091 -0.1702225
-0.037516378 -0.18260321 -0.17934823 0.13790974 -0.6674356 -0.29127204 -0.20755918 0.046277083
-0.18085697 0.027740464 -0.6071325 -0.40534744 -0.12830275 -0.26060483 -0.40474573 -0.021454167
-0.20041247 -0.06366962 0.15763028 -0.19397672 -0.27584693 0.31501746 -0.07299647 -0.43298885
-0.25420132 -0.49751797 -0.614406 -0.04341684 -0.33213037 0.090778925 -0.15088652 0.09473892
0.11289592 0.08417558 0.044103604 -0.30950147 -0.37473527 -0.090274386 -0.08908954 0.13479793
-0.3238817 0.15044582 -0.11767483 -0.23346154 0.006678679 0.5844341 -0.25499406 0.31217864
-0.25256824 -0.12571825 -0.5403847 -0.29897612 0.09211287 -0.05745256 -0.49338767 0.11507173
0.014609658 -0.0840721 -0.049378365 -0.0546706 -0.31891328 -0.30569258 -0.35420063 -0.23080154
-0.11480677 -0.07045305 -0.3360231 -0.5111141 -0.32838735 -0.2399934 -0.4124344 -0.27632686
0.25471368 -0.13105498 0.4166778 -0.5551691 -0.08432751 -0.15231617 -0.05185378 -0.23798175
-0.24288966 -0.4448798 0.054079693 -0.10450106 -0.43108302 -0.28856605 -0.11372616 0.2526942
-0.27297953 0.12104179 -0.02612024 -0.0917967 -0.025164148 -0.2829092 -0.16326758 -0.23052396
-0.06196632 -0.04909775 -0.2445793 0.06907188 -0.1492979 -0.11818793 -0.32091343 -0.56020284
-0.11270713 -0.40978727 0.19392054 0.016348466 -0.004281383 -0.17615037 -0.5234266 -0.059823614
-0.13494788 -0.39491925 -0.20393954 -0.16329567 -0.36499277 0.18431291 0.29384443 0.011668981
0.15995811 0.11478689 -0.29482496 -0.11866471 -0.23532066 -0.38315776 -0.26111478 -0.28817135
-0.49101987 -0.12832323 -0.38969138 -0.5132202 -0.2392674 0.22080787 -0.041379455 -0.23293631
-0.3144867 -0.049733344 -0.19220045 0.020119503 -0.14285684 -0.20320632 0.30404446 -0.610746
-0.36843887 0.085755065 0.22149663 -0.5450529 0.07871433 -0.30687013 -0.41723672 0.0076696347
-0.049011175 -0.40517503 0.050155193 0.10557405 -0.047546417 0.09573114 0.009027561 -0.24837205
-0.22236939 -0.33552235 0.05742141 -0.32260033 -0.121853046 -0.20482112 -0.15325212 0.09098266
-0.13390106 -0.10304483 -0.3933348 -0.20319776 -0.19276464 -0.16035254 -0.01603764 -0.18490925
-0.08376221 -0.0284083 0.057785943 -0.30929452 -0.010570339 0.037360676 -0.1490052 0.2309022
-0.22284204 -0.38234997 0.06167598 -0.1325241 -0.03170081 -0.78266 -0.36639637 0.02542874

critic.2.bias f4 [256]
00000000: 165e 833d 9dda 853f 3429 e53d 8a59 e1bd
00000010: 0d66 3b3f 4412 233f f32f 443d 894d 4b3e
00000020: a121 81ba 627e 5d3e 0d21 e3bc a2c7 8d3f
00000030: 6bc7 013e 4175 973f 0c76 953e 3bd8 943f
00000040: adb7 1ebd 2cbe 993d 657d 07bd 4520 1b3f
00000050: c17f e23e 3c57 323e ed81 83bd a3ff b93e
00000060: e44d 8d3f adfc 413f 76c1 043e 10bd cd3e
00000070: 37e1 933f 3f76 103f 4e01 afbc ef06 103e
00000080: 7658 2e3f aaf4 5d3f 6342 403e 69bb 4b3c
00000090: a7b4 053d 24f8 913f 5a23 e73d 71b8 093e
000000a0: 82bf ae3d 102b 143f dd94 963f b564 bbbd
000000b0: 8536 b53c 13be 843f 6c4b 803e 8796 973f
000000c0: eaf6 eabc 74c5 823d d11f 843e 4f5a 3bba
000000d0: 0e30 973f 70b1 8d3f b1dd 153e 039b 2e3f
000000e0: 87a5 8c3e df0c 073d 60de 9f3f c932 453e
000000f0: df78 e0bc 624c 4b3f 6826 9d3f ed47 9e3d
00000100: edb2 693f 692c 4c3f 5c5b d63d e1fa 2a3f
00000110: 6159 943f 4ca2 2f3f aa18 9a3c 8936 a03f
00000120: dcee 513e 69f7 3e3f 2b10 123f 8bce 3c3d
00000130: 1c17 5b3f c0ae 283f 87d0 823f dbd4 743f
00000140: 1173 993f 6adb 45be 57d9 493f 4479 4c3f
00000150: ff42 963f 1d1b 57be 5577 fa3d 3237 963f
00000160: 36ed 793f d5e4 903f 6bb6 d93e 1917 913f
00000170: 9348 26bd e6fd 4ebb ce71 4f3f b5ba 923c
00000180: bd0c d83e 75f5 8f3f b56e 9a3f 373c 94bc
00000190: f235 ba3e 45ab 423f e424 6c3e 0681 943f
000001a0: 260d 903f debf f63d ed1b 5bbc 6054 5e3f
000001b0: 735e 9c3f d34a 113f 37bd 923b 91bb c33d
000001c0: dd6c 87bc f28a 8c3f 1cdb 82bc 182a 983d
000001d0: 2db1 df3e 44f5 53bd 921e 933f 6091 1e3d
000001e0: d39b 42bd 83c4 3a3f ce8d 2f3f e012 5dbc
000001f0: 874b 1f3d 03c5 853e 0a12 213f 5b45 913f
00000200: 96ae 8dbd 6688 9d3f 61d0 673f 9c99 4d3d
00000210: 80fe 293f 7d34 c0bd 2bd8 9b3f 954b 763e
00000220: 4276 993e d192 fabd bbef 1a3e f065 ccbd
00000230: a1c5 8b3f bda2 5b3f 6f5a 2c3e 4b1c 733f
00000240: 011c ea3e d033 9b3f 5ee7 2f3f c6fa 913e
00000250: 3922 67bc 8a8d d83d 1ffb 8f3f 7e1e 963f
00000260: 64bb 1c3f cffe 333f 0918 833e e2b2 733f
00000270: 9fc2 d23d 8785 02bd 7ee9 233f 57b0 923e
00000280: adf7 8c3f 5a12 67bd cb03 993f 43a4 653f
00000290: 518d 873f 8da0 853c c11f a83e ae40 913d
000002a0: 1108 9d3e 73ea 913f 0b6a a63e de23 38bd
000002b0: b3ac 833e 3f29 8a3d e32b 443f f2e8 6a3f
000002c0: 5dda 153d 894a 21bc 2dfb 8a3f 851e 913f
000002d0: 3a83 973f 99fc b33c 5d49 283f 1aff 95bd
000002e0: d769 333f 6a27 b13e 43c1 a73e 3db2 213e
000002f0: b708 ee3e 57a1 983f 5aa4 6d3f e911 acba
00000300: 0ec0 283e f42b 4d3f 0a05 09bd e21d 283f
00000310: f170 003c 5cf9 c13e b19b 3bbe c7f8 5fbd
00000320: 09de c43b 3ab3 193f dee5 8c3f 56fa d3bd
00000330: cb3f 2f3f c077 a13e cea9 883e 6e83 583f
00000340: 10fb 9b3f 0a6c 4f3f 21e0 10bd c043 8f3f
00000350: 5daf 113f 82d0 9dbc 085a 983f 7889 703f
00000360: 7531 203f 4346 23bd e568 693c 3efd 553c
00000370: c74e 993f eb23 8e3f 1dbd 9c3f 6291 ce3e
00000380: c79a b7b9 26c8 9b3f ed38 163d 77aa 573f
00000390: 1c02 543f d360 7e3f a827 6a3f 4b8b 983f
000003a0: b758 6f3f 05de 963f e0e7 67bd 0b48 723d
000003b0: e586 9c3f d801 113f 7309 973f a337 023e
000003c0: 67df 1a3f 824e 0b3e 7067 8e3f 7425 5e3e
000003d0: e8db 2f3e 5987 923f 1765 873f c7ad 393c
000003e0: aa4e cf3c 8695 e2bc 41f2 9e3f fc9e 50bd
000003f0: 84f5 8d3f 599b 2e3f 6bf5 8c3f 27b3 353c
0.0641443 1.045734 0.111894995 -0.11003406 0.7320259 0.63699746 0.04789729 0.19853796
-0.0009851941 0.21630242 -0.02772572 1.1076548 0.12673728 1.1832658 0.29191625 1.1628488
-0.038749386 0.075069755 -0.03307857 0.60596114 0.44238093 0.1741609 -0.06421266 0.36327848
1.1039395 0.7577618 0.12964424 0.40183306 1.1553105 0.5643043 -0.021362927 0.14065145
0.6810373 0.8670145 0.18775325 0.012434819 0.032642987 1.1403852 0.1128604 0.13449265
0.08532621 0.5787821 1.176418 -0.09150068 0.022120724 1.0370506 0.25057542 1.1842812
-0.02868219 0.063853174 0.25805524 -0.0007146941 1.181154 1.1069775 0.1463535 0.6820528
0.27470037 0.03297126 1.2489738 0.19257654 -0.027401386 0.79413426 1.2277346 0.077285625
0.91288644 0.79755265 0.10466644 0.6678906 1.1589776 0.6860702 0.018810589 1.2516643
0.20501274 0.7459627 0.5705592 0.046095412 0.8558214 0.6589165 1.0219887 0.9563729
1.198824 -0.19321981 0.7884726 0.79872537 1.1739196 -0.21006437 0.12229792 1.1735594
0.9762758 1.1319834 0.42521986 1.1335174 -0.040596556 -0.003158444 0.8103303 0.017911294
0.4219722 1.1246783 1.2065035 -0.018095119 0.36369282 0.76042587 0.23060948 1.1601875
1.1254013 0.120483145 -0.013373357 0.86847496 1.2216324 0.567548 0.0044781226 0.0955726
-0.016531402 1.0979903 -0.01597362 0.07429904 0.43689862 -0.051747575 1.1493704 0.03871286
-0.047511887 0.72956103 0.6857575 -0.01349327 0.038890388 0.2612687 0.6291815 1.1349291
-0.06918065 1.230725 0.90552336 0.05019532 0.6640396 -0.09385011 1.2175344 0.2405227
0.29973036 -0.12235034 0.15130512 -0.099803805 1.0919687 0.85795194 0.16831373 0.94965047
0.4572449 1.2125187 0.68712413 0.28511637 -0.01410728 0.105738714 1.1248511 1.1728055
0.61223435 0.7031068 0.25604275 0.9519483 0.10291027 -0.031865623 0.64028156 0.28650162
1.1013085 -0.056413986 1.1954283 0.8970377 1.0590001 0.016311908 0.32836726 0.07092415
0.30670217 1.1399673 0.3250278 -0.04495608 0.25717697 0.06746148 0.76629466 0.91761696
0.0365852 -0.009844431 1.0857903 1.1337439 1.1836922 0.021971034 0.65736943 -0.073240474
0.70083374 0.34600383 0.32764634 0.15790649 0.46491024 1.1924237 0.92828906 -0.0013127896
0.16479513 0.8014519 -0.03345207 0.656706 0.007839427 0.3788556 -0.1832111 -0.054680612
0.006007914 0.60039103 1.100765 -0.10350482 0.68456715 0.31536674 0.2669205 0.84575546
1.2185993 0.8102423 -0.035369996 1.1192551 0.5690821 -0.019264463 1.1902475 0.9395976
0.62575465 -0.03986193 0.0142462 0.013060866 1.1977166 1.1104711 1.2245213 0.40345293
-0.00035019798 1.2170455 0.036675382 0.84244484 0.8281572 0.9936649 0.9146676 1.1917509
0.93494743 1.1786505 -0.056617618 0.059150737 1.2228667 0.5664344 1.1799759 0.12716536
0.60497135 0.13604167 1.1125317 0.21693975 0.17173731 1.1447555 1.0577725 0.011332936
0.025306065 -0.027659189 1.241768 -0.05093287 1.109055 0.6820579 1.1012396 0.0110900765

critic.4.weight f4 [1, 256]
00000000: 8be7 9e3d 405e e1bc e96c 9d3e 20f8 a8bb
00000010: 0cd4 093e a31b 2c3e 2cfd 2b3e c369 873e
00000020: 1b6b ee3c 95ca 2b3f b672 213e 6a4a 1fbd
00000030: 6ce8 a63d 06a9 aebd 00e1 ae3e fe1d 78bd
00000040: ad85 053c 4065 d83d a249 fc3d 80be 143e
00000050: ce5a 2d3f 8a15 693e 95a0 a33c 754e 063f
00000060: 327b 45bd 5058 0838 390b 8a3e 1b65 263f
00000070: 23c0 14bd f8e0 5c3e 84ea d53d 81e0 353e
00000080: cbd9 123e aaf7 7fbc a070 ac3e d1f9 a03d
00000090: 6475 0f3e 93b7 42bd 1e28 143e d2b3 8d3e
000000a0: e296 953e 2fa3 883e afa9 27bd ec68 d33b
000000b0: ab9f 813d 28d5 ddbc 2157 823f 4642 17bd
000000c0: 071e 483d 7abe 9a3d a8c1 6c3f e7e7 8d3d
000000d0: 8c34 23bd 75b4 14bd dc5a 563e e2b4 7b3e
000000e0: 574d a63e e865 683d dfb9 dfbd 3034 473e
000000f0: 4b8a 993c 5819 b4bc 990e 48bd d920 4f3e
00000100: 8f94 d0bc 1a7a 97bc dbd8 b83e b489 02bd
00000110: 9f7a 57bd 688b 803e bf73 d23c 4407 00be
00000120: f117 ea3e f70d 2dbe 5a7f bb3e faa5 c13e
00000130: 2565 2abd e934 4e3e d0e1 bebc 1a68 d5bc
00000140: b76a 43bd c8f9 813e 7d5d abbc 61eb b03f
00000150: ee0b 1cbd 62a2 983e 3be9 a03e 6b59 2cbd
00000160: 7423 c3bc c2d0 40bd 17f1 8bbe 8880 3dbd
00000170: e9dc 3a3d df8c 643d e6fc c8bc 0ad5 993e
00000180: 60a6 613f 5968 40bd c072 2bbd 41ed d13c
00000190: e393 503f b408 4abc 1818 2f3f c7d4 28bd
000001a0: 4b8b 3cbd e830 453e 9a2a 9b3b 8802 cdbc
000001b0: bd9f 80bd f77a 9c3e 5540 183f 8ef9 313e
000001c0: e8e5 eabb 609f f2bc 9e49 273f f2df 8abe
000001d0: fe74 063f 5e2d d2b9 7c1e 60bd 3e0b 5a3e
000001e0: 41b8 0c3d 7937 8cbd c086 51bd 52e0 093e
000001f0: 06fe 303e fbd6 fc3e 52d2 59bd 6141 44bd
00000200: 33fe 913c f749 60bd ccb9 c2bc b738 323f
00000210: a73f 413e 3085 823d ec3d 91bd d0d4 323e
00000220: d73b db3e 70fb 693e 36b3 c53d 5a9b 133d
00000230: 30b0 01bd 70a8 92bc 7767 383e f377 debc
00000240: 6863 863e 10fa 81bd 54c2 9b3e a600 b23e
00000250: 3ef8 44bc 5724 d73e f409 0fbd e683 81bd
00000260: 5ba8 a83e 48fa ac3e ecd8 ad3e 65d5 dfbc
00000270: 20ae a83e 398c 0a3e 7edc c73e 38d9 aa3e
00000280: 76e2 2fbd db45 083e f31b bbbd b077 a7bc
00000290: ea89 e3bc dab2 9b3c ddbf 153f b3c8 f63d
000002a0: 728e c93e 91d0 21bd f236 0c3f 378d fb3b
000002b0: 2896 193f 806c 693e 1c7f 023e ec75 dfbc
000002c0: 7a6c 7a3e 1272 c53b d1b3 14bd 7762 12bd
000002d0: f96e 1abd 77fd 4d3b d3af 893e 96ff 0bbc
000002e0: 357d 9f3e 5dec ee3e e660 d93e 318f a53e
000002f0: bdc3 443f 6df3 78bd 3653 debc 05a4 b73e
00000300: 4ec3 d13e fd0e 20bd 874e 483d f170 e53d
00000310: 907d b53d b37f c73e 6695 d53b 233a 993d
00000320: 1496 ae3c 072f 09be efb7 1cbd 15be 85ba
00000330: 80b4 7abd 90b6 cf3e 6605 eb3e 2ca1 abbc
00000340: d948 51bd 4303 fabc ec53 9a3c 8dbf 2abd
00000350: 9020 103e 0fbc ca3c c240 8ebd 4630 c8bc
00000360: 0e1d 313f 7d4e de3c b7a6 123e 2d8c c43d
00000370: a8a0 85bd 1b74 1ebd 11ce 8abd 7e69 273f
00000380: c087 b53d fa46 5cbd 7bce b43e ab51 b9bc
00000390: 7df7 dcbc a6b9 f6bc c5e4 b5bc 0d91 48bd
000003a0: f296 c7bc a21c 68bd 19a1 e03d dd45 373e
000003b0: 1063 ebbd 5ca0 0f3f d20d 95bd 6fef 1b3f
000003c0: 96ac d43e 04ce 623e 9c04 11bd 2c72 163f
000003d0: a378 8e3e 7b5a 32bd bd51 b2be e6c5 153c
000003e0: 1825 443e 6332 f73c 88a3 6abd 6029 feb9
000003f0: b0f4 43bd 0542 663e 7bc9 1ebd 14a7 3e3d
0.07759007 -0.027510762 0.30747154 -0.005156532 0.13459796 0.16807418 0.16795796 0.26447877
0.029103806 0.6710599 0.15766415 -0.038889326 0.081498 -0.085283324 0.34156036 -0.060575478
0.008149547 0.10566187 0.12318732 0.14525795 0.6771668 0.22762123 0.019974032 0.52463466
-0.04821319 3.2507174e-05 0.26961687 0.64998025 -0.03631605 0.21570194 0.10445121 0.17761423
0.14340894 -0.015623013 0.33679676 0.07860149 0.14009625 -0.04753835 0.14468428 0.27676255
0.29216677 0.26687 -0.040933307 0.0064517166 0.063292824 -0.02707918 1.018284 -0.036928438
0.04885676 0.07555862 0.92482996 0.069289975 -0.039845034 -0.03630491 0.20933098 0.2458072
0.3248088 0.05673781 -0.10924124 0.19453502 0.018742701 -0.021984741 -0.048842046 0.20227374
-0.025461463 -0.01849084 0.36102948 -0.031869605 -0.052607175 0.2510636 0.025689958 -0.12502772
0.4572139 -0.16899858 0.366206 0.37821943 -0.041600365 0.20137371 -0.023301035 -0.026050616
-0.047709193 0.2538588 -0.020918602 1.3821832 -0.038097315 0.29811388 0.3142794 -0.042077463
-0.023820616 -0.047074087 -0.27332374 -0.046265155 0.045620833 0.055798408 -0.024534654 0.30045348
0.88144493 -0.046974514 -0.04185748 0.025625827 0.8147566 -0.012331177 0.6839614 -0.041218545
-0.046031278 0.19256938 0.004735303 -0.025025621 -0.06280468 0.30562565 0.5947316 0.17380354
-0.0071685202 -0.029617012 0.65346706 -0.27123982 0.52522266 -0.00040088122 -0.054716572 0.21293351
0.034355406 -0.06846518 -0.0511539 0.13464478 0.17284402 0.49382767 -0.053179093 -0.047913913
0.017821407 -0.05475804 -0.023770235 0.6961779 0.18871938 0.0637306 -0.07091889 0.17463994
0.42819092 0.22849822 0.096533224 0.036036827 -0.031662166 -0.017902583 0.18008219 -0.027156806
0.26247716 -0.06346524 0.30421698 0.3476612 -0.012022076 0.42019913 -0.0349216 -0.06323986
0.32940945 0.337847 0.3395456 -0.027323434 0.32945347 0.13530053 0.3903541 0.3336885
-0.04294058 0.13307898 -0.0913619 -0.020442814 -0.027775723 0.019006182 0.58495885 0.12049999
0.3936649 -0.039505545 0.5477134 0.007676746 0.59994745 0.22795296 0.12743801 -0.02727791
0.24455443 0.006025561 -0.0363043 -0.035738435 -0.037703488 0.0031431594 0.26891956 -0.008544823
0.31150213 0.46664706 0.4245674 0.3233581 0.7686117 -0.060779024 -0.027139287 0.35867324
0.40969318 -0.039076794 0.048903015 0.112031825 0.0886184 0.38964614 0.006518054 0.07481792
0.021311797 -0.13396846 -0.03826135 -0.0010203744 -0.061207294 0.40568972 0.45902556 -0.020950876
-0.051094864 -0.030519133 0.018838845 -0.041686583 0.14074922 0.024747876 -0.06945945 -0.024437081
0.6918496 0.027137036 0.14321409 0.09597049 -0.065247834 -0.038684946 -0.06777585 0.65395343
0.08863783 -0.053778626 0.35313782 -0.02262195 -0.02697348 -0.030117821 -0.022203812 -0.048966456
-0.024363969 -0.05666793 0.10968227 0.17897744 -0.11493504 0.56104064 -0.07278027 0.6091222
0.41537923 0.22148901 -0.035404786 0.5876796 0.27826414 -0.04354332 -0.34827986 0.009141421
0.19154775 0.030175393 -0.05728486 -0.00048477482 -0.047840774 0.22486122 -0.038766365 0.046546057
