Hien/critic/critic.pth (torch, 369551 bytes, 5 tensors)

critic.0.weight f4 [256, 100]
00000000: ff31 24bc 7f40 d1bd 008d 4fbc c86f 893c
00000010: d365 94bc 3b10 e13b 72cd 92bd 9c32 b6bc
00000020: 680b 81bc 4f38 27bd 04f8 a83c e2ab c0bd
00000030: c75b 9bbd 0e6b 13bd 4cba a43d 3ef8 c83d
00000040: c0bb 883e 3e00 16bd d3e4 6ebe 4f6c 863d
00000050: 29dc 7d3d 0e9c 723d 526e 283e 48eb e6bc
00000060: 1941 443e c69b 023e afd4 e83d 9c9d 9b3d
00000070: c1d4 5abe bbcb cdbd d989 e5bd 1b50 0c3e
00000080: 207b 083e 7417 843d 7cc2 4abe 52aa 9ebc
00000090: a1a3 ac3d c8cc 053e 05bc a6bd 59f0 083d
000000a0: ed99 4fbd 5de6 823e 5ebd ad3d 1c8f 303c
000000b0: c7d4 26be 0a9e 913d e2a1 7d3d 80d1 843d
000000c0: 9092 35bc 01ee 14be b438 703d b4c0 d23d
000000d0: 9708 b03c 5be7 aa3c 6a26 c03d 33db bfbd
000000e0: 98ad 0ebe c688 873e c9b4 823e 6703 01bd
000000f0: 7283 cdbd 25a4 ce3c 63aa 223d cbbc f23c
00000100: d37a da3c ae5a bcbd dee3 353e a8c4 6ebd
00000110: 5382 c4bd 02ba b83d 82a0 223d b9a1 5ebe
00000120: c089 7a3d 16ae 51bd 3d9f a43d 9589 e43d
00000130: d728 e4bb 5199 e83c c13a ee3d 17f4 e33d
00000140: 510e 363d 6858 77bd f9df 7d3d d959 6dbd
00000150: 5174 a53d f031 56be b2e5 1dbd 0604 713e
00000160: be4f 45be b828 0dbe 67df e13d 9a07 ee3b
00000170: d345 a6bd 9c55 2e3b c4db 98bd 71b4 293e
00000180: 8dee 823d 0ff1 f5bd 5e9a 06bd dc36 c1bd
00000190: 514a c1bc 3a6f 093c 0a78 a83c 368f fd3c
000001a0: aa24 d53b 4172 81bd d4bc 093d 2b41 223e
000001b0: fdef 063e 9da8 a2be f068 59be 1ea0 d63d
000001c0: d4c6 f5bc d1d2 1fbe 2d2d f8bd 8792 0dbe
000001d0: ddb2 dcbd f5fc 9c3d d221 c1bc 0ba4 783d
000001e0: 7cbf e53d 20e5 0f3e e3c8 353d b444 ef3d
000001f0: 2791 8a3d e6ee f23c f088 133e 1102 003e
00000200: 4134 b33d 523b 22be d392 55bd ebfe 3d3d
00000210: b4ac 183e 1f6e 09bc 5d09 d23c 6360 863d
00000220: 6fe5 f03d b6c8 e0bd b2f4 143e b5df 2f3d
00000230: 379c 43bd a21b 973d e461 67bd 5ef5 823d
00000240: 3e7f 9ebd aefa 73bd ed1d 353d 01e7 c0bd
00000250: 1307 bcbc 762d 2b3d c298 5e3d cff1 1b3e
00000260: 1ce7 6ebd 3c7d b03d 088d c8bd fdb2 29be
00000270: 2c88 b83d 7cec 953e e130 68bd 63ff 2bbe
00000280: 3a11 11bc 0792 e8bd e4b0 ed3d fb10 d53d
00000290: 236b 293c 75ce 873c c66e de3d 0602 653d
000002a0: c8d9 d93d 4a53 333e 60ca 08bd c346 273d
000002b0: bab6 e83d 1dca aabd c809 17bd 6dc1 4bbe
000002c0: 3854 dc3b 01ba 1ebd c21e 273e 29d8 883e
000002d0: 3ba7 0dbd c1db 8cbd 0835 e6bd 506d a03d
000002e0: 1d0c 92bd 02b4 c5bc 8d80 c2bd e4ef 77bd
000002f0: fd5b cfbd c40f bfbd 604b 0dbd 3ecf cb3d
00000300: 4f9f 073c bb52 1dbe 3e51 dd39 569b fa3c
00000310: ebd3 00be d3f5 06bd 22d4 953d 97b2 9c3d
00000320: fcae 91bd a314 37bd 42d9 b23a e16f 16be
00000330: a5bd 20bd e892 d9bd 3306 0b3e 73fd 883d
00000340: fc4c 2abe 4b73 cdbd 7d34 35bc 5f26 853e
00000350: 81e3 64bd 0d87 65bd 1937 08be 52c6 3ebb
00000360: 9574 02be a13b cb3d 4df4 933d 8d0b 3c3e
00000370: 3962 8dbd 26a8 443e 8e18 42bb 6896 153d
00000380: c7d0 61bd 4f64 423e f7bc 4d3d c13e 213e
00000390: 784d a8bd b846 65bd ad98 dd3d cdf2 233e
000003a0: c466 29bd c2da 29bb bcff 893d 2051 113b
000003b0: f7d0 ed3d 345a 14bd 89fe 193e 0ce1 08be
000003c0: ef20 5cbd 9e66 373c 899a 4a3d 11d2 f5bd
000003d0: bc37 883d bd98 e53d 311d 5a3d 7039 e6bd
000003e0: a453 8cbd a971 42be 3806 843d 53c5 9c3d
000003f0: 4cd7 fc3d f3aa f23d 766e 713d 9ede 44be
-0.010021686 -0.1021738 -0.012667894 0.016776934 -0.01811496 0.00686839 -0.07168092 -0.02224093
-0.01575251 -0.040825184 0.020626076 -0.09407784 -0.075858645 -0.035990767 0.08043346 0.098129734
0.26705742 -0.036621325 -0.23329477 0.06563627 0.06197754 0.059230857 0.16448334 -0.028188363
0.19165458 0.12754735 0.11368691 0.07598421 -0.21370222 -0.10048624 -0.11207933 0.13702433
0.13328218 0.06449786 -0.19800752 -0.019368324 0.08429647 0.13066399 -0.08141331 0.03343234
-0.050683904 0.25566378 0.084833845 0.010776307 -0.16292106 0.07110222 0.06192196 0.064852715
-0.0110823065 -0.14543916 0.058647826 0.102906615 0.021488471 0.020862272 0.09382327 -0.09367981
-0.13933408 0.26471537 0.25528553 -0.031497385 -0.10034837 0.025224755 0.039713275 0.02963104
0.026669895 -0.09196983 0.17762706 -0.058293015 -0.0959517 0.09019853 0.039703853 -0.2174138
0.061166525 -0.051191412 0.08038185 0.11159054 -0.0069628763 0.02839342 0.116323 0.11130541
0.044447247 -0.060387045 0.061981175 -0.057947014 0.08078826 -0.20917487 -0.038549133 0.23536691
-0.192687 -0.13785064 0.11028939 0.00726409 -0.08118787 0.002660132 -0.07463792 0.16572739
0.06393156 -0.12008869 -0.03286206 -0.09434292 -0.023595007 0.008388335 0.020565052 0.030952077
0.006504615 -0.0632062 0.033627346 0.15845172 0.13177486 -0.31769267 -0.21231437 0.10479759
-0.030002035 -0.15607764 -0.121179916 -0.13825427 -0.10776303 0.07665435 -0.023575697 0.06070332
0.11218163 0.14052248 0.044381034 0.11683026 0.06765967 0.029654931 0.14407706 0.12500788
0.08750201 -0.15842941 -0.052141976 0.046385687 0.14909631 -0.008388071 0.02563923 0.06561353
0.11762511 -0.109757826 0.14546469 0.042937953 -0.0477564 0.073783174 -0.05648984 0.06394456
-0.07739113 -0.05956524 0.044217993 -0.094190605 -0.022952592 0.0417914 0.0543449 0.15228961
-0.05832587 0.086176366 -0.097925246 -0.16572185 0.09010348 0.29281986 -0.05668724 -0.16796641
-0.008854205 -0.113559775 0.11606005 0.104036294 0.010340485 0.016577939 0.10860972 0.055910133
0.106372416 0.17512241 -0.033396125 0.040838968 0.11362977 -0.08339331 -0.036874563 -0.19898005
0.006723907 -0.038751606 0.16320327 0.26727417 -0.03458331 -0.06877852 -0.11240584 0.0783335
-0.07131217 -0.024133686 -0.09497175 -0.060531512 -0.10124967 -0.09329179 -0.03449571 0.09951638
0.008277728 -0.1536359 0.00042212935 0.030591648 -0.1258084 -0.03294928 0.07315852 0.07651251
-0.07113454 -0.044697415 0.001364507 -0.14691116 -0.03924336 -0.10623723 0.13576584 0.066889666
-0.1663093 -0.10031756 -0.011059877 0.26005837 -0.055881027 -0.056036998 -0.13302268 -0.0029109907
-0.12739785 0.09923483 0.07224331 0.18363781 -0.069035 0.19204769 -0.0029616687 0.03652039
-0.055130746 0.18983577 0.05022904 0.15746595 -0.08217901 -0.055975646 0.10820136 0.1601059
-0.04135777 -0.0025917743 0.067382306 0.0022173598 0.116121225 -0.036218837 0.15038504 -0.13367099
-0.053742345 0.011193899 0.049463782 -0.120029576 0.066512555 0.11210773 0.053250495 -0.11241424
-0.06851891 -0.1898867 0.06446499 0.07654824 0.12345752 0.11849012 0.058943234 -0.19225547

critic.0.bias f4 [256]
00000000: 3397 593f 2431 433f 8e07 3d3f 9e87 483f
00000010: a5be 473f 2124 143f 8c36 443f 0a6b 1f3f
00000020: fc6f 513f e9d0 303f 0d6a 5f3f 0b5a 563f
00000030: b27b 613f 972c 383f 81a6 643f d487 2e3f
00000040: af3e fd3e 7adb 283f 1c29 673f 218a 733f
00000050: 5a95 2c3f 34d1 233f b085 3f3f 858d 3d3f
00000060: f819 373f aae9 543f 2e88 483f 3262 723f
00000070: e116 0e3f 1187 683f d8d1 773f edfc 6a3f
00000080: fb31 3a3f 14d4 2f3f 7c75 4b3f b34d 663f
00000090: f5c5 763f 9c0c 673f ba11 2f3f 99bb 513f
000000a0: 0472 6e3f 5c5e ff3e fc37 1a3f e7a5 613f
000000b0: 65f6 783f 6804 403f f54a 633f 7294 143f
000000c0: 7ddf 693f 2a97 083f 6ab5 6e3f 2d7b 493f
000000d0: e74d 5d3f ca96 5e3f a26d 3c3f b7be 363f
000000e0: 554e 1d3e e8cf d43e 07f7 4e3f 4b24 ff3e
000000f0: 966d 5f3f e4e0 3b3f b7b5 5b3f 0070 fc3c
00000100: 0c47 3f3d 01fa 563f 7e4c 193f 9446 383f
00000110: d658 3f3f 2e11 ea3e 3fe6 553f 5a57 5b3f
00000120: 2196 093f c16a 5f3f 4c00 413f 35c2 1a3f
00000130: 7612 453f 0f86 493f bfbd 323f 12df 593f
00000140: 3255 513f 7c92 673f 35e1 483f 53eb 4a3f
00000150: b0f7 563f 801c 2c3f 75c6 713f 966b e63e
00000160: d642 af3e e855 173f 9afc 343f 1975 013f
00000170: 5053 3b3f 84e5 3c3f e611 603f 6b70 573f
00000180: b018 593f ae7e 533f a6b1 323f 36ce 5a3f
00000190: 4c15 723f 5373 363f 6f09 513f 721c 623f
000001a0: 69a5 193f 9f98 3f3f 6326 223f 95ed 253f
000001b0: e031 613f 1bec 593f 1cb2 283f 7abe 603f
000001c0: 64f1 4e3f 66e7 623f 3716 1f3f 127d 6d3f
000001d0: eeb1 213f 6e36 6c3f ae61 773f 2050 4a3f
000001e0: 7256 2c3f 6e70 403f 9916 793f e3d5 3e3f
000001f0: a91b ac3e dab4 353f a071 473f c8e0 093f
00000200: 4fff 053f 1240 013f e6d8 593f 396a 733f
00000210: d738 5b3f 87e0 1d3f dbce 423f 9bc4 463f
00000220: c0a0 353f 5d27 453f aab7 0f3f c4be a53e
00000230: 718b e13e 6ae9 fc3e 513c 153f dccd 6e3f
00000240: ea35 513f ee14 6c3f f968 533f 7417 413f
00000250: 53e7 583f 8295 1a3f c19c 6b3f 202a 8c3e
00000260: 3117 603f faac 033f cd47 223f 0f32 5d3f
00000270: 8a1f 493f 8914 253f 9bd3 743f 30e9 733f
00000280: 5472 813f e6e7 773f 2140 4f3f 203e 633f
00000290: f9ae 153f 7a96 753f b7f8 123f 31e4 1f3f
000002a0: cd9c 163f ed1c 443f 5300 7e3f 7e1d 423f
000002b0: 7142 4e3f 1b05 4d3f 6c96 093f bd06 573f
000002c0: 7d72 4b3f 6646 813f 7a7d 613f 7c4c 613f
000002d0: 04db fc3e 7cad 2c3f 61a7 783f 40ea 783f
000002e0: 6844 433f 558b 793f 5af5 523f d3a3 783f
000002f0: ca7b 613f f2e7 533f c43c 0f3f 1269 863f
00000300: fda0 5e3f 834b 6d3f 5658 243f 1375 2e3f
00000310: 3feb 4a3f ebbd 4e3f d9cd 823f 4e30 6d3f
00000320: f2e7 5d3f 5256 613f df94 2e3f 5b67 4c3f
00000330: 4132 c83e c98c 523f b66e 733f 14bb 223f
00000340: 6081 3f3f 25d8 5d3f c2f1 4e3f db99 593f
00000350: 641c 653f 65a9 653f 478a 253f 5342 573f
00000360: d8a1 273f 4755 433f c544 5c3f b695 553f
00000370: 00b4 173f daca 653f 5238 683f bc3d 3e3f
00000380: 4981 4c3f 924b fa3e efaf f73e c347 393f
00000390: d7ff 7e3f 4a6c 413f a4b8 363f 388d 423f
000003a0: 9517 363f 3cb5 403f d9c3 5e3f 3e9f 7a3f
000003b0: 360d 4e3f aa29 203f d4e7 7a3f c14f 823f
000003c0: f983 263f 3e47 333f 8e69 3b3f 6fbb 423f
000003d0: 3ebb 433f 670b 3b3f d6bb 613f db95 3c3f
000003e0: e168 823f a28d 563f a048 7c3e 3c3b 5dbe
000003f0: cb11 6f3f 1ddf 1f3f 91c7 6f3f 8968 1b3f
0.84996337 0.7624686 0.7383965 0.78331935 0.78025275 0.5786763 0.7664573 0.62272704
0.818115 0.6906877 0.87271196 0.83731145 0.8807937 0.7194304 0.89316565 0.6817601
0.49461886 0.65959895 0.902971 0.95132643 0.6741539 0.63991094 0.74813366 0.74044067
0.71524 0.83169043 0.78332794 0.94681084 0.5550366 0.90831095 0.9680457 0.91792184
0.72732514 0.6868298 0.7947614 0.8996231 0.9639581 0.90253615 0.68386424 0.81926876
0.93142724 0.49876678 0.60241675 0.8814377 0.9725097 0.75006723 0.8878625 0.5803901
0.9135664 0.5335566 0.93245566 0.78703576 0.86446995 0.86948836 0.73604786 0.7138476
0.15361913 0.4156487 0.80845684 0.49832377 0.8727659 0.7339003 0.8582415 0.030815125
0.046698615 0.83975226 0.5988234 0.71982694 0.7474493 0.45716232 0.8355445 0.8568016
0.53744704 0.8727227 0.7539108 0.60452586 0.76981294 0.7872018 0.6982078 0.85106003
0.8177062 0.9045789 0.7846864 0.79265326 0.8397169 0.6723099 0.94443446 0.45003957
0.3423068 0.5911546 0.7069794 0.505693 0.73174 0.73787713 0.8752731 0.8415591
0.84803295 0.8261517 0.6980232 0.854709 0.94563746 0.7126972 0.8165502 0.88324654
0.6001802 0.74842256 0.63339823 0.64815646 0.8796673 0.85125893 0.65896773 0.87790644
0.8083708 0.88634336 0.6214327 0.9276897 0.63162124 0.92270553 0.9663342 0.7902851
0.67319405 0.75171554 0.97300106 0.74545115 0.33614853 0.7097908 0.77907753 0.53858614
0.52342695 0.5048839 0.85096586 0.9508396 0.85633606 0.61670727 0.76096886 0.77643746
0.7094841 0.7701319 0.56139624 0.32372105 0.44051698 0.4939683 0.5829516 0.93282866
0.8172289 0.92219436 0.8258205 0.7542641 0.8472797 0.6038438 0.9203606 0.2737589
0.8753539 0.51435816 0.6339081 0.8640451 0.7856375 0.6448446 0.95635384 0.9527769
1.0113015 0.96838224 0.8095723 0.8876667 0.5847011 0.95932734 0.5741076 0.6245757
0.5883301 0.7660664 0.99219245 0.7582625 0.8057013 0.80085915 0.5374515 0.83994657
0.7947157 1.0099609 0.8808209 0.8800733 0.49385846 0.67452216 0.971304 0.9723244
0.76276255 0.9747823 0.82405627 0.97124976 0.8807951 0.82775795 0.55952096 1.0500815
0.869644 0.92693347 0.6419729 0.6814739 0.7926521 0.8075854 1.021907 0.9265183
0.86682045 0.8802234 0.6819591 0.7984521 0.3910084 0.8224607 0.95090806 0.6356671
0.74806786 0.86657935 0.80837643 0.8500039 0.89496446 0.897116 0.6466412 0.8408558
0.6548133 0.76302 0.86042434 0.83431566 0.59259033 0.8976265 0.9071094 0.7431295
0.79884773 0.4888578 0.48376414 0.72375125 0.9960913 0.7555586 0.7137549 0.7599673
0.71129733 0.7527654 0.8701759 0.97899234 0.8048891 0.62563574 0.9800999 1.0180589
0.65045124 0.7003058 0.7320794 0.7606725 0.76457584 0.73064274 0.8817724 0.7366616
1.0188257 0.83809865 0.24637079 -0.21604627 0.93386525 0.6244982 0.9366389 0.60706383

critic.2.weight f4 [256, 256]
00000000: bef9 9b3c a398 b23c 162a c23c 4f11 033e
00000010: 9366 9e3d ca9e d4bc 06bc e53d 76df fcbb
00000020: 95da 003e 5f97 073d 7f31 ecbc 302c fa3b
00000030: a3da 1d3e e52c 413d e9ab 313e e7f5 943d
00000040: beb9 a03c 4a9c 833c b8a6 6a3d 61ae bf3c
00000050: e0f6 3f3d aec4 0fbd 91a8 473d b312 353e
00000060: ba3c d53d b79d e73d b5e7 643d af08 fa3d
00000070: daec 23bb 51f2 963d 594a 373e 56dc 143e
00000080: d398 543d 524a 793d 96c3 8f3d 4033 013e
00000090: 1fae bb3d 631b 0b3d 3ee2 ce3d f6dd 2b3e
000000a0: f78e 0b3e 4de7 2bbc e536 73bc a9ae bd3d
000000b0: f429 9a3d 9992 b73c 4506 a53d af49 b13c
000000c0: 2138 9c3c 64a5 d93c e212 9b3d c8b0 173e
000000d0: ca9e 113e e24f c9ba 893c 803d cda9 ff3c
000000e0: de53 9ebd f32d 1b3d a421 b33d b83a c03d
000000f0: 4381 1b3e 51bd 573d b657 023e 5440 98bc
00000100: ab24 11bc 3a91 c4bb 06fe 8a3d c406 663d
00000110: 9687 c13d e2c1 19bd cd76 043d 2757 e83d
00000120: c901 3ebc ae32 4f3e 38c4 f43d 2113 8e3d
00000130: 2b12 e5bb 8afb 003e 6e14 d63d b776 d53d
00000140: dbe8 e63d ee6d 1e3a f284 d13d aee1 223e
00000150: 041a 7a3c b7a2 34b9 3b34 063e 090e 463d
00000160: ce6a f53c 1251 a53d 98e6 103d 3845 bbbc
00000170: 9ffb 263e 56b6 86b9 9c0f 853d bf39 7d3d
00000180: d985 073e 203e 473d 826b 1f3e bd93 ddbc
00000190: f4a2 2d3e eb31 0f3d 15d9 863c a21e c93d
000001a0: 0bb8 033d 878a cb3c cd5b 2abd 86d5 f93d
000001b0: 48e9 4e3c a9f0 3c3d 32cb a63d 1655 b03d
000001c0: eb2b f03b d449 703c 880f 173d dce9 2d3d
000001d0: c387 d53b 914a 1c3d e743 2c3e 9df4 df3d
000001e0: 676a 08bd c403 dc3c 387d 933d 9d92 263e
000001f0: 3e00 41bd 3003 d43d 9778 f43d c559 53bd
00000200: e6cd d7bc 1ce9 a2bc 9bb2 d23d 28bd 1f3e
00000210: a303 ca3d 29a2 f03d 6796 8b3d a683 033e
00000220: 25d1 a23d 8726 b93d 2531 8c3d 9b66 54bd
00000230: 8718 d43c ff57 d83d 7a84 1b3c 7f1d 0b3e
00000240: e760 a83c 4ea6 0f3d d9e2 013d 2f89 7f3d
00000250: 9d2a 79bb bcee e439 a7f9 a7bc 352a 823c
00000260: 1dd9 0f3e 83a6 17bd 928c fe3c 0177 413d
00000270: 2baf 1bbd 5f03 cd3d 0049 3a3e 828a db3d
00000280: acb8 103e 1390 163d 5f6d 2c3e 7bad 193e
00000290: 5f68 51bc 3b66 2d3e 2fbd 55bc 4a91 9b3c
000002a0: ab9e 52bd 3ad4 4f3d e9c4 2f3e 82dc 1f3e
000002b0: 5083 303c 4eb8 d43d 6f6e 22bc 93ab ef3d
000002c0: d454 8d3d 2ea9 ff3d a75f 123d 2da1 c73d
000002d0: 3b10 163d 4a90 d5bc dd66 623d 0677 aa3d
000002e0: e3eb 693d ace1 053e 3fd5 063e dd2d 263e
000002f0: 951b c13d e94f ca3d d892 323d 5867 113e
00000300: 468d ae3d bf2e f03c 89a5 883d c263 3abd
00000310: ab25 293e 0052 2d3e 354a 4a3e 344b f73d
00000320: 95ed c43d c5e1 ed3d a91b e8bc ffd4 f03d
00000330: 7198 063d db65 8b3c 0d18 f53d a980 893d
00000340: ace5 8a3d 4415 983d 8a52 46bc 6f0c 13bd
00000350: 4bf2 1c3d c947 0f3d 37ba 2bbc 9bd7 083e
00000360: 5291 6d3d 23da a43b 604d 7a3d 68ff 103e
00000370: 0ab9 56bd ed6a 403c 32a9 c73d fce2 5b3c
00000380: 1315 c23d 7880 6b3d f098 89bd f8f8 073e
00000390: 41c7 403e fe1f 453e 2fbf 473d 3b38 a73c
000003a0: c428 c63c e6ba 06bd db78 c53d 2fe0 c73d
000003b0: 9a62 563c 2fa7 f63d 9ed6 903d f543 0c3e
000003c0: e71b 543d adef ccbc b333 fc3d cea2 d73d
000003d0: a25d 093e d4f6 3a3c 3188 953d a398 6f3d
000003e0: acac 9e3d 9727 4e3d b1d6 1fbd 62f1 e6bd
000003f0: 60fa 053d 689b b63d 5399 7b3d eb7a 0f3e
0.019039985 0.021801298 0.023701709 0.12799571 0.07734408 -0.025954623 0.11217503 -0.0077170683
0.12583382 0.033103343 -0.028832195 0.007634662 0.15415435 0.047161955 0.17350735 0.07273465
0.019619819 0.016065735 0.0572879 0.02339858 0.046866298 -0.035099678 0.04874474 0.17682914
0.10411973 0.113093786 0.055885036 0.122086875 -0.0025013 0.07370437 0.17899455 0.14537176
0.051903557 0.060861893 0.07019727 0.12617207 0.0916407 0.033961665 0.10101746 0.1678389
0.13628756 -0.010492158 -0.014844631 0.092618294 0.07527533 0.02240877 0.080578364 0.02164158
0.019069733 0.026568122 0.07571961 0.1481353 0.1422073 -0.001535889 0.06261546 0.031208897
-0.0773084 0.037885617 0.08746651 0.093862 0.15186028 0.05267078 0.12728772 -0.018585362
-0.00885884 -0.0059987577 0.067867324 0.056158796 0.09449689 -0.037538417 0.03233986 0.11344748
-0.011597105 0.20234177 0.11951488 0.06937242 -0.006990691 0.12595955 0.104531154 0.10423034
0.112748824 0.00060436025 0.102304354 0.15906402 0.015264992 -0.00017226754 0.13105862 0.04835323
0.029958155 0.080721036 0.03537616 -0.022860155 0.16306923 -0.00025694323 0.06497118 0.06182265
0.13234653 0.04864323 0.15568355 -0.027047986 0.16956693 0.034959715 0.016460935 0.09820296
0.03215794 0.024846328 -0.041591454 0.121989295 0.012628861 0.04612795 0.08144225 0.08609979
0.007329454 0.0146660395 0.036880046 0.042459354 0.006516428 0.03815705 0.16822778 0.10935328
-0.0333046 0.026857264 0.07201618 0.16266866 -0.04711937 0.103521705 0.11937063 -0.051599283
-0.026343297 -0.019886546 0.102879725 0.15599501 0.09863975 0.117496796 0.06815796 0.12843189
0.079500474 0.09040552 0.06845311 -0.051855665 0.025890602 0.10563659 0.009492034 0.1358547
0.02055402 0.03507071 0.03171048 0.062386688 -0.0038019784 0.0004366542 -0.020504786 0.015889267
0.14047666 -0.037024032 0.031072889 0.04723263 -0.03800885 0.100104086 0.1819191 0.10719778
0.14132947 0.036758494 0.16838597 0.15007584 -0.012781232 0.16933529 -0.013045593 0.018990178
-0.05142085 0.050739504 0.17164959 0.15611461 0.010773495 0.10386716 -0.009914025 0.11702647
0.06900945 0.1248344 0.035735752 0.09747539 0.036636572 -0.026069779 0.05527388 0.08323483
0.057109725 0.13074368 0.13167284 0.16228433 0.09429089 0.09878523 0.043597072 0.14199579
0.085230395 0.029319165 0.06672198 -0.045505293 0.16518275 0.16925812 0.1975487 0.12074891
0.09615628 0.11615328 -0.028333502 0.11759376 0.032860223 0.017016342 0.11967478 0.06713993
0.06782088 0.07425931 -0.01210464 -0.03590053 0.038317006 0.03498057 -0.010481409 0.13363497
0.057999916 0.0050308867 0.061108947 0.1415993 -0.05242256 0.011744243 0.09749068 0.0134208165
0.09476676 0.057495564 -0.06718624 0.13278568 0.1882601 0.19250485 0.04876631 0.020412555
0.02418936 -0.032893084 0.09642192 0.097595565 0.013085032 0.120436065 0.07072185 0.13697799
0.051784422 -0.02501663 0.12314548 0.105290994 0.13414624 0.0114113875 0.07301367 0.058495175
0.07747778 0.050330725 -0.039023105 -0.11276509 0.03270948 0.0891636 0.06142552 0.14011733

critic.2.bias f4 [256]
00000000: 4acc 743f 723b d73b 3427 91bd f706 803f
00000010: 64b3 7b3f c08f 84bd 15a8 723f 3439 883f
00000020: 2e87 8b3f 51b1 39bd 3ada 033d eb21 323c
00000030: 5a25 893f 6296 753f 7c66 833f 07a0 7c3f
00000040: bc39 783f 128b 803f cc3e e4bb 72d5 613f
00000050: 9698 853f 0301 7d3f 1c12 733f fc4f 883f
00000060: 249e 8abd 0bd1 89bd 910c 7a3f 1564 7b3f
00000070: bf80 89bd 3c2f 493d 4a1c 8b3f 72a3 8b3f
00000080: 72d9 833f 236d 833f e4da 883f 971a f0bc
00000090: ce4e a8bc c645 753f 7768 883f e2ce 99bd
000000a0: ba51 7f3f ab7e 7f3f 831c 723f f870 793f
000000b0: d56f bb3c ec71 783f fa40 833f 75f7 23bd
000000c0: 1027 853f e3f8 833f d7b6 733f ba8a 223d
000000d0: f631 7e3f 198f 46bc 0bd0 853f b5ef 853f
000000e0: 2e25 9a3c f482 0abd 7c26 4bbd 5643 32bc
000000f0: 8e1b 843f 3d32 513b 3ddd 783f 9051 7d3f
00000100: 76da 8c3f 29b1 843f 5c8c 8a3f 508e 50bd
00000110: d644 763f c8f7 303c 50e3 893f 4d9a 0f3d
00000120: a93e 99bd 7607 873f 46f7 7e3f 32ac 343d
00000130: 14c7 773f bb6e d03c 361f ddbc 99ef 7a3b
00000140: 1748 8a3f e56a 883f 6b01 823f 253b 88bd
00000150: 3ccf 203c 505b 5c3f 4fb2 c43c 6d35 e2bb
00000160: cd98 c43c ceb7 74bd 4434 453f 6feb 823f
00000170: c011 873f b528 823f 15de 883f 0e47 8d3f
00000180: 69a2 863f 99f6 40bd b2fa 3abc 2430 93bd
00000190: 9f8f 7e3f 7b25 873f d4c7 883f d29a 883f
000001a0: 4810 5bbc edef 893f d946 803f dbeb 863b
000001b0: 9863 823f 1112 7c3f fb3c 8c3f ab02 09bd
000001c0: 21dd 723f b14d 453d 92ff 723c 4a99 a53c
000001d0: 8f1e a4bc 78be 073d f60b 843f ac28 823f
000001e0: f07d 273d 4265 7f3f e7d4 813f 45a5 613f
000001f0: a878 8a3f fa72 e13c 229f 08bd fa1d 813f
00000200: 07fe bb3c c90c 14bd fa61 873f 639a 883f
00000210: d989 3cbd 6b5d 833f c7c0 8b3f 5ad7 cbba
00000220: 1959 853f e454 453c d530 883f d267 863f
00000230: e44c 873f 159c 2cbd 9b79 873f 17d2 7d3f
00000240: 640d 803f 5f43 85bc ba41 8cbd 1317 7ebc
00000250: bea0 893f 3496 833f e493 843f ec07 873f
00000260: 1689 b4bc ea28 00bd 68a7 813f 4586 743f
00000270: 49e0 853f a89a c13c 94ae 893f 9cff 6c3f
00000280: de4b 893f bf09 f83c 486a 883f 4a19 813f
00000290: 5840 c6b7 d66a 44bd 738a 6f3f 44a5 873f
000002a0: 92ec 7d3f 860c 833f 75b1 843f 8b6c cd3b
000002b0: 4ad3 b1bc 6ed2 7b3f 20ca 6a3c 20ff 99bd
000002c0: f7e8 853f 9822 7f3f 4ca3 783f 22d3 863f
000002d0: 31bd 823f 9668 223d 6ce5 863f 96f6 90bd
000002e0: 98ea 833f 31f9 823f bcdf 6e3f 607e 843f
000002f0: 32cd 863f a36d b0bc 9db9 df3c 3262 50bd
00000300: f0f7 883f f6b6 173d 372f 863f 0ee4 7f3f
00000310: cac6 863f 57bd 7f3f 0fc3 b83b e57e 883f
00000320: 359a cb3c 15f2 703f 38a2 853f 2858 45bd
00000330: edc3 32bd a4e4 d1bc e4fb 6b3f 3379 ee3b
00000340: 7c58 e23b eb0a 893f 9095 783f 5607 763f
00000350: 934a b3bc 1e60 873f f7b6 763f e67c 833f
00000360: 00c0 863f b05a a0bd 8440 84bd db20 2fbd
00000370: a02d 103d 5ed5 843f 8b76 813f a449 793f
00000380: 507c 8a3f cc27 743f 68ea 833f d58f 803f
00000390: b9f5 43bb 3925 d63c 78c8 6dbc 851f 813f
000003a0: 74e0 833f 4caf 7e3f 476f 7a3f 3dc0 853f
000003b0: 4e93 433d f65e 5bbd 5060 8a3f 0cfd 61bc
000003c0: 1861 523c 6bbe 843f 0b10 78bc 7879 883f
000003d0: 161e 883f 781c 7dbd dc6f 853f 8eae 853f
000003e0: 7bac 7d3f 25c4 363f cb40 813f d15b b13c
000003f0: 2af7 143d 69b7 8a3f dc9d 893f 9579 863f
0.9562422 0.0065683657 -0.070875555 1.0002126 0.98320603 -0.06472731 0.9478772 1.0642457
1.0900629 -0.045335118 0.03219054 0.0108723445 1.0714524 0.9593259 1.0265651 0.9868168
0.96963096 1.0042441 -0.006965494 0.88216317 1.043719 0.9882967 0.9494951 1.0649409
-0.06768444 -0.06729325 0.97675425 0.9819959 -0.067140095 0.04911731 1.0868008 1.0909255
1.0300734 1.0267681 1.06918 -0.029309554 -0.02054539 0.9580959 1.065688 -0.07510163
0.9973408 0.99802655 0.94574755 0.97438 0.022880474 0.9704883 1.0254204 -0.040030915
1.0402546 1.0310329 0.95200866 0.03968308 0.99294984 -0.012119078 1.0454115 1.0463778
0.018816557 -0.033816293 -0.04959725 -0.010880312 1.0320909 0.0031920813 0.9721258 0.9895258
1.1004169 1.0366565 1.0824084 -0.05091697 0.96198785 0.010801263 1.0772495 0.035059262
-0.074826546 1.0549152 0.9959606 0.04410953 0.96788144 0.025443425 -0.026992422 0.0038289784
1.080325 1.0657622 1.0156683 -0.06651906 0.0098150335 0.8607683 0.024010805 -0.0069033415
0.023998642 -0.059745602 0.77032876 1.0228099 1.0552292 1.0168673 1.0692774 1.1037309
1.0518314 -0.047110174 -0.0114123095 -0.071869165 0.994379 1.0558313 1.0685983 1.0672247
-0.013370581 1.0776345 1.0021621 0.0041174716 1.0186644 0.9846507 1.095611 -0.03344981
0.94868666 0.048169795 0.0148314405 0.020214695 -0.020034103 0.03314063 1.031615 1.0168662
0.040891588 0.9976388 1.0143098 0.88142806 1.0818071 0.027520645 -0.033354886 1.0087273
0.022948278 -0.036145005 1.0576775 1.0672115 -0.0460299 1.0262884 1.0918206 -0.0015551851
1.0417815 0.012044165 1.0639902 1.0500433 1.057034 -0.04214104 1.0583986 0.99148697
1.0004086 -0.016267477 -0.06848474 -0.015508431 1.075218 1.0280213 1.0357633 1.0549293
-0.022038024 -0.03128902 1.0129213 0.9551738 1.0459071 0.023633316 1.0756402 0.9257753
1.0726278 0.030278085 1.0657434 1.0085843 -2.3633402e-05 -0.04795345 0.9357063 1.059731
0.991891 1.0238197 1.0366656 0.006269043 -0.021707196 0.98367965 0.014330417 -0.07519364
1.046172 0.9966216 0.9712417 1.0533183 1.0213987 0.039650522 1.0538764 -0.070782825
1.0305967 1.0232297 0.9331014 1.0351067 1.0531371 -0.021536654 0.027310187 -0.050874896
1.0700665 0.03703972 1.0483159 0.9995736 1.0529416 0.99898285 0.005638487 1.0663725
0.024853805 0.9411939 1.044013 -0.048179775 -0.04364388 -0.02562172 0.9218123 0.0072776317
0.006907521 1.0706457 0.97103214 0.96104944 -0.021886146 1.0576208 0.9637293 1.0272491
1.0527344 -0.07829797 -0.06457618 -0.042755943 0.03519976 1.0377614 1.0114301 0.9737799
1.0819187 0.95373225 1.030591 1.0043894 -0.00299011 0.026140796 -0.0145131275 1.0087744
1.0302873 0.9948623 0.97826046 1.0449291 0.047747903 -0.05355736 1.0810642 -0.013793241
0.012840532 1.0370611 -0.015140544 1.0662069 1.0634181 -0.061794728 1.0424762 1.0443895
0.9909131 0.7139304 1.0097898 0.021650227 0.036368527 1.0837222 1.07513 1.0505854

critic.4.weight f4 [1, 256]
00000000: a49d 1fbd 6163 623d 6b44 083d 5eca 71bd
00000010: 6935 9abd d25a a9bb d509 61bd 4eba c8bd
00000020: 96d2 bdbd 2be7 f63b bd7f 563d 4813 dd3c
00000030: 9cea 92bd 5853 57bd da25 b2bd 307d 5cbd
00000040: 3411 acbd 6b3c 97bd 058b 563c e26a f4bc
00000050: ac94 abbd ffe8 debd 09f0 6fbd b652 acbd
00000060: 8a7c 643c de22 b63c 79ff babd 18f4 88bd
00000070: 363a a43c 2e82 803d b3f2 e2bd 27a6 dfbd
00000080: dc8b bfbd 9725 cebd 483b c3bd af29 7d3c
00000090: eef7 323c 52bb 43bd 8d31 b7bd f4f6 253c
000000a0: 96b0 b4bd a0a9 c1bd 03d0 20bd 3beb b3bd
000000b0: 80f6 0b3c 58a2 b1bd cf3a adbd 34fb ed3c
000000c0: d07d a1bd 8121 c6bd 9ae3 06bd 03f2 393c
000000d0: 9fde 87bd 10f2 cb3a ce0d 2dbd 98e7 6cbd
000000e0: 457f 283d b137 c83c b091 dd3c 017c 94bb
000000f0: 8b71 9abd 1773 1c3c a8aa 6fbd 9f07 b4bd
00000100: 5377 c3bd 84da 51bd 7e8c d3bd ba17 acbb
00000110: 35a3 94bd 46d8 7abb 9725 9ebd 5866 aa3b
00000120: 253e 263d 25fe 61bd b0a7 68bd fd56 01bb
00000130: 2b71 a1bd 3c32 5d3d b738 f13c 139d 353d
00000140: cf8e a4bd 3521 a1bd 5ac1 5cbd bb54 8d3c
00000150: ef69 013d 2f2c 5fbe 7eac 323c 2ede 533c
00000160: 273b 013d 2246 043b 78e6 5fbe ae48 4ebd
00000170: bbba bfbd 3c1d 51bd 50c7 a1bd c7a5 d1bd
00000180: e6dc c9bd 7150 093d 3643 2f3d 71ac a5ba
00000190: 3dd1 8cbd c3c5 f4bd 9e65 d4bd 14fb 7fbd
000001a0: 687d 2e3d 795b a6bd e995 aabd 57a4 033c
000001b0: 97c9 9fbd c9f0 acbd 3753 e1bd e506 453c
000001c0: a98e 7cbd bd99 f93b 66b0 7e3d ae9c 4a3c
000001d0: 1f56 483d 8f3f 503d f4d2 f1bd 5273 3cbd
000001e0: acb5 9fbb 03a4 65bd 4794 b8bd d85f 10bd
000001f0: 45ae d7bd ae4e 3d3d ca47 4f3c e8f7 89bd
00000200: f833 9e3c d39b a33c 6d3d 7abd 2789 7bbd
00000210: a56d bb3c c662 96bd 4155 c7bd da9a 1d3b
00000220: 46e9 f1bd 3533 dd3c 8077 95bd 7e5c 94bd
00000230: 4f0e a4bd c12e 6cba d568 8fbd 2e3c 3bbd
00000240: bb41 64bd 45ae 923c fe2e 0a3b e274 aa3c
00000250: 7f8c 85bd 1209 81bd 6e15 d2bd 671b dabd
00000260: 728f b93a c5d3 863c da5c 94bd 92d8 72bd
00000270: 75ab cfbd c348 af3c 2e13 88bd e7d3 1cbd
00000280: b315 8ebd 218b ea3a 139a bdbd 2f8e 2fbe
00000290: 0f70 f73b 01c5 493c d058 38bd 2cce 99bd
000002a0: 4a9a 4fbd 4523 37bd d049 3abd 1554 3c3d
000002b0: f5b5 e63c 29d9 94bd 0a57 bebb 01ad e13c
000002c0: 5ede bbbd 9ac2 b8bd d820 25bd b7bc a9bd
000002d0: 4dda 3cbd 7a63 6c3c 23e7 c4bd 476c 0c3d
000002e0: 2c24 b0bd e930 20bd 3940 7abd 5589 a0bd
000002f0: 34d5 b1bd 3e9d 273d 22d0 c53b a10e c53c
00000300: 202d c5bd 0363 a03c f294 ddbd 5e77 9ebd
00000310: 274b a5bd 9e8b e2bd dd8d 2b3d 6c3f 91bd
00000320: 5d0b 953c 2489 39bd 82eb 4fbd 8835 8b3c
00000330: 0e4f f03c 397c 173d b124 26bd 402b 163d
00000340: 2e96 f73c 914a 95bd 764f b0bd 1429 8cbd
00000350: 6bbd ea3c c8ab 98bd 5acc 67bd 613b 4fbd
00000360: 02c2 b7bd a483 c53b feb0 243d 9c81 c23a
00000370: 3336 043d 4c53 b7bd 2fe8 4cbd d89f 8ebd
00000380: d303 a3bd 3851 87bd c4a5 82bd 9412 c8bd
00000390: cb29 2cb9 b0ef 233d ba30 4ebb aa76 29bd
000003a0: 9df1 90bd bbd5 47bd d949 8ebd eac0 9abd
000003b0: dcfb 933b 411d eb3c 5441 aabd 4e28 c23b
000003c0: 0f38 063d d88a 55bd 1dd4 393d 7349 e4bd
000003d0: 918e 99bd 9f1f 633a 0465 c1bd 35f1 50bd
000003e0: 40e2 b8bd 5dbe 39bc ca1d 84bd 3c47 7a3c
000003f0: b755 9e3c 7e61 98bd 2edf c1bd 458e 59bd
-0.038968697 0.055270556 0.033268373 -0.059030883 -0.075297184 -0.0051682973 -0.054941017 -0.0980116
-0.09268682 0.0075348816 0.052367914 0.026986733 -0.071736544 -0.052569717 -0.08698626 -0.053830326
-0.08401719 -0.07384571 0.013094668 -0.029836122 -0.08377966 -0.10884284 -0.058578525 -0.08414213
0.013945708 0.022233423 -0.09130759 -0.06687182 0.020047288 0.0627483 -0.110814475 -0.10920363
-0.09352848 -0.100657634 -0.095327914 0.015451833 0.010923369 -0.047786064 -0.08944998 0.010129679
-0.088227436 -0.094561815 -0.039260875 -0.08785101 0.008542657 -0.08673543 -0.084584825 0.029050447
-0.07885325 -0.09674359 -0.0329319 0.011349204 -0.066342585 0.0015559811 -0.042249493 -0.057838053
0.041137 0.024440618 0.027047008 -0.004531384 -0.07541188 0.009548924 -0.05851236 -0.08790516
-0.09544244 -0.051233783 -0.10329531 -0.005251852 -0.07257692 -0.0038275882 -0.077220134 0.0052001886
0.04058661 -0.05517401 -0.056800544 -0.0019735687 -0.07882913 0.054002985 0.029445989 0.04433925
-0.08035051 -0.07867662 -0.053895332 0.017252317 0.031595167 -0.21794198 0.010905383 0.01293139
0.031550553 0.0020183404 -0.2186526 -0.05036228 -0.09361788 -0.05105327 -0.07899344 -0.10236698
-0.09856586 0.03352398 0.042788707 -0.0012639893 -0.068758465 -0.119517826 -0.103709444 -0.062495306
0.042600065 -0.08122916 -0.08329374 0.008034787 -0.07802122 -0.084443636 -0.110022 0.01202557
-0.06165949 0.007617204 0.062179945 0.012366457 0.048910256 0.050841864 -0.11807814 -0.046008416
-0.004873952 -0.056064617 -0.09012657 -0.035247654 -0.10531286 0.046217613 0.012651393 -0.067367375
0.01931189 0.019971764 -0.061093736 -0.061410096 0.022879431 -0.07343058 -0.09733058 0.0024048598
-0.118120715 0.027001956 -0.072981834 -0.07244204 -0.08010542 -0.00090096524 -0.07002417 -0.04571169
-0.055726748 0.017905364 0.0021085138 0.020807687 -0.06520938 -0.06300558 -0.10257994 -0.10649758
0.001415713 0.016458401 -0.072442725 -0.05928857 -0.10140125 0.021397 -0.06644283 -0.038288023
-0.069377325 0.0017894247 -0.09257903 -0.17144082 0.0075512 0.012315036 -0.045006573 -0.07510027
-0.05068425 -0.04471137 -0.04548055 0.045978624 0.028162936 -0.072679825 -0.0058087157 0.027548315
-0.091732726 -0.09021492 -0.040314525 -0.082879476 -0.046106625 0.014428014 -0.09614398 0.03428295
-0.08600649 -0.039109144 -0.061096404 -0.07838694 -0.086832434 0.040921442 0.0060367743 0.024054827
-0.096277475 0.019578462 -0.10819425 -0.07737611 -0.08070975 -0.11061786 0.04188334 -0.07092175
0.018193895 -0.045296803 -0.050761707 0.0169933 0.029334571 0.036983702 -0.040562335 0.03666234
0.030222978 -0.07289613 -0.08608906 -0.068437725 0.028654775 -0.0745464 -0.05659137 -0.050593738
-0.08972551 0.0060276557 0.040207855 0.0014839652 0.03227825 -0.089514345 -0.050026115 -0.069640815
-0.07959714 -0.06607288 -0.063792735 -0.097691685 -0.00016418767 0.040023506 -0.0031462149 -0.041372932
-0.07077334 -0.048787814 -0.06947679 -0.07556327 0.004516108 0.028700473 -0.083132416 0.005925215
0.032768305 -0.052134365 0.045368303 -0.11146822 -0.074978955 0.00086640747 -0.09443095 -0.051011283
-0.09027529 -0.01133689 -0.06450994 0.015275773 0.019327981 -0.0744047 -0.09466396 -0.053114194
