agent1/ppo/actor/actor.pth (torch, 471367 bytes, 6 tensors)

actor.0.weight f4 [256, 100]
000000 39 26 9e be 12 e2 26 3e 02 7f a0 3d 47 da aa bb
       -0.30888537 0.16297176 0.07836725 -0.005214009
000010 9f 5d a3 bd 4b f6 da bd 0c 40 96 bc a1 20 e3 bd
       -0.07976841 -0.10691508 -0.018341087 -0.11090208
000020 a0 50 5c be 5d d3 95 bd 92 92 25 be a9 36 07 be
       -0.21515131 -0.07315705 -0.16169193 -0.13204445
000030 32 c8 8b be a2 03 85 be 89 4d 1e be ab 23 19 3e
       -0.27301174 -0.25979334 -0.15459265 0.14955013
000040 2a 98 3c bd ae c8 bf 3c cc b8 d3 3d da c2 2a bd
       -0.046043552 0.023411121 0.103379816 -0.04168973
000050 0e 08 d0 3c c2 7b 32 3d c1 09 ce bd a5 80 09 3d
       0.025394466 0.043575056 -0.10060454 0.03356995
000060 d7 09 2d be 02 39 8c be 22 ec e1 3d 65 91 da bd
       -0.16898285 -0.27387244 0.11031367 -0.10672263
000070 96 03 8e 3d 74 c2 4d bd c1 93 02 3d 8d 17 02 3d
       0.06934278 -0.050234273 0.03187919 0.03176074
000080 20 87 90 bd 1f 49 d0 3d 2a 42 67 3e 4c 31 51 3c
       -0.07057023 0.10170197 0.22583833 0.012768101
000090 80 6e a2 3d 52 cb ee bd 7f 2e 72 bd 0a 09 c4 3d
       0.079312325 -0.11659874 -0.059126373 0.095720366
0000a0 dc 5f b7 be 5a 32 e5 3c fb c0 3e 3e e2 1d a1 3d
       -0.35815322 0.027978111 0.18628304 0.07867028
0000b0 d0 c5 07 be ae f7 71 3c d0 ff 3f 3d 72 a8 2c bd
       -0.13259053 0.014768524 0.04687482 -0.04215283
0000c0 51 a2 a2 3c dd 63 95 bc 58 cb 59 be ad e6 83 bd
       0.01985279 -0.018236095 -0.21268976 -0.06440482
0000d0 ac f6 79 3e 80 8b f2 bc 48 cf 67 be ca 07 63 3d
       0.24410504 -0.029607534 -0.22637665 0.05542735
0000e0 a9 4d bf be 22 98 0f 3e 4a 66 40 be 92 38 d4 bc
       -0.37363937 0.14022878 -0.1878902 -0.025905881
0000f0 c8 a9 9a bd eb 6f e5 3d d3 1b 25 bc 4e 1f 50 3c
       -0.075519145 0.11202987 -0.010077435 0.012702776
000100 a8 5b 0c 3d 6e 9e 18 bd 1d 90 48 3e 2c 5f 34 3e
       0.034267098 -0.037260465 0.19586225 0.1761443
000110 66 1b 06 bd 39 9a 37 be 09 82 82 3d de 91 db 3d
       -0.032740973 -0.17929925 0.063724585 0.10721181
000120 ef 23 be bd 27 93 89 3e 91 f2 ac bd 6b f4 26 3d
       -0.092841975 0.2687008 -0.08444703 0.04076044
000130 94 43 04 be e3 05 f2 bc 5f f2 76 3e b8 8d c0 bd
       -0.12916404 -0.029543823 0.24115895 -0.09402031
000140 83 b5 2d bd 1b e0 12 be 2d e4 0a be ed 40 b8 bd
       -0.04240943 -0.14343302 -0.13563605 -0.089967586
000150 c5 17 f0 bd ec 89 91 bd 0b 4d be bd bc fe f3 3d
       -0.11723284 -0.07106385 -0.092920385 0.11913821
000160 b2 fe 1a bd b8 5c ea bd 13 61 99 bd 6a 04 10 3e
       -0.037840553 -0.11443466 -0.074892186 0.14064184
000170 d1 6d 5f 3d 2c 04 bb 3e e8 5d e8 bd 82 9d 0b 3e
       0.05454809 0.3652662 -0.11346036 0.13634303
000180 59 83 e5 3d b3 64 60 bd ec 00 67 bd 1f 99 3d 3e
       0.11206693 -0.054783534 -0.056397364 0.18515442
000190 5e bb ef bd 76 84 f2 3b 6b ee 80 3d 95 6c 07 3e
       -0.11705659 0.0074010445 0.062954746 0.13225015
0001a0 64 4d b6 bd 0a 07 92 3d 87 00 e6 bd 3e 4c 21 3d
       -0.0890148 0.07130249 -0.11230569 0.03937935
0001b0 25 9f 56 bd 54 39 84 bd b2 9a b3 3d c9 4e 1a bd
       -0.052397866 -0.06456247 0.0876974 -0.03767279
0001c0 b4 c0 93 3e 94 a3 3d bd 02 e4 ae 3d 56 34 be bc
       0.28857958 -0.04629858 0.08539583 -0.023218315
0001d0 b6 e6 d2 bd d2 32 05 3e d2 b9 c9 bd e4 f1 1d be
       -0.10297911 0.13007668 -0.098498955 -0.15424305
0001e0 38 1f 30 3c a7 ce e6 3d f1 60 ca 3d 12 f7 39 be
       0.010749631 0.112698846 0.09881771 -0.18160656
0001f0 b9 fa 7d 3e fa 9b 1c be 88 f2 91 bd b7 ff e3 bc
       0.24802674 -0.15293875 -0.07126337 -0.027831895
000200 15 3f 26 bc 28 f2 54 be 2a a4 98 bd 1a 7b 3c 3d
       -0.010146876 -0.207955 -0.07453187 0.046015836
000210 9a 39 22 3e b1 98 de 3d 7f 8f e1 3d 4c c1 13 be
       0.15842286 0.10868967 0.11013698 -0.14429206
000220 05 78 5b 3c 43 b5 22 bd fd a7 2b be 9d e3 9a be
       0.013395314 -0.039723646 -0.16763301 -0.3025178
000230 ab 04 46 3d f9 5b a4 3d 19 9f e1 3d 65 2a 22 be
       0.048344295 0.08025355 0.110166736 -0.15836485
000240 41 22 14 3c f6 d7 5a 3d 93 9c a1 3d 87 ce 74 bd
       0.00904137 0.053428613 0.07891192 -0.059767272
000250 92 3f d8 bd 5d 5a 5b 3e 68 84 44 be 39 fc 3a bd
       -0.10559 0.2142119 -0.19191134 -0.045650695
000260 d3 1b cf bd 16 b6 07 3d 79 2f 07 3e 45 7f 22 be
       -0.10112729 0.033132635 0.13201703 -0.15868862
000270 5a 95 19 bd 66 92 aa 3c a3 5e d8 bd 58 c1 83 3c
       -0.03749595 0.020821761 -0.105649255 0.016083404
000280 34 36 19 3c ee 15 8e bd f4 b4 93 3d 7c d0 4c be
       0.009351302 -0.069377765 0.072122484 -0.20001405
000290 66 a5 8a 3c 59 7e 6b 3e 0c bf 05 3e 53 cd c1 3e
       0.016924571 0.22997417 0.1306116 0.37851962
0002a0 f9 70 31 3d c2 9e 81 3d a5 c5 0f be d8 a2 12 3d
       0.04332063 0.06329109 -0.14040239 0.03579983
0002b0 de 76 11 be 41 8c a6 be 35 63 8c 3c 08 9d ab bd
       -0.142055 -0.3252888 0.01713715 -0.08379561
0002c0 4f 63 1d be f9 67 61 3d 54 7b 05 3e 89 0a 6a bd
       -0.15369914 0.055030797 0.13035327 -0.057138953
0002d0 04 9e 3b be 47 f0 aa bd 97 9f fd bd f0 43 c6 bd
       -0.18321997 -0.083466105 -0.12383955 -0.09680927
0002e0 8f 23 56 be 09 94 31 3e 80 80 d5 3d 5a be 3e 3e
       -0.20912002 0.17341627 0.104249 0.18627301
0002f0 a7 ae 58 be d4 98 aa bc 23 3b 22 be 94 46 a0 3c
       -0.21160375 -0.020824827 -0.15842871 0.019564904
000300 41 13 c2 bc 40 b8 10 3e 2e 56 0a 3d f3 8e 71 3e
       -0.023690822 0.14132786 0.033773594 0.23589687
000310 0a 98 0b 3e b9 b2 dd 3d 7d 94 2b 3e a1 e2 90 bd
       0.13632217 0.10825104 0.16755863 -0.07074476
000320 d6 4e d6 bc 55 b1 18 bc f7 6b a7 bd 4a fc e4 3d
       -0.026160639 -0.009319623 -0.081748895 0.11180933
000330 fb 3d b1 3c e7 e8 53 3d 85 e6 a6 3c e5 cb 6c bc
       0.021636 0.051735785 0.020373592 -0.014452909
000340 cf 90 78 bc 93 c7 90 3c 1d 36 f2 3c a0 94 9b 3c
       -0.015171244 0.01767329 0.029566819 0.018991768
000350 40 bd 32 3e df be e8 bc 9c 55 2f be ef 3a 5e 3e
       0.17455006 -0.028411327 -0.17122501 0.21702169
000360 46 d6 7f 3e a7 3a 13 bd 0e 64 d8 bc 45 2b 44 bc
       0.24984083 -0.035944607 -0.026414897 -0.011973207
000370 41 98 05 3e 5c 0c 1a 3e dd b3 04 3e 92 e8 f7 bd
       0.13046362 0.15043777 0.12959237 -0.12104906
000380 16 ff 41 3d 97 68 d1 3c cf 08 86 3a d3 44 24 bd
       0.04736241 0.025562568 0.0010226014 -0.0401047
000390 37 6c 42 be db 13 ae b9 24 0e e2 3d fe 41 ae bc
       -0.18986593 -0.0003320266 0.11037853 -0.021271702
0003a0 6f d8 af bd 0f 30 6f 3c 37 0a 7b 3d ec f4 6f 3d
       -0.08586203 0.01459886 0.06128904 0.058583185
0003b0 8b d9 a8 3e 74 6d 94 bd ad 24 f0 3d b7 57 85 3e
       0.32978472 -0.07247439 0.11725745 0.26043484
0003c0 99 0b c0 3c 51 26 84 3d bd 87 e6 bb 87 32 75 3e
       0.02344303 0.06452621 -0.007035224 0.23945056
0003d0 58 d5 be 3d 61 8a 56 3d 25 93 95 3d ea 13 c4 3d
       0.09318036 0.052378062 0.07303456 0.09574111
0003e0 94 a7 67 bd 94 5a 1e be e8 e7 e4 bb 6f 3b c1 3a
       -0.0565563 -0.1546424 -0.006985653 0.0014742444
0003f0 95 57 a1 bd 33 fc ce bd b3 ad 6e bd c9 6e e6 bd
       -0.07878033 -0.10106697 -0.05827112 -0.11251599

actor.0.bias f4 [256]
000000 b6 75 4c bd dd b5 34 be ce e5 a1 3d 6f 02 0a 3f
       -0.049916945 -0.176475 0.0790516 0.53909963
000010 44 81 a6 bd c9 3d cb bd 92 ef d2 3c 83 61 25 be
       -0.08130124 -0.09923894 0.025749002 -0.16150479
000020 64 60 9a 3e d3 f7 a7 bd e4 e6 a9 bd 16 27 04 bd
       0.30151665 -0.082015656 -0.08295992 -0.032263838
000030 fd 45 5d bd 30 da 1b be a4 eb b0 bd c9 3c 62 bd
       -0.054021824 -0.1521995 -0.08638695 -0.05523375
000040 18 9f d3 3d a1 97 e8 3e 41 c8 b7 bd c6 10 a2 bd
       0.10333079 0.45428184 -0.08973742 -0.079133555
000050 01 98 0d be c8 77 fb bd c5 ce e3 3c 5b c6 5d 3d
       -0.13827516 -0.12278706 0.027808556 0.054144245
000060 8d 34 e3 bd df 78 cf bd 24 67 65 3e 7f 8f 43 be
       -0.11094008 -0.10130476 0.22402626 -0.19097708
000070 4c f1 7e be 42 64 07 be d2 46 9c 3c 81 52 f4 3c
       -0.24896735 -0.13221839 0.019076739 0.029824497
000080 1a 93 d6 bd 02 47 07 be 9d 55 e3 3e da e5 59 3e
       -0.10477276 -0.13210681 0.44401255 0.21279088
000090 15 a0 82 be f7 71 b9 3b 31 18 3b bd c0 37 32 be
       -0.25512758 0.0056593376 -0.045677368 -0.1740408
0000a0 4f 6c a9 bd 56 b1 16 be 5f 43 0f bd 71 21 5a bd
       -0.08272611 -0.14716086 -0.03497636 -0.05325455
0000b0 ce f1 d9 bc f7 4b 52 be d6 81 0e be 98 e2 1f 3d
       -0.02660456 -0.20536791 -0.13916716 0.039034456
0000c0 95 c7 05 be b3 74 38 3e e5 03 65 bc 62 e5 3a be
       -0.13064416 0.18013267 -0.013977979 -0.18251565
0000d0 2e 34 46 be 04 b6 b9 3c 30 44 17 be 20 33 ca bd
       -0.19355842 0.0226698 -0.14772105 -0.098730326
0000e0 c1 01 f7 bc d1 8b 7c 3d 89 90 88 bd 50 a9 5b bd
       -0.030152204 0.061656777 -0.06668193 -0.053628266
0000f0 2f be 41 3d 1c a1 86 bd 50 3b 53 bd 10 5d 88 bd
       0.047300514 -0.06573698 -0.051570237 -0.06658375
000100 22 7c a7 3c 90 5b d1 bd 0c 1c 0f 3e 48 e6 82 3e
       0.020444933 -0.10222542 0.13975543 0.25566316
000110 c6 21 8b 3e fe 74 92 3e d6 ae 16 be 45 4a 62 be
       0.27174205 0.28604883 -0.14715132 -0.22098644
000120 a3 6e 18 be b4 9e b8 3b 35 79 d6 3d 17 4d 7b 3e
       -0.14885955 0.0056341533 0.10472337 0.24541126
000130 64 33 72 3d 6c e0 0d bd d4 e3 5b be 6e 8b 40 bd
       0.05913104 -0.034637854 -0.21473628 -0.04700797
000140 58 23 9f 3d 9b b5 1a 3b df 59 f8 bd b8 f8 ab 3e
       0.07770413 0.002360678 -0.121265166 0.33588195
000150 b3 31 50 be 2b 20 87 bd 79 b3 18 be 0a 71 c4 3c
       -0.20331459 -0.065979324 -0.14912213 0.023979682
000160 06 ff 20 be a7 85 27 be 11 9d f4 3b 60 0b 76 be
       -0.15722284 -0.16359578 0.007465013 -0.24027777
000170 4b 92 64 bd 65 15 dc bd 51 44 be bd 10 01 50 bd
       -0.05580358 -0.10746268 -0.09290374 -0.050782263
000180 65 ea dc bd 5a c3 31 be da 39 1f be 85 48 84 3e
       -0.10786895 -0.17359677 -0.15549412 0.25836578
000190 2b fe 21 be e5 f9 be 3e 3f 89 99 bd cb bb e9 bd
       -0.15819614 0.3730003 -0.07496881 -0.11412772
0001a0 45 80 5b bd 7e ec 2a be 31 c1 ba 3e 55 81 94 3c
       -0.053589124 -0.16691777 0.36475518 0.018128077
0001b0 cd b4 10 3e 3c d4 a8 bd 2e f6 1b bd 62 d7 03 3d
       0.1413147 -0.082436055 -0.038076572 0.032187827
0001c0 05 01 0a 3d 99 6e b9 bd 6a 71 88 bc f1 0c 3c be
       0.03369238 -0.09054298 -0.016655643 -0.18364312
0001d0 a4 f5 ba bd 7c f2 e2 3c 38 03 65 3e 84 10 62 3e
       -0.091288835 0.027703516 0.22364509 0.22076613
0001e0 a7 8d 3c 3c f8 14 7c be cc 5d 49 3d 81 70 af 3b
       0.011508382 -0.24617374 0.049161717 0.0053539877
0001f0 ea bd 07 3d a0 57 40 bb c7 04 4a 3e 3c 36 3e be
       0.0331401 -0.0029349104 0.19728385 -0.18575376
000200 86 03 08 bd 5a cb 60 bd 51 be 01 be ab db 35 be
       -0.033206485 -0.05488143 -0.12670256 -0.17759578
000210 bd 8c d1 bd d7 44 62 be d9 8d c0 bc 8c 9e db bd
       -0.10231922 -0.22096573 -0.023505138 -0.107236
000220 ed cf 9e bd 62 0e 63 be a2 f4 da bd a5 29 51 be
       -0.077545024 -0.22173455 -0.10691191 -0.20426042
000230 85 c2 4a 3e e6 00 72 be db 0f 05 be 23 2d a5 3d
       0.19800766 -0.23633155 -0.1299433 0.0806525
000240 82 08 20 3e f9 69 8b bd 9a 82 82 3e 20 b1 bd ba
       0.15628245 -0.06807322 0.25490266 -0.0014472343
000250 c3 6e 9d bd e5 45 57 bd 13 71 6f be 17 c7 b8 bd
       -0.07687142 -0.05255689 -0.23382978 -0.090223484
000260 98 9c cf bb 6c 28 eb bc 4c 20 9a 3d a1 6b 02 be
       -0.006335806 -0.028705798 0.075256914 -0.1273637
000270 54 8d 2e be 08 23 33 3e ed b3 b5 3e 8e 55 15 3d
       -0.170461 0.17493832 0.35488835 0.036458544
000280 60 25 c0 3b c3 8f 68 bc 43 8d 23 3e 23 44 48 ba
       0.0058638304 -0.014194432 0.15971856 -0.00076395477
000290 1a 8c a1 3e 86 f0 56 be 79 05 17 3e ab 14 7f bc
       0.31552202 -0.2099019 0.14748181 -0.0155688925
0002a0 92 bc 8d bd 8a f7 b5 bd d8 f1 22 3e 57 45 e0 bd
       -0.069207326 -0.08885105 0.15912569 -0.109507255
0002b0 0f e0 1b bb a3 70 39 bd f6 da d4 3e 41 70 b9 bd
       -0.0023784672 -0.045273434 0.41573304 -0.09054614
0002c0 1e c7 61 be 3b ee a8 bd 43 a7 9e bd aa ec 0a be
       -0.22048613 -0.08248564 -0.077467464 -0.13566843
0002d0 4f 64 a8 3b f8 b7 fa bc 9f 50 cf bd 92 cd 46 3e
       0.005138911 -0.030605301 -0.10122799 0.19414356
0002e0 9b 83 89 bd 86 f4 08 3e 32 7a 29 be 16 f0 d3 bd
       -0.06714555 0.13374528 -0.1655052 -0.10348527
0002f0 bb ab 05 be 2a fb 0e be 85 4b c5 3d c5 41 68 be
       -0.13053791 -0.13962999 0.09633545 -0.22681339
000300 ac db 87 bd 9e 49 2e be 72 97 d6 bd 4b 24 c8 3d
       -0.06633696 -0.1702027 -0.10478105 0.09772547
000310 58 c0 bc bd 70 d9 87 3e df cf bb 3c 7d f0 f1 3d
       -0.09216374 0.2653308 0.02292627 0.118134476
000320 70 c4 10 bd 86 ae 5a bc 15 64 1c bd 34 9b 42 bd
       -0.035343587 -0.013347274 -0.038181383 -0.047511294
000330 34 7f cf 3c 5f 03 40 bd 34 0f fa 3c da a0 e0 39
       0.02532921 -0.046878215 0.030524828 0.00042844453
000340 a7 fb d2 bc cd 4d 04 be 5f 7e fe bd 51 12 1d be
       -0.025754763 -0.12920304 -0.12426447 -0.15339018
000350 be c5 68 3d 75 19 08 be ce 15 30 be e8 9a 1e 3e
       0.056829207 -0.13290961 -0.17195818 0.1548878
000360 74 24 ae 3d d0 29 e5 bd d5 89 22 3c e9 8e d8 3d
       0.08503047 -0.11189616 0.009920557 0.10574133
000370 c6 32 98 bd eb 4e 0d be d7 de b6 bd 5d 5f 89 3e
       -0.07431559 -0.13799636 -0.08929222 0.2683057
000380 69 0d 3d 3d eb 26 2b be c6 f3 41 be 39 fa 86 be
       0.046155367 -0.16714065 -0.18940648 -0.2636278
000390 5e e8 00 3d 64 01 88 3d c1 49 39 3d 8e a0 f9 3d
       0.031471603 0.0664089 0.045236353 0.121888265
0003a0 77 4c a2 bd 04 f2 3d 3e cf 5d f6 bd dc f0 20 bd
       -0.07924741 0.18549353 -0.12029611 -0.0392922
0003b0 f5 a2 61 3e e9 47 36 3e 3f 5b ff bd 94 e5 08 3b
       0.2203482 0.17800869 -0.12468576 0.0020888792
0003c0 9b 0c c4 bd 30 59 a7 bc 6f 2a b1 3d 0b aa e7 3c
       -0.09572717 -0.02042827 0.08650672 0.028279325
0003d0 79 b5 82 bd ab 84 61 be e2 3f 69 3e e7 a2 c3 3d
       -0.063822694 -0.22023265 0.22778276 0.095525555
0003e0 22 33 1a 3e a8 d9 2a bd 13 76 da 3d fd 19 8b 3c
       0.15058568 -0.04171148 0.10667052 0.016980166
0003f0 c4 36 8f 3d 72 8d 14 bd 71 8d c6 bd 7a c5 ff bd
       0.069928676 -0.036267705 -0.096949466 -0.124888375

actor.2.weight f4 [256, 256]
000000 45 ad ed 3c 9b 9f d6 bd ba 90 4a 3e da 31 a8 3c
       0.029013285 -0.10479661 0.19781771 0.020531584
000010 1f 70 b1 3c 93 44 8c 3c a5 62 4d 3e 8a 58 31 be
       0.021659909 0.017122542 0.20057161 -0.17318931
000020 8a 3f 22 3d 4b 6a 0d bd 3d 5f e9 bd c9 75 c7 bd
       0.039611377 -0.034525197 -0.113951184 -0.097392626
000030 4b 22 74 3d b8 5c a1 3c c3 11 55 be fd 7f d9 bd
       0.059603017 0.019697532 -0.20807557 -0.10620115
000040 82 90 45 be ba 67 80 3c a2 04 0a be 74 62 1d bd
       -0.19293407 0.01567446 -0.1347833 -0.03842397
000050 cd 79 b3 3d d0 f4 da bd 51 91 0e bd c8 36 8f 3e
       0.08763466 -0.106912255 -0.034806553 0.27971482
000060 53 d1 94 3c 31 0e 23 be a4 77 e3 3e 0a 2e 8b bd
       0.01816622 -0.15923382 0.44427216 -0.06795891
000070 15 15 a9 be ac 3d 95 3d 5d 44 1f bd 7f 22 21 be
       -0.33023897 0.072871536 -0.038883556 -0.15735815
000080 be 14 28 3e 41 bb b0 bc ae 50 3f 3e 68 1d 48 3e
       0.16414163 -0.021573665 0.1868312 0.19542468
000090 b2 aa 11 be c8 92 63 be 48 4c 3a be 69 be 58 3e
       -0.14225271 -0.22223961 -0.18193161 0.21166386
0000a0 07 25 05 3d a9 ae f9 bd 46 7a 3a be bd 6f 5f bd
       0.032506015 -0.12191517 -0.18210706 -0.05454992
0000b0 89 fd ad 3d 0d 7f 3e 3d 56 32 87 bd 91 ae 50 bd
       0.084956236 0.046507884 -0.06601398 -0.05094773
0000c0 42 70 62 bd 72 21 43 3e d7 54 83 3d b9 97 5c be
       -0.05528284 0.19055727 0.06412666 -0.21542253
0000d0 6b 15 6a bd f8 fa 4a 3d 20 1c 19 bd 41 a7 1e 3e
       -0.057149332 0.04955575 -0.037380338 0.1549349
0000e0 9f d8 16 bc 5b af 22 3e d7 06 b5 be b0 e5 99 be
       -0.00920692 0.15887205 -0.3535678 -0.3005805
0000f0 23 1b 0e be 68 54 36 3d 4d 4c 67 3d c1 29 fa bc
       -0.1387754 0.04451409 0.05646925 -0.030537488
000100 41 85 e4 3c e6 cb 20 be 98 ed 55 3c 5a 3c f4 3d
       0.027895572 -0.15702781 0.013057135 0.11925574
000110 7a 10 05 3e 6b b5 12 bd 1d 43 aa bd 44 ea 1d ba
       0.12994567 -0.035817545 -0.08313582 -0.0006023983
000120 68 67 5f be 82 43 a7 bc c7 5b 9e 3d 59 23 87 3e
       -0.2181679 -0.020417932 0.07732349 0.26394156
000130 c0 87 7f 3d 0a 5f bb be 16 e2 a4 bd 6f f7 5d be
       0.06238532 -0.36595947 -0.08050935 -0.2167642
000140 bc 69 05 3e 87 d1 86 be d5 21 98 3d 3a 1a 0d 3e
       0.13028616 -0.26331732 0.07428328 0.13779536
000150 ee a0 aa be ae c9 74 3d 2b eb 7c bd fa 20 75 bb
       -0.33325905 0.05976265 -0.06174771 -0.0037403689
000160 79 b2 76 3d 69 a8 81 bd 94 b0 d9 3b e4 b9 b0 be
       0.0602288 -0.0633095 0.006643364 -0.34516823
000170 25 e3 20 3e 74 40 14 be e1 0a 3c 3d 27 96 cc bd
       0.15711649 -0.14477712 0.045908812 -0.09989577
000180 6b b8 7e 3d e6 b1 08 3d c9 89 54 bd 2e de 16 bd
       0.062187593 0.033372782 -0.051889215 -0.03683298
000190 15 2a 15 be 08 c2 48 3e 06 34 e2 3d 25 d7 44 be
       -0.14566834 0.19605267 0.11045079 -0.19222696
0001a0 39 db 41 be 45 b3 0c bb ca 0a fb 3d 12 9c f6 ba
       -0.18931283 -0.0021469158 0.12257917 -0.0018814823
0001b0 30 ff 81 be 76 78 06 bd e4 a0 97 bd d5 cd 00 be
       -0.25390005 -0.032829724 -0.07403734 -0.12578519
0001c0 c2 c5 de bc e5 fa 43 be f6 18 82 be b6 85 ad 3d
       -0.027193908 -0.19138677 -0.2540967 0.08472769
0001d0 65 ef 54 3c 78 c2 10 be 2f 66 1f bc d3 7e cd 3d
       0.012996529 -0.14136684 -0.009728952 0.100339554
0001e0 1e 40 c4 3d 9d 5c 3a bd 19 4e 2e be 67 96 25 3e
       0.09582542 -0.04549848 -0.1702198 0.16170655
0001f0 24 00 9b bd be 68 2c bc dc 8a 6d 3d 15 76 9d be
       -0.07568386 -0.010523019 0.057993755 -0.30754152
000200 a2 45 42 be 63 aa 32 be 1b f2 18 be 34 7a 42 3e
       -0.18971875 -0.1744781 -0.14936106 0.1899193
000210 9a 55 44 bd 71 3b 47 be 7b 89 23 be 58 22 14 be
       -0.0479332 -0.19456269 -0.15970413 -0.14466226
000220 8c eb 57 3e 70 65 4d 3e e5 7a 4e bb 19 98 14 bd
       0.21085948 0.20058227 -0.0031506356 -0.036277864
000230 98 61 8d bd 19 d1 c2 bd 65 a2 75 3d e4 f1 9a 3c
       -0.0690338 -0.095125385 0.059969325 0.01891417
000240 e7 f9 07 be 78 84 02 bd 8b 4e 8f 3e 99 94 3c 3c
       -0.13278924 -0.031864613 0.2798961 0.011510038
000250 18 e6 94 3e f2 bc ce bc 7f ec 16 3e e0 af 0f 3d
       0.29081798 -0.02523658 0.14738654 0.035079837
000260 c9 dd 93 be fd 36 85 3d de a3 eb bd 56 e4 01 bd
       -0.28880146 0.06504629 -0.115058646 -0.0317119
000270 9b 5e 86 bd 14 d8 81 bc 56 66 46 3e 93 e6 a8 3c
       -0.06561013 -0.015850104 0.19374976 0.020617759
000280 fb 25 86 be c8 4d 35 3d 4f 07 e0 bc 19 19 8b 3c
       -0.26200852 0.04426363 -0.027347235 0.016979741
000290 5e d9 1d 3e c5 94 84 be f6 33 7b 3e 60 62 7a bc
       0.1541495 -0.25894752 0.2453154 -0.0152822435
0002a0 ce af 89 bb ed f8 43 3c 84 84 18 3e d7 f7 0c 3e
       -0.0042018658 0.011961204 0.148943 0.13766418
0002b0 cf fe ff bd 61 56 8a 3d 76 38 e9 3c c5 0f b4 3c
       -0.12499773 0.06754757 0.028469305 0.021980176
0002c0 de 33 b3 bc 66 da c0 bd e9 84 d8 bc 44 c2 8f bd
       -0.021875318 -0.09416656 -0.026430564 -0.07019475
0002d0 48 0f 69 bd 5f 60 63 bc a8 22 13 be 52 90 81 3e
       -0.05689934 -0.013877957 -0.14368689 0.2530542
0002e0 c8 5b 61 be 6b 1e 36 3e 56 f8 0c be 0b 58 cc bd
       -0.22007668 0.17785041 -0.13766608 -0.0997773
0002f0 11 bb 46 be 9d de 8f 3c 32 1c 03 3e 39 85 02 be
       -0.19407298 0.017562205 0.12803724 -0.12746133
000300 76 af 47 3e 23 05 08 bc 6e 48 17 be 02 f5 04 3e
       0.19500527 -0.008302006 -0.14773723 0.12984088
000310 27 e3 57 be b1 75 e8 3d bd f3 f8 bd 6a 80 95 3d
       -0.21082745 0.11350573 -0.121558644 0.07299884
000320 9e 59 69 3e 80 de cc 3c 93 e2 3c 3d 2e 97 7a 3c
       0.22788092 0.02500844 0.046114516 0.015294833
000330 37 46 1e be 32 d8 eb bd d7 90 f4 3d 51 3c 33 3d
       -0.15456472 -0.11515845 0.119416885 0.043758694
000340 e4 0f 98 be 38 4f 24 3e c9 8b a2 bd ef 01 20 3d
       -0.29699624 0.16045845 -0.07936818 0.039064344
000350 62 21 98 3e 07 5f a7 3c 67 b0 ad bc 46 48 10 3d
       0.2971297 0.020431055 -0.02120228 0.035225175
000360 aa 19 93 3b 22 4f 82 3d b7 ad e9 3d 49 92 7f be
       0.0044891434 0.0636275 0.114100866 -0.24958147
000370 c3 4f 88 be 68 d1 d0 3d 2d ff 08 3e f3 58 a3 3e
       -0.26623353 0.10196191 0.13378592 0.319038
000380 5b 55 e5 bd 1e d4 a1 3c 3d 6a 21 be 5c 8d 73 be
       -0.11197921 0.019754466 -0.15763183 -0.23784393
000390 f0 78 71 bb b7 92 95 bd 22 e0 a7 be 88 c4 a1 be
       -0.0036845766 -0.07303374 -0.32788187 -0.31595254
0003a0 75 6d 99 bd 51 4c 8e bd 5b 8d a7 bc fc 81 43 bd
       -0.074915804 -0.0694815 -0.020453146 -0.047731385
0003b0 7b e3 49 bd a0 c8 ba 3c 81 89 2f be ac 1d 1a be
       -0.049289208 0.022800744 -0.17142297 -0.15050381
0003c0 19 81 21 be 6f 8e bc 3d 22 f7 8d 3d b8 4c a3 bd
       -0.15771903 0.092068546 0.069319025 -0.07973617
0003d0 21 ae e7 3d 5b 7d 14 3e af 73 e9 3d 52 51 12 3e
       0.11312509 0.14500944 0.11399018 0.14288834
0003e0 08 e6 a0 bd 81 29 88 bd 25 2a 46 3e 46 49 c3 bc
       -0.07856375 -0.06648541 0.19352014 -0.02383865
0003f0 db 94 dc 3d e0 ee da 3d 4d eb 6e be 1d 11 6b be
       0.107705794 0.10690093 -0.23331948 -0.22955747

actor.2.bias f4 [256]
000000 c9 6e 5a 3e 64 c8 83 3e 21 0f 97 bd 59 c4 ae bc
       0.21331324 0.25738823 -0.073759325 -0.02133386
000010 0f 6c 20 bd 85 16 12 3d 80 34 17 bd 04 19 0d 3e
       -0.039165553 0.035666008 -0.036915302 0.13779074
000020 e9 7e ef 3b 89 f7 a0 bd c4 5b 96 bd 43 55 c9 3c
       0.00730883 -0.078597136 -0.07341722 0.024576789
000030 b0 9e a5 bd a0 fe 98 3d 02 0d 05 3c 2d d1 c3 bc
       -0.08086908 0.07470441 0.008120777 -0.023903454
000040 b5 6b bb 3e 15 53 d5 3e 67 ae 5c 3e f4 3c 2a bd
       0.3660561 0.4166495 0.21550904 -0.041562036
000050 cf 1f 05 3e 42 b5 8a 3e 50 c1 06 bc 48 c4 a9 3c
       0.13000415 0.27091414 -0.0082248 0.020723477
000060 b5 d1 67 bd 42 73 69 3e 35 cb 53 3e 11 aa 61 3e
       -0.056596477 0.22797874 0.20682986 0.22037531
000070 83 d2 39 3d 78 59 a1 bc 84 97 d1 bd 01 6b a5 3e
       0.045366775 -0.019695982 -0.102339774 0.323082
000080 f2 f3 82 bd c5 af 74 3e a3 47 85 ba 2d ba fb 3b
       -0.06394185 0.23895176 -0.0010168444 0.007682106
000090 a9 5f bf 3e f6 3f c6 bd 7d e2 34 bd 7d 90 a6 bd
       0.3737767 -0.09680168 -0.04416131 -0.08133028
0000a0 1a ec a7 bc 2c 9f 53 bc 14 f3 c2 bc bc 34 8b bc
       -0.020498324 -0.0129163675 -0.02379755 -0.01699292
0000b0 f9 17 27 3d 6b 09 af 3d 73 5e 8a 3e 7e 17 12 bd
       0.040794346 0.08546718 0.27025184 -0.035666935
0000c0 0a b0 01 3e c4 6b 83 bd f5 97 b5 3c 97 47 4c bd
       0.1266481 -0.06417039 0.022167185 -0.04987296
0000d0 ac d2 e0 bc a1 6a 3b bd 0b 31 8b bd 14 ce bc 3c
       -0.027444206 -0.045755986 -0.067964636 0.023047484
0000e0 83 f8 32 3d cd ae 1a bd 53 c4 cb 3e 91 11 ef bc
       0.04369403 -0.03776436 0.3979822 -0.029183181
0000f0 28 b9 b6 bd 01 e8 02 bc 9e 6f a9 3e 6e 0a 20 3e
       -0.089220345 -0.007989884 0.3309297 0.15628979
000100 10 52 1a 3e a9 b6 68 bd 9c 7d c8 bd 05 18 dc 3d
       0.15070367 -0.056814823 -0.09789583 0.10746769
000110 01 89 fd 3d 31 3c 07 3b 62 a1 75 3e 88 c9 50 3c
       0.12379647 0.0020635242 0.23987344 0.012743361
000120 0a 63 0b 3d c8 bf ac bd c0 08 bd bd 20 8c 6a 3e
       0.034029998 -0.08435017 -0.092301846 0.22905016
000130 f8 28 ee bc e7 7d 91 3e 2d ab 22 bd 4b 9c c9 bd
       -0.02907227 0.28416368 -0.039714027 -0.09844264
000140 f5 0a 3c 3d cb 2d b7 bc 1d 64 a7 3e 90 01 57 bd
       0.045908887 -0.022360703 0.32693568 -0.052491724
000150 f2 6c be 3d 84 0f fd 3c d1 68 0f 3a 8a 60 57 bd
       0.092981234 0.030891187 0.0005470636 -0.0525823
000160 dd bf 7c 3d 2e 83 28 bd e4 ea 70 bd 8d 60 11 3e
       0.061706413 -0.041140728 -0.05881776 0.14196987
000170 64 57 a3 bc bf 3d 97 bc 01 11 28 bc e5 a8 6a 3d
       -0.019939132 -0.01846206 -0.01025796 0.057289977
000180 d7 b7 b0 3d 14 b8 f3 3d f2 76 71 bc 1a 6a 9d 3d
       0.08628815 0.119003445 -0.014737831 0.07686253
000190 b0 e5 79 3c 40 bf 3b 3b de d7 a2 3e 77 70 d4 3d
       0.015252516 0.002864793 0.3180532 0.103730135
0001a0 e9 a2 41 3e e3 60 3f bd 19 d9 b0 3d 58 e9 96 3e
       0.18909802 -0.046723258 0.08635158 0.29474902
0001b0 10 30 1b 3e 65 cc 54 bb fe 12 6b 3e b6 73 5e 3d
       0.15155053 -0.0032470461 0.22956464 0.05430957
0001c0 4a cd a7 3d 2c 07 b1 bd 25 9f 14 bd 12 4d dd bd
       0.08193453 -0.08643946 -0.036284585 -0.108057156
0001d0 65 29 f3 3d c9 64 97 3d c8 19 1e 3b bd d7 1a 3e
       0.1187313 0.0739227 0.0024124254 0.1512136
0001e0 bb 7d eb bd ba ec 28 3e d0 09 dc 3d 93 13 22 bc
       -0.114985906 0.16496554 0.10744059 -0.009892362
0001f0 c4 3a d0 bd 91 1c 87 3d 80 61 83 3d 06 cb 15 3d
       -0.10167459 0.065972455 0.06415081 0.03657057
000200 b9 21 74 bd e7 72 c3 3e c7 c3 2a 3e 20 25 f1 3d
       -0.059602473 0.381736 0.16676246 0.11774659
000210 ed b9 82 bd fb bb 56 3e ce cb 00 bb cd ba b2 3d
       -0.06383119 0.20970146 -0.0019652727 0.08727036
000220 a6 66 3c bc b4 77 8c 3c 18 52 26 3b 5c 91 83 3e
       -0.011499083 0.017146923 0.0025378522 0.25696838
000230 3a 64 09 bd 25 6b 89 bd 7c 2d 10 3e e2 b5 24 bd
       -0.03354285 -0.06709889 0.14079851 -0.04021252
000240 dd 5d 03 3d 13 e2 ce 3b 20 55 28 3d 90 2d 9b 3c
       0.032071937 0.0063135712 0.041096807 0.018942624
000250 79 a0 31 bd 3a ac 48 3e ab d4 85 3e 7d 84 f5 3d
       -0.04336593 0.19596949 0.26138815 0.11988161
000260 65 0a 53 bd d6 c4 01 3e b4 de a3 ba bc e6 53 bc
       -0.051523585 0.12672743 -0.0012502284 -0.012933429
000270 81 20 7b 3c e2 d3 61 bd 45 06 25 3e ea c5 90 bb
       0.015327574 -0.055133708 0.16115673 -0.0044181244
000280 16 82 92 bd 58 38 01 3e b7 46 e4 bd 5d 4f ee 3d
       -0.07153718 0.1261915 -0.111463 0.11636231
000290 86 60 58 3e 95 5e 32 3c 56 fa 28 3c 7a ab 19 3e
       0.21130571 0.010886808 0.010313591 0.1500682
0002a0 fc 0f af 3e 3e 2c d5 3c 41 f3 90 3e af 80 ba 3d
       0.34191883 0.026022073 0.28310588 0.09106576
0002b0 75 6d 20 bd 75 6c c7 3b 1d 76 97 3e 2c e7 c3 3d
       -0.039166886 0.006085927 0.295823 0.09565577
0002c0 ee db 83 bc 70 60 0f bd c1 70 b6 3b a8 00 a5 3e
       -0.016096082 -0.03500408 0.0055676405 0.32227063
0002d0 09 ef ed bc a3 e9 14 bc 93 b4 9d bd d2 c2 2d 3d
       -0.029044645 -0.009088906 -0.077004574 0.042422123
0002e0 88 b8 d0 bc 4b 49 41 bd 6f 3d 5f bd ad 6e 40 bd
       -0.025478616 -0.04718904 -0.054501947 -0.04698055
0002f0 60 28 2e 3e ed c3 9d bd 63 46 3c 3d 31 0d 34 3c
       0.1700759 -0.077033855 0.045965564 0.010989473
000300 11 97 0e 3d 4d c6 51 bd df c0 04 bd 5c 40 92 bd
       0.034812037 -0.051214505 -0.0324105 -0.07141182
000310 fa 0b 87 3e cb 0c cb 3e 98 60 ba bd d5 f0 f8 3d
       0.26376325 0.39658198 -0.09100455 0.1215531
000320 4a f6 46 bd 92 b6 4b 3e 17 e8 9c 3e 30 66 46 3e
       -0.048574723 0.19893864 0.3064582 0.19374919
000330 db 29 e2 3c 72 11 a8 bd 1f 7d 06 3e 33 8a 85 3c
       0.027607849 -0.082064524 0.13133667 0.01630125
000340 16 00 ac bb 71 07 36 3e 16 54 92 3e 24 f4 01 be
       -0.0052490337 0.17776276 0.28579777 -0.12690789
000350 57 9f 90 3e 2a 02 8e 3e d3 1c 53 3e 16 e7 00 3e
       0.28246567 0.27736026 0.20616464 0.12588152
000360 1d d3 16 bb ab d4 a7 bc 33 2d a6 3c b6 90 c0 bd
       -0.0023014017 -0.02048715 0.020285225 -0.094026014
000370 b2 d0 ef 3a bc 3b db bc 08 50 6f 3d c3 9d 60 3e
       0.0018296449 -0.026761882 0.058425933 0.21935181
000380 9e 6b 46 3d 6d 02 11 3c 30 93 62 3e b0 e9 4d 3d
       0.048442475 0.008850676 0.2212646 0.05027169
000390 88 73 85 3c 32 c2 ac 3e 93 10 68 bc 98 2c f1 3e
       0.016290441 0.3374191 -0.014164108 0.47104335
0003a0 5e 89 11 3e 6a b6 ab 3e 12 90 0a bc a6 7c 5d bd
       0.14212558 0.33537608 -0.008457201 -0.054073952
0003b0 8d b8 2a 3e 0d 8c 14 3c ed ec 89 3e a2 e3 df 3e
       0.16671963 0.009066594 0.26938573 0.43728358
0003c0 80 43 84 bd 79 3c 25 bd 5a 4e ef 3d b9 58 7d bd
       -0.06458187 -0.040340874 0.11684866 -0.06185219
0003d0 5e 54 9d bd 85 51 1d 3e 3f e6 b0 bd ed 43 76 bc
       -0.076821074 0.15363128 -0.08637666 -0.015030843
0003e0 36 5a 48 3d f8 08 dd bd 2b a1 9b bd 77 c4 8f bb
       0.048914157 -0.10792726 -0.075991 -0.004387434
0003f0 62 b3 c8 bc 46 97 9c bd 1d f5 49 3e 96 95 1d 3e
       -0.024499599 -0.076460406 0.1972241 0.15389094

actor.4.weight f4 [100, 256]
000000 35 6c 2d 3f 3e bc 50 3e fd 1e 31 3e 8d 4d bb 3e
       0.67743236 0.20384309 0.17296977 0.36582604
000010 f5 6b 7c 3e a7 c7 14 3f 95 b5 02 bb cb dc 73 3f
       0.24650557 0.58117145 -0.0019944657 0.9525878
000020 66 b1 5b 3f 24 02 1b 3e be d4 20 3f ba 43 f9 3e
       0.85817564 0.15137535 0.6282462 0.48684484
000030 3b 32 c2 3d b4 6c 36 3f ab e4 0a 3f c2 cd a7 3d
       0.09482237 0.7125962 0.5425517 0.08193542
000040 2d 93 89 3e 03 2d 15 be b9 21 48 3f 2c 75 af 3d
       0.268701 -0.14567952 0.78176457 0.08567271
000050 28 f5 d1 3e b5 1f ba 3e e7 95 86 3e 57 d2 76 3d
       0.41007352 0.36352316 0.2628624 0.06025919
000060 80 23 3d 3d 96 7d 22 3f 27 1a 62 3f 94 f1 34 3f
       0.046176434 0.6347288 0.88321155 0.7068112
000070 17 87 91 3f 74 f0 ca 3d 64 fb a8 3e 80 08 05 3f
       1.1369351 0.09909144 0.33004296 0.51966095
000080 68 57 a6 3c de 0d 37 3f ba b0 7f 3f f7 5f c5 3e
       0.02030535 0.71505535 0.9987904 0.38549778
000090 23 57 04 3f 9b f6 17 3f 0d b5 9b 3e e6 03 75 3e
       0.5169546 0.59360665 0.30411568 0.23927268
0000a0 5a 2e a7 3e 18 5a 06 bc 03 60 9f 3d 23 67 c3 3e
       0.3265255 -0.008200191 0.07781985 0.38164625
0000b0 37 89 ad 3e 4a 3f 4a 3f f9 b5 00 3f 23 5d 05 3d
       0.3389375 0.7900282 0.5027767 0.032559525
0000c0 95 29 0a 3f 69 d1 c9 3e 26 ba c8 3c 9b bf 96 3e
       0.539697 0.3941758 0.024502825 0.29443058
0000d0 0f a6 0b 3f 0d 50 47 3d 82 11 c8 3e 69 c3 88 3e
       0.5455026 0.048660327 0.39075857 0.26711586
0000e0 eb 12 d9 3d 71 b6 f4 3e 31 c5 5d 3e ca 4d 11 bc
       0.105993114 0.47795442 0.21657254 -0.008868644
0000f0 75 70 77 3e c4 14 64 3f de 5f 7d 3f f2 c0 8c 3e
       0.24163993 0.89094186 0.98974407 0.27490956
000100 72 30 af 3e e2 01 58 3f 8e 09 16 3f 1e d0 a2 3e
       0.34216648 0.8437787 0.5860833 0.31799406
000110 dd e9 05 3f 12 5a a1 3e 66 97 3d 3f 95 3f fc 3c
       0.5230997 0.3151403 0.7405914 0.030792037
000120 7f 4a 8b 3f 73 bb 20 3c a2 d4 55 3e 4e e6 06 3f
       1.0882109 0.009810316 0.20881894 0.5269517
000130 1c 0d 06 3e 9d 87 23 3e 28 b5 b0 3e 23 01 b5 3e
       0.13090938 0.15969701 0.3451321 0.3535243
000140 3a 2e 36 3f d6 7f c3 3c ae 23 a8 3e e2 0c ae 3e
       0.71164286 0.023864668 0.3283972 0.33994204
000150 7f 21 32 3f 11 82 49 3f a8 f4 77 bd 92 f4 62 3e
       0.6958236 0.7871409 -0.060536057 0.22163609
000160 9f da 23 3f 1c 7b 32 3d 20 5f c8 bd 7a f5 f4 3e
       0.64005464 0.043574437 -0.09783769 0.47843534
000170 d0 eb cb bc 55 59 8c 3e ae 84 32 3f fe d6 f5 3e
       -0.024892718 0.27411905 0.69733703 0.4801559
000180 53 43 3c 3f 1a e5 2e 3f e8 96 8f 3e 48 74 b7 3e
       0.7354023 0.6831833 0.2804482 0.35830903
000190 c8 6f 13 3f 00 ff 8b 3d 40 e8 09 3f d0 04 18 3f
       0.5759244 0.06835747 0.5387001 0.59382343
0001a0 cd 55 01 3f 13 a9 a0 3e b9 cf b3 3e 39 ac 40 3f
       0.50521547 0.31378993 0.35119417 0.7526279
0001b0 92 14 34 3f 2f 77 09 3f af 91 dd 3e cd 2a 28 3f
       0.7034389 0.53697485 0.4327521 0.6569031
0001c0 84 7a fb 3e f0 9d bc 3e c5 5b 4c 3c b5 7b 29 3f
       0.4911691 0.36839247 0.012473051 0.66204387
0001d0 88 9f 9f 3e 85 fd 2a 3f bc 66 33 3e eb ba 56 3f
       0.311764 0.6679309 0.17519659 0.83878964
0001e0 a8 f0 e3 3e 99 16 3f 3f d6 6e 89 3f 32 79 2a bd
       0.44519544 0.74643856 1.073695 -0.041619487
0001f0 03 3b cb 3e 46 0d 35 3f 00 1f fd 3e 17 a9 07 3f
       0.3969346 0.7072338 0.49437714 0.52992386
000200 dd 8b 52 3f ba 05 16 3f ee 1f 0a 3f fd d2 d0 3e
       0.82244664 0.5860249 0.5395497 0.4078597
000210 64 d6 c6 3e 43 3d 55 3f a6 ce 5d 3f 5b 16 29 3f
       0.38835442 0.832966 0.86643445 0.66049737
000220 aa c8 44 3e aa 76 69 3d e5 72 26 3f 05 91 01 3f
       0.19217172 0.056997932 0.65019065 0.5061191
000230 31 52 08 3f 27 c0 37 bd 51 1f 45 3f 33 b3 76 3e
       0.53250414 -0.044860985 0.7700091 0.24091797
000240 4a 72 a8 3e c2 34 3f 3e fd c1 43 bd 4a 98 50 3d
       0.32899696 0.1867247 -0.047792424 0.050926484
000250 5e 21 49 3e 81 6a f5 3d 70 fd 51 3f 28 2f 18 3f
       0.19641635 0.11983205 0.8202734 0.59446955
000260 39 aa 21 3e 2b d3 35 3f e1 b0 d7 3e 2d 78 e8 3d
       0.15787591 0.7102534 0.42127135 0.11351047
000270 34 56 0a bc e8 f4 7a 3e da 74 00 3f c1 57 03 3f
       -0.008443404 0.24507487 0.501783 0.51305777
000280 13 0b 69 3f 3b 64 1d 3f e4 ce e1 3e 57 9a 32 3f
       0.9103252 0.61481065 0.44103158 0.69766754
000290 8c 73 25 3f dd ed 7d 3f 7a 7e 56 3e eb d5 3a 3f
       0.64629436 0.99191076 0.20946684 0.7298266
0002a0 ca ae ec 3e f6 46 47 3f 00 b3 12 3f f9 2b 4f 3f
       0.46227103 0.7784265 0.5730438 0.8092647
0002b0 49 a8 89 bc b2 7d 21 3f 35 65 bc 3e dc dc 06 3f
       -0.016803877 0.6308242 0.36795965 0.52680755
0002c0 6e 59 27 3e 20 2b 23 3c 9a 60 3c bd ca ee ef 3e
       0.16342708 0.009959012 -0.045990564 0.4686187
0002d0 24 77 fe 3d ee bf 88 3d 71 d9 0e 3c 8a b1 69 3b
       0.12425068 0.06677233 0.008718834 0.00356588
0002e0 ae 08 5d 3e 38 35 9c 3d 22 8c 02 3f 14 d0 9a 3c
       0.21585342 0.07627338 0.50995076 0.018898048
0002f0 1c 22 cf 3e bf a0 30 3f 6c 80 96 3e d3 75 89 3d
       0.4045571 0.6899528 0.29394853 0.06711926
000300 42 e7 21 3f 81 8c 70 3f 29 ac f5 3e 3e 6d 47 3f
       0.63243496 0.9396439 0.4798291 0.77901065
000310 65 88 1b 3f 48 e5 44 3f 13 47 37 3f ca 05 32 3f
       0.60754997 0.76912355 0.71592826 0.69540083
000320 fe 94 8a 3c 6b 4d 05 3e 6c 41 15 3f b1 c0 83 3f
       0.016916748 0.13017814 0.5830295 1.029318
000330 ce 93 23 bd 93 a1 8d 3d 86 6e cc 3e c9 01 12 3c
       -0.03993588 0.069155835 0.39928073 0.008911558
000340 d9 f0 49 3e 34 66 b7 bd 10 4d 42 3f e4 a5 ff 3e
       0.19720782 -0.089550406 0.7589884 0.49931252
000350 16 43 1c 3e 79 8c e6 3e 9d 45 0f 3f 63 9a 85 3f
       0.15259966 0.45029047 0.55965596 1.043774
000360 ec 4d c0 3e d4 2a bf 3e f8 0f 28 3f ce d0 a5 3e
       0.3755945 0.37337363 0.65649366 0.32385868
000370 87 9b 4a 3f 07 9d c0 3e ed a2 51 3f cf 48 1a 3f
       0.79143566 0.37619802 0.8188923 0.6026735
000380 54 ed 5a 3f 28 90 39 3f 7e 11 7b 3f 4e ae c5 3e
       0.85518384 0.7248559 0.98073566 0.38609546
000390 83 26 39 3f ce 94 b9 3e ae c0 b0 3e be 08 cb 3e
       0.7232439 0.3624634 0.34522003 0.39655107
0003a0 29 16 81 3f 4c b1 f7 3d 5b 11 d8 3e 93 fd 0a 3e
       1.0084888 0.120943636 0.4220074 0.13573293
0003b0 e6 e3 6d 3f 0e f8 26 3f f7 86 5b 3f df 6e 9f 3e
       0.9292587 0.6522225 0.85752815 0.31139275
0003c0 98 c1 0a 3f fd b2 db 3c 00 44 36 3f 54 45 a9 3d
       0.5420165 0.026818747 0.7119751 0.082651764
0003d0 6f 4e 2a 3f f1 c8 04 3f 47 ae 75 3d 08 1d 14 3f
       0.6652593 0.5186911 0.059980657 0.578568
0003e0 fa bb 2d 3f 84 b7 f0 3e 58 25 87 bc c8 11 74 3d
       0.67864954 0.4701501 -0.0164973 0.05958727
0003f0 5d f0 5e 3f 0a 95 31 bd 35 ec 1d 3f cb 5b a1 3d
       0.87085515 -0.043355025 0.6168855 0.07878836

actor.4.bias f4 [100]
000000 5a c8 d7 3e 17 f4 1b 3f 22 59 17 3f c3 c8 31 3f
       0.42145044 0.60919327 0.5912038 0.69446963
000010 d2 29 a9 3e c5 de 0b 3f d1 05 d5 3e 08 da 8e 3e
       0.3303972 0.54636794 0.41606 0.2790072
000020 a4 5f ce 3e e5 94 9e 3e 64 d1 8e 3e ea 74 b0 3d
       0.40307343 0.30972973 0.27894127 0.086160496
000030 88 3a 99 3e 7b 20 17 3f ea bf f3 3e 76 6c c4 3e
       0.29927468 0.59033936 0.47607356 0.38364
000040 6b cd e6 3e f1 40 ff 3e 0b e3 17 3f bf ed c4 3e
       0.45078596 0.49854234 0.59330815 0.38462636
000050 5d 87 07 3f 85 47 0d 3f 68 dc d3 3e 1d 49 1d 3f
       0.5294092 0.55187255 0.41379094 0.61439687
000060 dd 5b f1 3e 08 dc fa 3e b8 e8 1d 3f 05 cd b9 3e
       0.471404 0.48995996 0.61683226 0.3628923
000070 f3 95 9b 3e 1b 3a aa 3e c0 9a 96 3e 93 5c e5 3e
       0.3038784 0.33247456 0.2941494 0.4479719
000080 d6 56 cf 3e ba 9d a5 3e 18 62 e0 3e e5 d7 1a 3f
       0.40495938 0.32346898 0.4382484 0.6048568
000090 3d 28 f1 3e a1 5f 19 3f 67 25 93 3e 58 a9 8b 3e
       0.47101012 0.59911543 0.28739473 0.27277637
0000a0 9f 44 f7 3e 29 d7 04 3f 1d 83 dd 3e 57 f5 28 3f
       0.4829454 0.5189081 0.43264094 0.6599936
0000b0 d0 1b c9 3e c1 1c 02 3f 96 e6 cd 3e 9c 4f 08 3f
       0.39279032 0.50825125 0.40214986 0.53246474
0000c0 0b d6 11 3f 61 60 71 3e 13 04 bb 3e c8 d8 1a 3f
       0.5696723 0.23571922 0.36526546 0.6048703
0000d0 40 21 27 3f 03 ac 1d 3f 76 6a 33 3f 3d 0b 39 3f
       0.6528511 0.61590594 0.7008432 0.72282773
0000e0 d0 23 23 3f 44 d8 0b 3f 39 f3 00 3f 18 d0 01 3f
       0.6372652 0.5462687 0.5037113 0.5070815
0000f0 d2 61 c0 3e af 17 e3 3e 17 cd e4 3e fd 82 80 3e
       0.3757463 0.44354007 0.4468772 0.25099936
000100 94 30 23 3f 87 7b 0c 3f 03 35 42 3f 9c 93 97 3e
       0.63746 0.5487599 0.7586214 0.29604805
000110 6b 78 dc 3e d8 fb 1d 3f 84 85 e4 3e 0b 06 14 3f
       0.43060622 0.6171241 0.44633114 0.5782172
000120 04 b4 13 3f 99 bc 42 3f c9 b6 c2 3e a3 4a 43 3f
       0.5769656 0.7606903 0.3803008 0.7628576
000130 e6 0a 1a 3f df 65 88 3e ac 87 96 3e be 35 dd 3e
       0.6017288 0.2664022 0.29400384 0.43205065
000140 6f d4 c6 3e ad 7e c6 3e 56 fe 07 3f 86 5f 0a 3f
       0.3883395 0.3876852 0.5312246 0.5405201
000150 2e 64 bc 3e e0 1f 80 3e aa b7 08 3f 6b 81 f8 3e
       0.3679518 0.2502432 0.5340525 0.48536238
000160 32 be f3 3e 89 5a 02 3f da f7 05 3f c7 85 df 3e
       0.47606045 0.50919396 0.52331316 0.43656752
000170 b7 45 ca 3e a4 56 24 3f b2 bf dc 3e d3 3c db 3e
       0.39506313 0.64194703 0.43115002 0.42819843
000180 11 89 f9 3e b1 64 ef 3e 54 ca 57 3e 8e a9 0e 3f
       0.48737386 0.4675651 0.21073276 0.5572747
