agent2/ppo/actor/actor.pth (torch, 471367 bytes, 6 tensors)

actor.0.weight f4 [256, 100]
00000000: 5536 bfbe eb54 86bd e8b0 67bc 0619 2abe
00000010: 247a 24be b626 4d3e 7dce f83d a6f4 e13d
00000020: f2de 12bd e4d8 703e 21eb 91bc eadb b03d
00000030: c4c0 b0bd d1df ce3c 5ce6 7d3c a93f 143e
00000040: 015a 9f3e 2a2e b2bd 5e26 123e 3001 223d
00000050: dc89 fcbd 78ed 383e 6f38 81be 3e7f 2a3e
00000060: 9dc9 7f3e 0721 5bbe 6a59 5abe f8f7 453e
00000070: c907 143e e0c4 29be 88fb 163e 250c da3d
00000080: 6d88 86bd 0a7e 763d f503 febd 34c5 213e
00000090: 6d7c 37ba 90db fabc 3f84 70bd e250 373e
000000a0: 3fd2 b33d 0f6a 80be 16f4 5e3e c8fd 40bc
000000b0: e3ad 0d3d 6d75 3dbd e97e 9c3c 5822 07be
000000c0: b133 3dbe 060c d9bd 1495 a03d 4002 373d
000000d0: 3454 01be e685 b63c 8c55 4fbd d590 9538
000000e0: 4277 da3c 3119 7c3c e633 a83c c563 763e
000000f0: c0d2 70bd 56b8 1abe b81b f4bd 745e 5f3d
00000100: 6df0 94bc 554e d539 f724 913e 83ea 5dbe
00000110: ec31 81bd 2958 0e3e a055 f23d 2b7c 9e3d
00000120: aa6f 403e 3907 f13c a29d 163d 236c 50be
00000130: 3027 25be bbe4 a43e 0b65 74be 2953 ad3d
00000140: 3569 9dbe a66a 4d3e 6cc4 70be 4286 e5bd
00000150: 79f9 c53d 32d0 22bd 6cd5 98bd e1ee 9a3e
00000160: 2c54 fcbd 9435 b1bd 1b9f 04be 4eb6 583c
00000170: 37e8 b5bc ae9f 773e 3ee7 64be 7f5d a8bd
00000180: 7a7d 24bc 9140 b5bd 388e 7a3d 052c 14bd
00000190: f20c d33d a916 5d3d 833f 22be eef3 c0bd
000001a0: cdc4 1dbe 4472 86be f824 6c3d fc85 a4bd
000001b0: d17e 41bd c3b0 82be 44f4 22bc b1df 68bd
000001c0: 5f45 debd 1ec2 f1bd 3ba6 06be ae92 05bd
000001d0: 59da b5bd 38f3 60be 8662 013d 7f37 4ebd
000001e0: 2735 34be 8cc6 663e 911d 9bbc 531a 22bd
000001f0: 827b 42bc 461d 25bc 0f3d 853d a282 6fbd
00000200: 5b59 b13d 60e4 d53b 37df 193e 3713 f13d
00000210: f6ba 223e 32a6 52bd 858e 2a3a 2c0c 6d3e
00000220: 1ab2 283e 2b34 4d3c d762 883c c8af 2b3d
00000230: c9eb 48be 7e6e c63e daeb 7fbd 3c19 34be
00000240: efc9 9c3d 14e9 3d3e 27a8 dabc 930a c43d
00000250: 5903 a23d 63e2 b5bc bce8 303a dd31 f73c
00000260: 50d1 183c 325d 843d c6bb 55be c4d3 0ebe
00000270: 06f8 493d 8930 173e b4d7 88be df91 26be
00000280: 5162 a53d c9dc f8bd 2a32 d2bc 2192 56be
00000290: eaff 59bd 89d2 5a3e 12ff e83b b78c 9f3d
000002a0: 677a b4bd b26d 543e 1690 213e fecc c73d
000002b0: 9d19 18bd 3c5c 41bd 92ff b43d 62cf 4fbd
000002c0: 4c8c 813d f6a0 463d 6408 1abd 5f2e 453e
000002d0: fef7 1d3e f198 3cbd ca8d 323b 0e0c 37bd
000002e0: 2357 b33c d903 01be 52b4 39bd 3089 f53d
000002f0: d835 5dbe 845c 4abb 8993 bf3c cfd7 bd3d
00000300: 04e1 c4bd dfff 4d3e 2205 813d d1d1 d5bd
00000310: 242d 91be 7911 aa3b 250a f83d ab4b a4bd
00000320: 7b3c f33c 197c 293d d664 6a3e 9849 3ebd
00000330: 42ee 2ebe ec75 52be 3461 aebd 0473 81bd
00000340: da12 6d3d d245 efbd d9f8 c13b 674c 35bd
00000350: d777 1c3d 315f 7a3e 0548 90bd 7900 2b3e
00000360: bdbf 66bd 93fb d73d 655a 7b3e 4b51 86bd
00000370: a8f9 e3bd 123a 193e 2df0 ebbd a329 c73d
00000380: 8e25 1bbe 17fa e13d 30d9 583d 1130 65bd
00000390: 5327 cabc b180 093e 40ae e1bd c28f 61bd
000003a0: 1c00 d83c 47be 213d 7da6 4f3e c07b 83be
000003b0: 693c 983c 424f d0bd a95e a2bd af88 933d
000003c0: d0f6 bcbe 20a0 583d 7ccd a4bc 0018 833e
000003d0: b20a dbbd 03eb 25bd 7d04 30bc 481a 3bbc
000003e0: 0e39 50bb 5142 cd3e b770 2f3e 73d0 0dbd
000003f0: 8ef4 c63e c688 343e 0de1 543e 401b 91be
-0.3734614 -0.065591656 -0.014141299 -0.16611108 -0.16062218 0.20034298 0.121487595 0.11032991
-0.03585715 0.23520237 -0.017812314 0.08635695 -0.08630517 0.025253208 0.0154968165 0.1447741
0.31123355 -0.08700211 0.14272448 0.039551914 -0.12330982 0.18059337 -0.25238368 0.16650102
0.24979253 -0.21399318 -0.21323171 0.19332874 0.14456095 -0.16579008 0.14744389 0.10646848
-0.0656899 0.060178794 -0.124030985 0.15797883 -0.0006999437 -0.030622274 -0.05871987 0.17901948
0.08780336 -0.25080916 0.21772799 -0.011779256 0.03458966 -0.046254564 0.019103484 -0.13196695
-0.1847675 -0.105979964 0.078409344 0.04467988 -0.12629777 0.022280645 -0.050618693 7.131851e-05
0.026668195 0.0153868655 0.02053256 0.24061497 -0.058794737 -0.15109381 -0.119193494 0.054533437
-0.01818105 0.00040684888 0.28348514 -0.2167149 -0.0630835 0.13900818 0.11832738 0.07738527
0.18792596 0.02942239 0.036771424 -0.20353751 -0.1612823 0.32205757 -0.2386667 0.08463127
-0.3074433 0.20060214 -0.23512429 -0.11207248 0.09666724 -0.03974933 -0.07462582 0.30260375
-0.12320742 -0.08652797 -0.12951319 0.013227059 -0.022205455 0.24182007 -0.22353837 -0.08220958
-0.010039682 -0.08850206 0.061170787 -0.036174793 0.103052035 0.05397669 -0.1584454 -0.09421526
-0.15407105 -0.26259053 0.057652444 -0.08033368 -0.047240082 -0.25525483 -0.009945933 -0.056853954
-0.10853075 -0.11804603 -0.1314935 -0.032610588 -0.08879537 -0.2196778 0.0315881 -0.050345894
-0.17598401 0.22536677 -0.018934997 -0.039575886 -0.011870267 -0.01007778 0.06505787 -0.05847419
0.08659621 0.0065274686 0.15026556 0.11771243 0.15891632 -0.051428027 0.00065062224 0.23149174
0.1647419 0.012524645 0.016648693 0.041915685 -0.19621195 0.38756174 -0.062480785 -0.17587751
0.07655703 0.18545943 -0.02669151 0.09572329 0.07910795 -0.022202676 0.00067485473 0.030175144
0.009327248 0.06463088 -0.20872411 -0.1394797 0.0493088 0.14764608 -0.26727068 -0.16266583
0.08075393 -0.121514864 -0.025658686 -0.20954181 -0.053222574 0.21369375 0.007110485 0.07790511
-0.08812409 0.2074497 0.1577762 0.09755896 -0.0371338 -0.047207102 0.08837809 -0.050734885
0.06325588 0.048493348 -0.03760566 0.1925597 0.15426633 -0.046044294 0.0027245157 -0.04468923
0.021892136 -0.12599124 -0.045337982 0.11989057 -0.21602571 -0.0030877898 0.02338578 0.09269678
-0.09613231 0.20117138 0.06299807 -0.1044041 -0.28354752 0.005190071 0.1211131 -0.08022245
0.029691925 0.041378114 0.22890028 -0.046456903 -0.17083076 -0.20552796 -0.08514634 -0.063207656
0.057879306 -0.11683239 0.0059195575 -0.044262316 0.038200226 0.24450375 -0.07044987 0.16699399
-0.0563352 0.10546031 0.24546202 -0.06558474 -0.111316025 0.14963558 -0.11520419 0.097247384
-0.15151045 0.11034029 0.0529415 -0.055954043 -0.024676954 0.13427998 -0.11019564 -0.05506874
0.02636724 0.039488103 0.20278354 -0.2568035 0.018583493 -0.10171367 -0.07928211 0.07203805
-0.36907053 0.052887082 -0.020117514 0.25604248 -0.10695399 -0.040507328 -0.010743258 -0.01141984
-0.0031772288 0.40089658 0.17132841 -0.03462262 0.38858455 0.176303 0.20788975 -0.28341103

actor.0.bias f4 [256]
00000000: bac7 bf3d 2f3e 59bd a2fe 66be f1e0 5bbc
00000010: 95c6 9dbb a857 223e e4d6 803b bd99 1fbe
00000020: 8120 babd 69be b73d 4c62 10be b2db b83d
00000030: 94b1 bdbd 4311 1dbe bf82 13bd b709 05be
00000040: 6a6d 6ebc 5210 1a3b 778b 49bd 359a e23d
00000050: 9774 5e3d e311 14be 401a 02be dc3c 18be
00000060: a767 5f3e d393 973d 1075 103d 279c cabc
00000070: 4e71 a0bd a16d a23d 8a54 4ebe 85e5 4abe
00000080: fd8e b6bd 1dce 07bd bc4a aebd 7a41 cebd
00000090: 4da1 0b3e 8cab c03d 7824 e4bc 9313 89bd
000000a0: 147e 08be a3b0 b1bd 4a8a 183d cd7a 0f3e
000000b0: a6e6 d33d 977f 0c3e 4276 02be 6a3d b2be
000000c0: e83f 2fbe 6bb1 05bd 636b a2bc bdd3 d6bd
000000d0: 4900 15be ab41 c8bd 618d 01be ec89 813d
000000e0: 1eaa 3fbd a043 93bd a079 8bbd 0b97 52be
000000f0: 7c11 0e3d d3a0 d4bd cdc1 77be e4f1 95be
00000100: 0f57 543e ebaf 4cbc 9115 ddbd db18 383d
00000110: cdce 3bbd 152c 45bd e5b1 5cbd 4be7 42be
00000120: e6e5 803d cd1e c9bd cb0a 0ebe bfc1 223e
00000130: 86cd 26be a121 1d3e 5324 06bd 8174 67bd
00000140: 7af7 2ebe 783a 31bd 87e0 84bd 2e92 5bbd
00000150: d364 e7bc 2ee8 30bd a79e 29be 53ed 0cbd
00000160: dc97 d2bd c5e0 9fbd bfa3 f1bc 95a3 5dbc
00000170: 0d3a 003e c9c2 ebbd f6d3 f73d 6ad9 04be
00000180: d2c5 1b3d 861c 313e 9364 9dbc 48df 363d
00000190: 39d5 b6bd 8055 61bd 8cc5 dabd 4069 41be
000001a0: 1c13 303e 5e0a 6f3d 0e5d 2d3d b8df 46bd
000001b0: fc36 08be 86d5 7fbd dfb0 89bd 4eaa 01bd
000001c0: 2471 04be f9a0 48be 31c6 2dbe e440 06bc
000001d0: f8a3 67be 1af3 b1bd 65de 4d3e 47ae 4dbc
000001e0: eda5 1c3e 44ee b5be d373 063d f416 c13d
000001f0: f888 26be c89b 123d 8c9b 1dbe 31c0 ef3d
00000200: 3430 a4bd 8b31 3cbe 0803 73bc 1364 63bd
00000210: 6300 0e3d 6ab1 66bd 1d16 1bbe 4879 a83d
00000220: 24eb 4cbd bcee 76bc cf3f 08be da3f c4bd
00000230: 185c 32bc a3be 6abd d707 2ebd b5ea 42be
00000240: 5037 813e cdce d3bd 154e e6bc 4732 68bd
00000250: 4435 a53e d276 a6bd 0363 3cbd 4b5d 4dbe
00000260: 3a4b f03d 9365 303d 6dd0 273e 3342 50bd
00000270: 57a8 01be b55f e4bd c6a7 d3bc dad6 af3d
00000280: 2d8b cdbd 02fb 88bd 21f3 33be e79b 253c
00000290: e526 9bbd e539 753d 72cb 0c3d ec2d ecbc
000002a0: f292 00bd 046d 7a3c 0a04 a1bd 1ed6 dfbd
000002b0: b8ff f4bd 0401 85be da84 66bd 9b8b 85bd
000002c0: 11e9 073e d50e b0bd 3f23 0b3d a57f b8bc
000002d0: 359e 1abe ca82 9cbc 3d2d cd3a 4cc1 cdbd
000002e0: df2f d9bd 7882 e1bc e703 5fbe e13b 6ebe
000002f0: 1e14 66be 035a 353e f6e1 ebbd 8a54 3ebe
00000300: 2868 053d 3049 35be 974b 173d f160 6cbd
00000310: 0e49 5bbe 3c97 023d 1efa 09be 0931 28bd
00000320: 314e bfbd eed7 63bd e409 103e 8514 4bbd
00000330: aad3 703d 92d7 7f3d acdb 8dbe 8080 1ebd
00000340: ed55 ab3d d35d 1b3e e4c9 febd 0caa cc3c
00000350: 8ce7 0fbd 943e 183e 8afe b8bd cbfc 903d
00000360: d9c7 e2bd 7386 04be ca8d 8c3d 07e7 82bd
00000370: f810 7b3e d2f4 17be 8470 b2bd 86c3 f9bc
00000380: 21b1 17bd 7f87 843d 2509 4d3e 6a49 cdbd
00000390: 2ce5 b4bd 1e56 60bd 312e a0bd 3700 9e3d
000003a0: ea66 3dbe 0062 84bd b7eb fabd c7b8 c13d
000003b0: 48a0 64bd b3ef 01be 003c eebd 5257 a9bd
000003c0: 942f 16bd 28a9 58bd 688c 31be bd35 d4bd
000003d0: adfa 32bd d2ae 1dbe 536f 2dbd 29bc 1abe
000003e0: e90b 1b3e 66c4 edbc 509b 1dbe c00a f3bd
000003f0: 524d 3bbd e797 013d bec4 a23d c1b8 4dbd
0.09364267 -0.05303782 -0.22558072 -0.013420329 -0.0048149326 0.1585375 0.003931867 -0.1558599
-0.09088231 0.08971865 -0.14099997 0.090262786 -0.09262386 -0.15338616 -0.03601336 -0.12991987
-0.0145524535 0.0023508263 -0.04920527 0.11064569 0.054310407 -0.14459948 -0.12705326 -0.14866966
0.21816884 0.07401242 0.03526789 -0.024732662 -0.07834111 0.07931066 -0.20149437 -0.19814117
-0.089139916 -0.03315555 -0.08510348 -0.100710824 0.1363575 0.0940772 -0.02784942 -0.066931866
-0.13329345 -0.08676269 0.037241258 0.14011689 0.10346727 0.13720547 -0.12740424 -0.3481248
-0.17114222 -0.032639902 -0.019826597 -0.104896046 -0.1455089 -0.0977815 -0.12651588 0.06325135
-0.046793096 -0.07190633 -0.068103075 -0.20565431 0.034684643 -0.10382237 -0.24195023 -0.2928611
0.20736335 -0.012493114 -0.10795129 0.04494558 -0.045851517 -0.048137743 -0.05388059 -0.19033544
0.0629385 -0.09820328 -0.13871305 0.15894221 -0.16289338 0.1534486 -0.032749485 -0.05650759
-0.17086592 -0.04326865 -0.06488138 -0.053606205 -0.028246319 -0.043190174 -0.16564427 -0.034406018
-0.10282871 -0.07806543 -0.029497026 -0.0135277705 0.12522145 -0.11511762 0.12100975 -0.12973562
0.038030453 0.17296037 -0.019212997 0.04464653 -0.08927388 -0.05501318 -0.1068221 -0.18887806
0.1719479 0.058359496 0.042325072 -0.0485532 -0.13302225 -0.06245949 -0.067231886 -0.031656556
-0.12933785 -0.19592656 -0.16970135 -0.008194182 -0.22621143 -0.08688946 0.20104368 -0.012553758
0.1529767 -0.35533345 0.032825302 0.09428206 -0.16263187 0.035793096 -0.15391368 0.117065795
-0.080170065 -0.18378274 -0.014832266 -0.05551536 0.034668338 -0.05632154 -0.15145154 0.082262576
-0.050028935 -0.015071567 -0.13305591 -0.09582491 -0.010886215 -0.05731071 -0.042487945 -0.19034846
0.25237513 -0.103421785 -0.028113404 -0.056688573 0.322672 -0.08128132 -0.045992862 -0.2005512
0.11733098 0.04306562 0.16388102 -0.050844382 -0.12661873 -0.11151067 -0.025836837 0.085859016
-0.10036311 -0.06688501 -0.17573215 0.010107971 -0.07575778 0.059869666 0.034373708 -0.028830491
-0.031390138 0.01528478 -0.078620985 -0.109295115 -0.11962837 -0.25977337 -0.05627904 -0.06520768
0.13272502 -0.08596579 0.03396916 -0.022521803 -0.15099414 -0.019105334 0.0015653741 -0.10046634
-0.10604834 -0.027528033 -0.21778832 -0.2326503 -0.22468612 0.17710118 -0.11517708 -0.18586937
0.032570034 -0.177037 0.036937322 -0.057709638 -0.21414587 0.03188251 -0.13474318 -0.04106239
-0.09341086 -0.05562585 0.14066273 -0.049580116 0.05879561 0.062461443 -0.2770666 -0.038696766
0.083659984 0.1517251 -0.12440851 0.024983428 -0.03513293 0.14867622 -0.090329245 0.070794664
-0.11073274 -0.12941913 0.068629816 -0.06391721 0.24518192 -0.14839485 -0.08712867 -0.03048874
-0.037034158 0.06471156 0.2002302 -0.10023768 -0.088327736 -0.054769628 -0.0782131 0.07714885
-0.1849629 -0.064640045 -0.1225199 0.094590716 -0.05581692 -0.12689094 -0.11632538 -0.08268608
-0.036666468 -0.052895695 -0.17338717 -0.10361812 -0.043696094 -0.1539872 -0.042342495 -0.1511084
0.15141262 -0.029024314 -0.15391278 -0.11867285 -0.045728035 0.031639006 0.07947682 -0.050225023

actor.2.weight f4 [256, 256]
00000000: b180 27be 81fa 46be a114 80bd d091 d0bd
00000010: 983c 733d f706 363e 7037 46bd 8b23 07be
00000020: 13b7 aebe f3d4 173d a335 62bd fd63 35be
00000030: 87c9 23be 098c 08be 8d78 b63d 671f 2e3c
00000040: ec7a 3bbe e912 cdbd b36f 7abd bd11 043e
00000050: 54d3 d6bd b739 04bd bb74 d6bd 5e32 9bbd
00000060: b44d db3d 764b 233e 0c95 73be 7769 8bbe
00000070: 6b72 96bd 9fc4 afbd 8db9 1cbe f791 693d
00000080: 7dd9 b3bd a9c5 69bd fa4b b2bd 6471 27be
00000090: ee4d ee3d 4bbe 0ebe c799 5abd 26a9 82bc
000000a0: 03ea 8abd 5e19 cdbb aa48 0b3d b983 b8bd
000000b0: 8575 23be 013e 0abd 66d2 bf3d 80ca 6e3e
000000c0: 7c31 153d c417 ec3d 4c72 3bbd 3ecb 4d3d
000000d0: a187 54be f09c 773c 2fc4 c33b 96c9 a53d
000000e0: 6d13 45bc 9d37 5abe ecfe 8ebe fc06 a9bd
000000f0: d8f3 debb e8f6 583d 606d a7bd 3bf5 aa3d
00000100: 3d8a d9bd be08 e7be 5e74 a73d 0ca2 543d
00000110: 5ab6 ccbc d494 7cbc aad5 8dbe 1137 e33d
00000120: 5195 fcbd c16d 5a3d 22a7 77bd 0a75 6d3e
00000130: bc41 f8bd 1231 823d 3473 dbbd 9c5d e7bd
00000140: b175 8fbd 60b9 97bd 1242 c93c 8eee ea3b
00000150: 7caa c9bd e787 10bd dd5b edbd 1029 82bd
00000160: 481d 4fbe 3518 eebd bbb4 c1bd 2687 d1bc
00000170: 8fc8 89be 855f 11be 44ad 4cbe 9d92 3c3d
00000180: 84bd cfbd c18d a8bd 1e6e c8be deaa 84be
00000190: 1f59 b63d e97a 22be f97e 27be 8255 a3bd
000001a0: 142a 9cbd 0f49 b43d e882 903d 109b f0bd
000001b0: 1b57 8abd 8135 413c 456e debd 41da cebd
000001c0: 2968 c33d 42fc 71bb 01f3 0bbe 30a5 94be
000001d0: c37f 8ebe b83b b1bd b545 8dbb 043f 89be
000001e0: 47e2 823d 43f8 723d 2196 25be 2c5f aa3d
000001f0: da95 b53d 0cbd 5bbe 87d3 b6bd ccd8 9cbd
00000200: efa7 d0bd 7998 f6bd 6a26 9d3d d3dd 2d3e
00000210: 03ce 9cbc c2da a23d f7e5 513b ab66 0dbe
00000220: 0efa 353d c620 a8be da3c 9dbb 913f 3b3d
00000230: af2d 5e3d 2fac 9cbd 0af7 20bd f7ba b2bb
00000240: 717f 1bbe 2e93 be3b 8f09 c83c 516e 0f3e
00000250: 1858 36bd 7d78 273e bb9c 12bd a94f 88be
00000260: 5491 be3d 16a7 c6bd 7c87 27be 4adc 85bd
00000270: 0da7 cbbd e309 af3d aebc ef3d dba8 333d
00000280: d234 29be 9d44 a33b 61cd 42be 44e7 f2bd
00000290: f778 ac3d 3417 b3be c4ea f53a 7055 bdbd
000002a0: b4b3 5b3e 8b3f 053d 2936 07be 3024 3abe
000002b0: 3530 87bc 96cd b2bd cac1 0ebe 0e4a d53d
000002c0: 395a 28be 87dd c63b a820 bcbd edae 2cbe
000002d0: 679d 40be 5665 59ba ad3f 053e 924e 41be
000002e0: e62d 12bd 860a 1dbd 38d9 dbbb 88d1 c3bd
000002f0: 3235 98bd 2e94 943d 55c3 25be ee37 123d
00000300: 6be3 34be cb6a aa3d bc1f 3fbe 71bc babd
00000310: 05cc 8ebd ac15 0abe ed2b 08be 4831 51bb
00000320: 9500 02be 14a3 343d 46d7 41bd 52d0 ba3d
00000330: 6769 393e 880d 84bd d3e2 55be ae94 c0bd
00000340: 5096 a3bd 6f67 ae3d 9c91 afbd 6bbd a73d
00000350: f5c4 8eba b919 28bd bcc2 9e3c bc98 d9bd
00000360: b387 45bd 4e91 9bbd 54a2 9cbd 4129 eabc
00000370: d624 97bd 3d07 0cbe aacf 453b 850b f5bc
00000380: 3462 adbd 9020 a13d 1b7f 6fbd d930 01be
00000390: f8f5 24bd 3dda dcbc 2fbd d5bd 5c29 363d
000003a0: 6fb0 36be 84ed cc3c 3a3c debd 81ed 90bd
000003b0: f9d0 4bbe 7204 5f3d dd6a 2abe fe7c 6dbe
000003c0: 161f 3a3d 1a58 00bd 4692 1d3d d080 1b3e
000003d0: 4af3 3cbe 051b 3a3e 9edf 6cbe 44d7 143d
000003e0: 9dcd 02bd 2bdb c33a d89c 3ebe 8e7f 323d
000003f0: db53 e6bc fa8c c3bd 3352 90bc 044d 7cbd
-0.16357686 -0.19431497 -0.06253935 -0.101840615 0.05938396 0.17776094 -0.048392713 -0.13197152
-0.3412405 0.03706832 -0.055226933 -0.17713924 -0.15994845 -0.13334669 0.08909712 0.010627604
-0.1830861 -0.100133725 -0.06114168 0.12897392 -0.104895264 -0.032281604 -0.10471483 -0.07577966
0.1070818 0.15946755 -0.23787326 -0.272289 -0.07346042 -0.08582424 -0.15305157 0.05702397
-0.08781717 -0.05707327 -0.08705898 -0.16351849 0.11635958 -0.13939779 -0.05336931 -0.015949797
-0.067829154 -0.0062591275 0.034004845 -0.09009499 -0.15962799 -0.033750538 0.09366302 0.23319435
0.036424145 0.115279704 -0.0457633 0.050242655 -0.20754863 0.0151131 0.0059743146 0.0809509
-0.012028557 -0.21310277 -0.27928865 -0.08253285 -0.006803971 0.052969843 -0.081751585 0.08347555
-0.1062207 -0.45123857 0.08176492 0.051912352 -0.024989296 -0.015416343 -0.27702075 0.110944875
-0.12333167 0.053327326 -0.060462125 0.23189178 -0.12121913 0.06357016 -0.107153326 -0.112971514
-0.0700487 -0.07408404 0.024567638 0.007169551 -0.098469704 -0.035285857 -0.11589787 -0.06355488
-0.20226014 -0.11625711 -0.094583 -0.02557714 -0.26910827 -0.14196594 -0.1998797 0.04603826
-0.10143569 -0.082301624 -0.39146513 -0.2591161 0.08903717 -0.15867199 -0.1635703 -0.07975294
-0.07625213 0.08802997 0.070562184 -0.11748326 -0.06754895 0.0117925415 -0.10860876 -0.101002224
0.09541351 -0.003692404 -0.13666917 -0.29032278 -0.2783185 -0.086539686 -0.0043112882 -0.2680589
0.06390815 0.059318792 -0.16170551 0.08318934 0.088664725 -0.21458834 -0.089270644 -0.07658538
-0.10188281 -0.120408006 0.076733425 0.1697915 -0.019141203 0.07951881 0.003202794 -0.13808696
0.044427924 -0.32837504 -0.004798514 0.04571492 0.054242786 -0.07650029 -0.039298095 -0.005454417
-0.15185334 0.005815885 0.02441862 0.14006926 -0.044517606 0.16354556 -0.035794 -0.26623276
0.09305063 -0.09699838 -0.16360277 -0.065361574 -0.09943972 0.085468076 0.1170591 0.043862205
-0.16524056 0.0049825446 -0.19023658 -0.11860517 0.0842151 -0.3497864 0.0018761982 -0.092448115
0.2145527 0.032531302 -0.13204254 -0.18177867 -0.01650248 -0.08730619 -0.13941112 0.104145154
-0.16440667 0.0060688886 -0.09185916 -0.16863604 -0.18810044 -0.00082929933 0.13012572 -0.18877628
-0.035688303 -0.038340114 -0.006709244 -0.09561449 -0.07432021 0.072548255 -0.16187795 0.03569787
-0.17664878 0.083211504 -0.1866445 -0.091179736 -0.069725074 -0.1348483 -0.13298006 -0.0031920243
-0.12695535 0.044100836 -0.04732444 0.09121765 0.18106614 -0.064478934 -0.20887308 -0.094033584
-0.07987654 0.08515822 -0.08572695 0.081904255 -0.0010892438 -0.041040156 0.019379966 -0.10624835
-0.048225116 -0.07596074 -0.07648149 -0.028584125 -0.07380073 -0.13674636 0.0030183592 -0.02991272
-0.084659964 0.07867539 -0.058470827 -0.1261629 -0.040273637 -0.026959533 -0.104364745 0.044473037
-0.17840742 0.0250156 -0.10851331 -0.0707655 -0.19903935 0.0544476 -0.16642328 -0.23192212
0.045439802 -0.03133402 0.038469575 0.15185857 -0.18452182 0.1817437 -0.23132178 0.036338106
-0.03193437 0.0014942636 -0.18614519 0.043578677 -0.028116157 -0.095483735 -0.01761732 -0.061596885

actor.2.bias f4 [256]
00000000: bb5f 23bc 9312 8a3e 4433 5f3d 4515 493e
00000010: d60f ae3e c311 42bd 4966 10bc 0de7 efbc
00000020: 0cde 253e b8db 85bd 48d4 8cbd 13b1 043e
00000030: 0790 9c3d 2dfe 593d 8b4a a9bc ae01 073e
00000040: 615a 2a3d 16e4 c9bc 836d 8a3d e6ae e5bc
00000050: 4216 803e 406b 66bd 1724 b9bd b948 52bd
00000060: 19c9 ad3d 7c19 3f3d 8b4a 0a3e e6f3 033d
00000070: 9e90 95bc f70d 0bbd cfa8 7d3e af71 3f3e
00000080: 7720 7d3d 4b7a aa3d b6c3 963d 705e b73c
00000090: fa1f 133e 0bd6 023e cb6d 7f3c 59d8 01be
000000a0: d67b 853d d9be 8ebb ebd4 753c 5304 153e
000000b0: 64b7 c5bd 5469 cb3d 3a61 903d be8f 1d3e
000000c0: aee8 c63e 3fe5 973d b2e7 49bc e3db ddbd
000000d0: 1789 433d dd4e b23c cdbd cb3d b338 063b
000000e0: 8758 4cbd 83d2 bdbc 0e57 80bd 7ee6 fdbd
000000f0: a604 33bc 2916 c33c 4bbb bc3e 006d 85bc
00000100: 2575 8e3d f29e a63c 88cb 193c a01a 82bd
00000110: 264b 313d ec9f cf3d b16c 1b3d cd88 0b3d
00000120: 31a1 b53d 6c14 6d3d 0c5a 733b 7d85 d9bb
00000130: 3862 dbbd c0ea c23c 1a06 3abd d760 a23c
00000140: 6165 9f3d 1e6f 1c3e 8845 61bd 7d4e 80bd
00000150: 6727 b23d d5d0 743d b008 1dbc 7adb adbd
00000160: dd81 82bd bb39 693e 9c8a 193c 240e 433e
00000170: 7d2c 07bc 9857 67bd 6f66 183e 9a22 ecbc
00000180: 27e6 72bd a1a5 c13d 73ff 99bd 4a26 043d
00000190: 2b6a 833e bef8 b6bc 80ad 37bd 9fe7 3fbd
000001a0: b550 c039 9a8e 47bc 0fda 4b3e 4bec 36bd
000001b0: c188 89bd 6a1b fd3e 8dc6 4ebd e609 533d
000001c0: f96a f83d c043 96bd 3b51 703c 34ad c43c
000001d0: 32de c0bd ce96 f7bd c842 e2bd a1e1 e83d
000001e0: c399 5abc c372 4c3d 4ac0 8b3d 990b fabc
000001f0: 29da 5f3d 044a 22bd 2616 90bd 29c9 5a3d
00000200: cded aebd bf61 c4bc 2b6e 61bb 10a3 cd3d
00000210: b92a 3e3e 703a d33d e98a b43d acd4 af3d
00000220: 9470 b0bd ef5b 5ebc 3642 4c3e 04ca ba3d
00000230: dff7 84bc a69a 7f3d d1b8 cf3d 2d4a 89bd
00000240: 771a 213e e1ac 8a3d ce90 6cbb 7efe bd3c
00000250: 6813 08be 4347 463e 2624 983c 2ea9 8b3e
00000260: be58 0c3e c0ea cabd b460 3b3c f6ca 28bd
00000270: 4edb bc3d 3aa0 ab3a f79c 9cbd 95cd 543c
00000280: 9fd3 e13d 099e e5bc 964b 45bd a7f0 8ebd
00000290: 2c20 333e e674 cc3d eaed 84bd 4db6 87bd
000002a0: 210c e3bc 075b 8e3e 23f0 863d e881 b63d
000002b0: 3305 5d3a a8f0 f63b 9d64 ffbd 713a c53d
000002c0: 72d2 593e 4102 b93b 2fea db3c 86bf 423e
000002d0: ea41 293e d18b 0c3b 9971 2f3e eb48 1dbe
000002e0: 2f1f 333c 9f40 ab3e e5c6 d3b8 c458 b43c
000002f0: 4d24 273e b390 293e a49f 343e 7088 823e
00000300: bc01 c3bc 0361 a6bc d1f1 a7bd e189 8fbc
00000310: 3306 833d 3039 45bd 668e 58bd 5f9c 3cbb
00000320: c66d 4f3c f7bc e73d 8356 183e 90a0 113e
00000330: bb6b 8a3d 96d4 84bd 921c 2d3d aa83 853c
00000340: 2c1a 83bd c705 613e 0235 90bd 2009 1c3e
00000350: eb11 813d 1e33 503b a304 c1bc 15fc 403e
00000360: 09ad a23d 5ed9 b63d 5df9 de3d 0ce9 c0bd
00000370: 0b57 753d 2864 473c 35b7 98bd 0f8b ecbc
00000380: 39f5 0dbd ec6e 0fbd 7a3c b7bc 7db3 953c
00000390: da82 d9bc 431f 3c3e f666 a5bc 5348 4fbd
000003a0: 730f 85bd 12db 353e 9346 2fbd 63a6 43bd
000003b0: 5057 b73e 6af7 56bd 92e3 e0bd 698c b3bd
000003c0: 6d43 113e 46d8 563d f7ba b6bd 9c4a a0bd
000003d0: e8a9 9b3b 78a8 493e 14f4 3f3e 174b bcbd
000003e0: 8290 2c3e 5236 3bbd d056 51bd 2fa2 5d3d
000003f0: 57ef 593d b236 c93c eba4 27bd 7f19 3f3e
-0.009971554 0.26967296 0.05449225 0.1963702 0.33996457 -0.04738022 -0.008813449 -0.029284978
0.16197985 -0.06536049 -0.06876427 0.12958173 0.076446585 0.053220917 -0.020665428 0.13184234
0.0415901 -0.024644893 0.06759169 -0.0280375 0.2501698 -0.056254625 -0.09040087 -0.051338885
0.08485622 0.046655163 0.13504998 0.03221502 -0.018257435 -0.033948865 0.24771427 0.1869571
0.06179854 0.08324107 0.07361548 0.022383898 0.14367667 0.12776963 0.0155901415 -0.12680186
0.065177605 -0.004356247 0.015004377 0.14552431 -0.096541196 0.09932199 0.070497945 0.15386865
0.38849396 0.07416772 -0.012323307 -0.10832956 0.04773816 0.02176612 0.09948311 0.0020480573
-0.049889114 -0.023171669 -0.06266604 -0.123974785 -0.010926401 0.023814278 0.36861643 -0.016287327
0.06955937 0.020339463 0.009386905 -0.063527346 0.043284558 0.101379246 0.037945453 0.03406601
0.088686354 0.057880804 0.003713253 -0.0066382275 -0.10712093 0.023793578 -0.045415975 0.019821567
0.07783008 0.15276763 -0.05499795 -0.062649705 0.08698922 0.05976947 -0.009584591 -0.084891275
-0.06372426 0.22775929 0.009371426 0.19048363 -0.008250353 -0.05648002 0.14882825 -0.028825093
-0.05930152 0.09455419 -0.07519426 0.032263078 0.25666937 -0.022335406 -0.044843197 -0.04685175
0.00036681225 -0.012179995 0.19907402 -0.04465894 -0.06715537 0.49434978 -0.05048232 0.05152311
0.121297784 -0.07337141 0.014667804 0.024008371 -0.094173804 -0.120893106 -0.11047894 0.1137116
-0.013342324 0.049914133 0.068237856 -0.030523108 0.054651413 -0.039621368 -0.070354745 0.053414498
-0.08541451 -0.02397239 -0.003439794 0.10040867 0.18570985 0.103138804 0.088155575 0.08585486
-0.086152226 -0.013571723 0.19947132 0.09120563 -0.016231475 0.062403344 0.10142673 -0.06703601
0.15732752 0.06771255 -0.0036097053 0.02319264 -0.13288653 0.19363122 0.018571924 0.2727751
0.13705727 -0.09908056 0.01143663 -0.041209184 0.092215165 0.0013094016 -0.07647126 0.012988468
0.11026692 -0.028029459 -0.048167787 -0.069794945 0.17492741 0.09983234 -0.06490691 -0.06626568
-0.027715744 0.27803823 0.06588771 0.089114964 0.00084312557 0.0075360127 -0.12470362 0.096302874
0.21271685 0.0056460206 0.026845066 0.19018373 0.1652905 0.0021445642 0.17133178 -0.15359847
0.010932728 0.3344774 -0.00010098311 0.022014983 0.16322441 0.16559105 0.17639023 0.2549472
-0.023804538 -0.02030993 -0.0820042 -0.0175218 0.06397667 -0.04815024 -0.052870177 -0.0028779728
0.012660449 0.11315339 0.14876752 0.14221406 0.06758829 -0.0648586 0.042263575 0.016298134
-0.06401476 0.2197486 -0.070413604 0.15237856 0.06302246 0.003176875 -0.023561781 0.18846162
0.0794316 0.08928178 0.10887406 -0.0941945 0.059897464 0.012169875 -0.07456819 -0.028874902
-0.03465769 -0.035017893 -0.022367705 0.018274063 -0.026551653 0.183713 -0.020190697 -0.050606083
-0.06497087 0.1775935 -0.042791914 -0.0477661 0.35808802 -0.052482046 -0.109809056 -0.087670155
0.14185877 0.05245235 -0.089223795 -0.078267306 0.004750479 0.19693172 0.18745452 -0.0919401
0.16852 -0.0457061 -0.05110818 0.05410975 0.053206768 0.024562214 -0.040928762 0.1866207

actor.4.weight f4 [100, 256]
00000000: f234 993f cc79 1f3d 7348 ab3d 2b08 ad3f
00000010: 5c12 d53f e59e 5abc fc80 97bd 55f5 7a3d
00000020: 4bc6 713f 3b44 543f 6d48 483f 8e25 823f
00000030: 9cbe b33f 41df 943f 77ed 823f b460 a33f
00000040: be3c 793f 221a a53d f302 b63f 9099 903d
00000050: 3e3f a63f 0c6c 4c3e ce18 193d 7589 cf3e
00000060: 581b a53f 3977 703f cbee 973f 86d2 5c3f
00000070: 6980 9d3f 5b91 953f 1747 8a3f e8cd 9d3f
00000080: a974 983f 390a 923f 4363 7a3f cdcf 863f
00000090: 3fd1 be3f 2d0f 763f bdd3 173d eda7 663f
000000a0: d7a6 5f3f 2be7 e83e 0b21 873f ef41 903f
000000b0: 4ea8 e03e c6e7 8b3f 5d3b 203f a341 653f
000000c0: 37ab d93f 29f1 823f 9ab4 1e3f b858 443e
000000d0: 75cc 7c3f 1f94 5d3f 1654 b13f 7495 873f
000000e0: cffa 0a3f 0584 433e db0c 9d3f ce7a 183f
000000f0: 3120 dc3c 1486 a03f d194 ac3f 88e6 ac3c
00000100: b237 3b3f 801e 043f 9ec1 8a3f e172 893f
00000110: b620 973f 7488 d93f ff8d 9f3f 091e 4f3f
00000120: fb54 723f ee50 c53f 71f0 b93d 5eb0 8a3f
00000130: 3843 a93f 0666 913f b91a 38bc 233f 5a3f
00000140: 41f8 943f 53c3 3d3f 9311 6b3f a707 153f
00000150: 438a 453f 4adf 343f ec73 a43f 5658 ac3e
00000160: 787b 863d 5f20 c23f ce81 1c3f ff11 4a3f
00000170: c205 693f f634 973f e88c b23f 045e be3f
00000180: c771 d83e 2c04 2d3f 3b39 993f 9509 573f
00000190: eb87 713d 9bcb 63bd 3118 fe3e 0618 363f
000001a0: 4f02 263f d3b9 923f a9c4 5d3f ffc9 923f
000001b0: cdd2 bf3f 5dfc e33e 208b 1c3f 7a7d bf3f
000001c0: 5c8d 133f a888 f23e 4078 173f 21c8 943f
000001d0: 5616 ae3e d93f 363e 5f24 923e 9165 933f
000001e0: 4acb 2c3e d8cf 923f 4e8c cc3f 03b8 fd3e
000001f0: c56e 873e 5d1b b73f 05c7 183e 6cb8 933f
00000200: e758 813d fe53 bb3f 8140 423d 8851 0e3f
00000210: d10a c73f 7678 a03f 5f1f 4d3f 7b0f 8e3f
00000220: 82c7 123f 213a 5d3f 721c 833f 6ab2 d03e
00000230: f7dc dc3e ced3 8a3f 05f6 113f 08a1 383e
00000240: 815a 683f 619c ca3e 6837 c63f 48ae 243d
00000250: 8880 43bc fefd 9e3f 4a66 5a3f 0f74 8b3f
00000260: cb07 eb3e fdf2 353f 308a 8d3f fde4 7b3e
00000270: fb0c 843e e38c 583f f21b ba3e 7a2e fa3d
00000280: de16 023f f2be a53e e033 c7bd 2121 923f
00000290: 26f0 1a3f 7845 aa3f 3c66 9f3f f0b1 e83e
000002a0: e323 623f 35f1 8c3f ea96 983f 02b2 5c3f
000002b0: b9fc 01bd 5cd1 f3bc 4f55 573f e85c 3b3f
000002c0: 695d 9d3f 2504 793f 3a61 36be 6d01 833f
000002d0: 572b 4a3f 4d23 88bd 1b1f 8c3e 095c c53d
000002e0: 9a20 b2bd df19 3a3f 2c01 a63f bb85 893f
000002f0: d435 083f 5653 bd3e 5843 5a3f beb2 f63f
00000300: 5a99 133c a4dc a13e 6441 9e3f 2c3f a03e
00000310: 7294 c93e 4071 5f3f cfd7 1a3e bb42 553f
00000320: 7b7f 2dbd 25b1 a83f a404 783f c9d4 5b3f
00000330: ddd0 8a3f 3474 073e 12fd 403f ca83 333f
00000340: 59b0 6b3f 0d4d 873f fdab 353f f338 113f
00000350: f46a 803f 0590 2f3e 14e3 753f aeed 883f
00000360: 3c0a 8c3f ad64 bd3f 5359 a83f 325f 7b3f
00000370: b8fa 863f 5382 453f b338 a73f 0118 2b3e
00000380: dd9d 703f fa59 65bd 4840 813f 18ce ba3f
00000390: 2b09 c8bc 8020 563f 0762 983e 71f0 853f
000003a0: 7b6b 3d3f a812 6f3f 278f fe3e 0ffe b93f
000003b0: ea77 9e3f 9d37 bb3e f89d 253f 57b1 a3bc
000003c0: 4629 5a3f 4231 4e3f a57a e23b b854 db3f
000003d0: 1d4b 0a3f 0737 9f3f 6238 913f fe2f 583d
000003e0: c08d aa3e f8ca 7b3f 1e8e 7d3e 9741 903e
000003f0: 1978 363f 4326 a33e 4281 e63e 574c 7e3f
1.1969283 0.038934514 0.08363428 1.3518118 1.6646228 -0.0133435475 -0.07397649 0.061269123
0.94443196 0.8291661 0.7823551 1.0167711 1.4042544 1.1630632 1.0228719 1.2763886
0.9735831 0.08061625 1.421965 0.0706054 1.298805 0.19963092 0.03737717 0.4053456
1.289897 0.9393192 1.1869749 0.86258733 1.2304813 1.1684984 1.0802945 1.2328463
1.1910602 1.140937 0.9780771 1.0532166 1.4907607 0.96116906 0.037067164 0.90099984
0.8736395 0.45488867 1.0556959 1.1270121 0.43878406 1.0930107 0.6259058 0.8955328
1.7005376 1.0229846 0.61994326 0.19174469 0.98749477 0.8655414 1.3853786 1.0592484
0.54288954 0.1909333 1.2269548 0.59562385 0.026870819 1.2540917 1.3482915 0.02110602
0.7313186 0.5160904 1.0840337 1.0738183 1.1806858 1.6994767 1.2465209 0.80905205
0.9466092 1.5415323 0.09079064 1.0835073 1.3223639 1.135926 -0.01123684 0.8525259
1.1638261 0.74126166 0.9182369 0.582148 0.77164096 0.7065321 1.2847877 0.33661145
0.065665185 1.5166129 0.61135566 0.7893371 0.9102441 1.1813037 1.3949251 1.4872441
0.42274305 0.6758449 1.197059 0.83998996 0.058967512 -0.055614095 0.49627832 0.71130407
0.6484727 1.1462959 0.86628205 1.1467894 1.4986206 0.44528475 0.6114979 1.4960167
0.5763757 0.47369885 0.5916786 1.1623574 0.34001416 0.17797793 0.28543374 1.1515371
0.16874424 1.1469679 1.5980318 0.49554452 0.26451698 1.4305226 0.1491967 1.1540656
0.06315785 1.4635007 0.047424797 0.55593157 1.5550176 1.2536762 0.80125993 1.1098474
0.57335675 0.8641682 1.0243056 0.4076112 0.43137333 1.0845888 0.5701602 0.18030179
0.907631 0.39572433 1.5485659 0.04020527 -0.0119325 1.2421262 0.8531233 1.0894793
0.45904383 0.71073896 1.1057796 0.24599071 0.25791153 0.84589976 0.36349446 0.12215896
0.5081614 0.32372242 -0.09726691 1.141636 0.6052269 1.330245 1.2453074 0.45448256
0.8833601 1.101111 1.1921055 0.8620912 -0.031735156 -0.029762916 0.84114546 0.7318864
1.2294132 0.9727195 -0.17810526 1.023481 0.7897238 -0.06647358 0.27367482 0.09636695
-0.086976245 0.72695726 1.2969108 1.0743936 0.53207135 0.36977643 0.8525901 1.9273298
0.00900873 0.31613648 1.2363706 0.31298196 0.39371067 0.8728218 0.15121387 0.8330495
-0.042357903 1.317906 0.9688208 0.8587156 1.084499 0.13227922 0.75386155 0.7012297
0.9206596 1.0570389 0.7096556 0.5672752 1.003264 0.17144783 0.9604962 1.0697534
1.0940623 1.4796349 1.315226 0.9819213 1.0545263 0.77151984 1.3064178 0.16708376
0.9399088 -0.05599401 1.0097742 1.4594145 -0.024418434 0.8364334 0.2976229 1.0464002
0.7399213 0.9338784 0.49718592 1.4530658 1.2380345 0.36565867 0.64694166 -0.019982023
0.8521923 0.8054391 0.006911593 1.7135229 0.54020864 1.2438668 1.1345332 0.052780144
0.33311272 0.9835658 0.24761245 0.2817504 0.71277004 0.3186513 0.4502049 0.99335235

actor.4.bias f4 [100]
00000000: 18bc a63f 3a1a a93f 002c 7e3f bf96 873f
00000010: 233a 8e3f b8d7 703f 8c3e 8e3f ecea 813f
00000020: 152b 7b3f fdb4 7e3f 443b 6a3f 549c 963f
00000030: e26b 7a3f 9f6f 983f 257d ad3f 30b8 943f
00000040: 70df 903f 82be 813f 165e 9a3f 1acd 853f
00000050: ccd9 6f3f 723d 913f 44aa ad3f 9a56 a33f
00000060: c78d b13f e8a5 a03f e3a1 9c3f 00c9 833f
00000070: 71a3 893f fbd1 8b3f 5bde 733f 3933 8d3f
00000080: a826 9e3f 2708 9d3f b4ca 873f c7f3 a73f
00000090: 9499 6c3f 6335 9b3f dab3 933f cb5c 963f
000000a0: d3fd 4b3f 2ac1 823f 0b9f 853f 696d 793f
000000b0: e567 913f ca1d b13f 7762 b13f 65b4 913f
000000c0: 0a8b 7d3f 796c 7f3f d0a3 863f af69 6e3f
000000d0: abd9 933f f4b4 8f3f 6ef1 8e3f 9764 a33f
000000e0: 511a 7a3f 83e6 913f 76d9 9e3f 17d0 793f
000000f0: 1649 8c3f 827b 9b3f 5114 873f a7c9 953f
00000100: 426e 953f 7ac8 b43f e3c0 8b3f 51a2 883f
00000110: c20b 8f3f f4c0 a13f d41d 8d3f 562d 843f
00000120: b42b 943f 48de 963f c28d 8f3f 108c 9a3f
00000130: 5a49 9e3f 0885 863f 9c31 923f 46bd 6d3f
00000140: 4396 8c3f db1e 573f a60c 973f 9b82 7c3f
00000150: 235a 893f 390e a53f 6999 843f dc2b 803f
00000160: e650 8e3f 8d5d 853f 30d3 893f 1cce 4a3f
00000170: 983a 633f 8d1a 863f 71b0 8c3f 92f6 8b3f
00000180: 6142 9f3f d7d1 923f 754a 953f 5866 6b3f
1.3026152 1.3211129 0.9928589 1.0592879 1.1111492 0.9407916 1.1112838 1.0149817
0.9811261 0.99494916 0.9149668 1.1766458 0.97820866 1.1909064 1.3553816 1.161871
1.1318188 1.0136263 1.2059963 1.0453217 0.93691707 1.1346877 1.3567586 1.2760804
1.3871392 1.255063 1.2236904 1.0295715 1.0753003 1.0923456 0.9526116 1.1031257
1.2355547 1.2268113 1.0608735 1.312127 0.9242184 1.2125667 1.1539261 1.1747068
0.7968418 1.0215199 1.0439161 0.9743257 1.1359831 1.3837216 1.3858174 1.1383177
0.9904028 0.9977489 1.0518742 0.9313001 1.1550802 1.1227098 1.1167428 1.2765073
0.97696406 1.1398472 1.2410114 0.97583145 1.0959804 1.2147067 1.0553075 1.1702164
1.1674273 1.412368 1.0918239 1.0674535 1.1175463 1.263701 1.1024728 1.0326335
1.1575837 1.1786585 1.1215136 1.2073994 1.2366135 1.0509348 1.142139 0.92866933
1.0983356 0.84031457 1.1800735 0.9863679 1.0730633 1.2894965 1.0359317 1.0013385
1.1118438 1.0419174 1.0767574 0.7922075 0.8876128 1.0476853 1.0991346 1.0934622
1.2442132 1.1470288 1.1663347 0.9195304
